Old_models/tic_tac_toe_net.pth (torch, 11471 bytes, 4 tensors)

fc1.weight f4 [128, 9]
-0.11011752 0.17982046 -0.02677864 -0.025188569 -0.016636303 -0.12500693 0.067419425 0.2852826
0.12101093 0.21220115 -0.20702869 -0.012071903 0.30271527 0.008941324 0.01604317 -0.057407457
-0.13433366 0.18980238 0.13063267 -0.026208166 -0.31166887 -0.27725434 0.17446883 -0.21474029
0.21785508 -0.2518228 0.22868308 0.041281473 -0.08600083 -0.16121575 0.5673923 0.0049265353
-0.38133 0.32335094 -0.14099957 -0.047262557 0.25169525 0.063036814 -0.19478744 -0.12219076
-0.37781924 -0.20623015 0.17322315 -0.090106316 -0.03855964 -0.44708478 -0.030952524 -0.27545217
-0.11628125 -0.25004858 -0.3366096 0.20100075 0.24408056 0.050233923 -0.38783652 0.14773738
0.065996684 -0.26761788 -0.15985622 -0.4166212 0.30025488 0.089107364 0.15962563 -0.18395524
0.06670892 0.18342634 -0.12627251 -0.029271299 -0.008867012 -0.121409126 0.096494325 0.29925445
-0.058550663 0.055681337 -0.2841637 0.011339453 -0.08319544 -0.32373682 -0.0362191 0.00289511
0.23116629 0.35099235 -0.11424479 -0.37636864 -0.19616711 -0.4007692 -0.5807954 -0.37933868
0.46544987 -0.19855367 -0.016519964 -0.14769202 0.11733393 0.40516573 -0.13942699 -0.18513398
0.16348645 -0.1431125 0.048813205 0.29199117 0.40039474 -0.22075275 -0.092574194 -0.042461544
-0.046854813 -0.09975165 -0.1912765 0.06569305 -0.13936347 -0.1087642 0.050190162 0.29297233
0.17433181 0.19504377 0.21962789 0.08620727 0.1976921 -0.13634707 0.09418014 -0.15822004
0.032524586 -0.005133873 0.29327363 -0.20434836 0.3194046 -0.18705836 -0.19360562 0.1735683
-0.19786604 0.072272494 -0.1349121 -0.35301435 -0.1592142 0.23288031 0.23572749 -0.037900053
-0.14029264 0.3385913 -0.09232594 0.09292834 0.20250338 0.22004884 -0.03539866 -0.0013685543
0.11704867 -0.30882883 0.31236896 -0.019031592 0.15567541 0.19243118 -0.12997924 0.074267015
-0.07323386 0.106966905 -0.28191298 -0.12365295 -0.15038617 -0.16982116 -0.2526002 -0.30872902
0.16857558 -0.32601592 -0.052302383 0.18954411 -0.10382041 0.336394 -0.17215301 -0.0017480722
-0.092530295 -0.1435113 -0.03820888 -0.16982633 0.009117591 0.4131702 -0.34420103 -0.3010066
0.032762423 -0.3854408 -0.16033861 -0.004832655 -0.057763964 -0.021843752 0.21405002 0.24128479
-0.22684982 0.1749986 -0.022890054 0.050989162 -0.16313098 0.070121095 -0.20091797 0.3764769
0.04003331 -0.19709496 -0.31712267 -0.1171476 -0.20751369 -0.13789085 0.107633576 0.25464728
-0.03842897 0.15433504 0.1818673 -0.4153916 -0.14159602 0.3600609 0.025826868 -0.09539707
0.048727565 0.0028570988 -0.041366976 -0.14941424 -0.3342802 -0.14368482 0.052655686 -0.23314252
-0.042688828 0.14435856 -0.0067528184 -0.031570286 -0.15966336 0.17082284 0.2726014 0.07580489
-0.0015621167 -0.12056036 -0.12573153 -0.23740065 -0.1757774 -0.088953994 0.013464666 -0.25143793
0.012933067 0.06388422 -0.25206235 -0.1977452 -0.035301875 0.1695737 -0.05816258 -0.26207593
0.1040827 -0.14343551 -0.18125406 -0.18950121 -0.15022586 -0.38995498 0.057966977 0.62412477
-0.10210239 -0.12576886 0.1377195 -0.41502255 0.2068046 -0.04519391 -0.1880606 -0.19210482
00000000: 4b85 e1bd db22 383e e15e dbbc 4258 cebc
00000010: db48 88bc d101 00be 3213 8a3d 9010 923e
00000020: 94d4 f73d 424b 593e 54ff 53be 3bc9 45bc
00000030: 7ffd 9a3e a27e 123c f76c 833c 1524 6bbd
00000040: c38e 09be 8e5b 423e 92c4 053e 82b2 d6bc
00000050: 1093 9fbe 48f4 8dbe f5a7 323e e1e4 5bbe
00000060: 6715 5f3e ebee 80be e62b 6a3e c316 293d
00000070: 3421 b0bd be15 25be 9f40 113f c66e a13b
00000080: b03d c3be 418e a53e 3162 10be 6296 41bd
00000090: 33de 803e 7219 813d 5c76 47be 263f fabd
000000a0: 8671 c1be ff2d 53be 6961 313e a989 b8bd
000000b0: b7f0 1dbd 4ce8 e4be 2690 fdbc 1108 8dbe
000000c0: dd24 eebd 5e06 80be 1858 acbe 24d3 4d3e
000000d0: 41f0 793e 16c2 4d3d 8292 c6be 7848 173e
000000e0: 4529 873d 3605 89be 59b1 23be 604f d5be
000000f0: 02bb 993e ec7d b63d e774 233e c35e 3cbe
00000100: b09e 883d 1dd4 3b3e 954d 01be 5dca efbc
00000110: f246 11bc 59a5 f8bd d19e c53d e137 993e
00000120: d2d2 6fbd 1d12 643d e87d 91be 1dc9 393c
00000130: 5f62 aabd d5c0 a5be 7b5a 14bd e3bb 3d3b
00000140: dbb6 6c3e 45b5 b33e 2cf9 e9bd 64b3 c0be
00000150: 08e0 48be 9f31 cdbe 02af 14bf ae38 c2be
00000160: 724f ee3e a751 4bbe e054 87bc 943c 17be
00000170: c64c f03d e271 cf3e f3c5 0ebe c393 3dbe
00000180: fe68 273e 158c 12be 5bf0 473d de7f 953e
00000190: 8a00 cd3e 020d 62be 8a97 bdbd 28ec 2dbd
000001a0: d5ea 3fbd 984a ccbd fddd 43be 148a 863d
000001b0: 4cb5 0ebe c4bf debd 3394 4d3d 7800 963e
000001c0: 0a84 323e 8eb9 473e 22e6 603e 708d b03d
000001d0: cc6f 4a3e 919e 0bbe 84e1 c03d 6f04 22be
000001e0: 8038 053d 0c3a a8bb f627 963e b240 51be
000001f0: 0089 a33e 3a8c 3fbe 8d40 46be e3bb 313e
00000200: 659d 4abe 9a03 943d 6626 0abe 4cbe b4be
00000210: 0c09 23be 2d78 6e3e 8c62 713e 163d 1bbd
00000220: e0a8 0fbe d75b ad3e 6215 bdbd 3751 be3d
00000230: 0c5d 4f3e 7c54 613e 2ffe 10bd 1061 b3ba
00000240: 37b7 ef3d d01e 9ebe d3ee 9f3e 24e8 9bbc
00000250: 6069 1f3e ae0c 453e 4719 05be 4e19 983d
00000260: a2fb 95bd 7711 db3d e656 90be c23d fdbd
00000270: d5fe 19be 99e5 2dbe d054 81be bb11 9ebe
00000280: 149f 2c3e 8feb a6be 063b 56bd da17 423e
00000290: cc9f d4bd d63b ac3e e148 30be 921f e5ba
000002a0: 8680 bdbd a0f4 12be ea80 1cbd f4e6 2dbe
000002b0: f361 153c 0b8b d33e 1e3b b0be 891d 9abe
000002c0: e431 063d 7f58 c5be ce2f 24be 405b 9ebb
000002d0: e899 6cbd abf1 b2bc ee2f 5b3e 5c13 773e
000002e0: 524b 68be d532 333e ec83 bbbc 03da 503d
000002f0: cf0b 27be a69b 8f3d 71bd 4dbe 95c1 c03e
00000300: f8f9 233d 43d3 49be e75d a2be 15eb efbd
00000310: 787e 54be 4233 0dbe fe6e dc3d 2161 823e
00000320: b267 1dbd 010a 1e3e 6c3b 3a3e 35ae d4be
00000330: 8cfe 10be e759 b83e de92 d33c 8a5f c3bd
00000340: 8e96 473d 2a3e 3b3b 6b70 29bd 0c00 19be
00000350: c626 abbe 1d22 13be 7dad 573d eabc 6ebe
00000360: 7bda 2ebd bbd2 133e bf46 ddbb d84f 01bd
00000370: cb7e 23be 2fec 2e3e 6992 8b3e 983f 9b3d
00000380: f0bf ccba 5ae8 f6bd c4bf 00be 2819 73be
00000390: fefe 33be 832d b6bd e79a 5c3c 79bc 80be
000003a0: 37e5 533c bbd5 823d 510e 81be b87d 4abe
000003b0: b398 10bd baa4 2d3e e33b 6ebd d12e 86be
000003c0: 5029 d53d c2e0 12be aa9a 39be 9b0c 42be
000003d0: cfd4 19be 2ea8 c7be c86e 6d3d a4c6 1f3f
000003e0: 0f1b d1bd 8dc9 00be 5706 0d3e d67d d4be
000003f0: 96c4 533e 401d 39bd f592 40be 20b7 44be

fc1.bias f4 [128]
0.042611714 -0.025113162 -0.26412302 -0.3948048 -0.38097358 -0.4193181 -0.22121423 -0.030610016
0.19755661 -0.27268764 -0.040539756 -0.5871629 -0.05375568 -0.27255893 -0.036513805 -0.03776316
-0.421678 -0.15044591 -0.28204426 -0.5308705 -0.2921069 0.077661976 -0.27835792 -0.2503798
-0.14557822 -0.021600198 -0.016893996 -0.429022 -0.021530256 -0.39681858 0.11500801 -0.36931032
0.015474819 -0.35167953 0.0125696445 -0.21740334 -0.22528136 -0.13662732 -0.6575172 -0.1034159
0.05826669 0.036031023 0.038241606 -0.3190645 -0.2447504 -0.1530379 -0.22184116 -0.14292757
-0.33033416 -0.4392584 -0.21923946 0.0068673864 -0.28222495 -0.04031834 0.116395146 -0.09338846
-0.06528485 -0.33454075 -0.34575096 -0.44558978 -0.4594051 -0.58359706 -0.41445512 -0.80660594
-0.15348245 0.027986823 -0.25867245 -0.064390145 -0.7552526 -0.12167018 -0.0077513135 -0.16284981
0.0928918 0.07407328 0.08884474 -0.47955492 0.03429879 -0.30755198 0.11780552 -0.20730829
-0.018500002 -0.077211276 -0.25010931 -0.3092282 -0.2792183 -0.40264022 -0.083605975 -0.41959226
-0.21866852 -0.104091324 -0.16976242 0.01962189 -0.12703477 -0.5189414 -0.4103536 -0.31303683
-0.41539407 -0.0716271 -0.19852291 -0.18312013 -0.07546531 0.07602618 -0.015237864 -0.17756744
-0.06777528 -0.2901119 -0.09519774 -0.24178421 0.10424976 -0.12381786 -0.14235425 -0.31376415
0.16698143 0.033883996 -0.080962054 -0.1135853 -0.112849444 0.111489974 -0.19966541 -0.47309595
0.077879116 0.09036972 -0.19038752 -0.39683482 -0.023174275 -0.45115766 0.21480386 0.15356411
00000000: 9f89 2e3d 1eba cdbc 223b 87be db23 cabe
00000010: f80e c3be ddb0 d6be fc85 62be dbc1 fabc
00000020: 484c 4a3e b79d 8bbe 040d 26bd 4f50 16bf
00000030: ea2e 5cbd d88c 8bbe 808f 15bd 8bad 1abd
00000040: 2ee6 d7be 7e0e 1abe 1b68 90be 21e7 07bf
00000050: 098f 95be 3e0d 9f3d ee84 8ebe c831 80be
00000060: 7512 15be e6f2 b0bc 4765 8abc c6a8 dbbe
00000070: 3860 b0bc ce2b cbbe 5289 eb3d 3e16 bdbe
00000080: 188a 7d3c 570f b4be e9f0 4d3c fb9e 5ebe
00000090: 28b0 66be 08e8 0bbe 0c53 28bf b7cb d3bd
000000a0: 0da9 6e3d 4495 133d 3ba3 1c3d 6c5c a3be
000000b0: d99f 7abe f8b5 1cbe 542a 63be 9b5b 12be
000000c0: 8f21 a9be 7ae6 e0be 4f80 60be d007 e13b
000000d0: ca7f 90be d824 25bd 9460 ee3d 7342 bfbd
000000e0: 10b4 85bd ed48 abbe 4506 b1be 5824 e4be
000000f0: 2537 ebbe 9e66 15bf 7633 d4be ba7d 4ebf
00000100: 812a 1dbe 9f44 e53c b770 84be fbde 83bd
00000110: 3c58 41bf 372e f9bd bbfe fdbb 1ac2 26be
00000120: 0e3e be3d bbb3 973d 3bf4 b53d 3988 f5be
00000130: e37c 0c3d 7477 9dbe 0544 f13d a048 54be
00000140: 518d 97bc f220 9ebd 540e 80be 2953 9ebe
00000150: b3f5 8ebe dc26 cebe 9c39 abbd ccd4 d6be
00000160: a4ea 5fbe d52d d5bd 33d6 2dbe 16be a03c
00000170: 6715 02be 58d9 04bf de19 d2be 5d46 a0be
00000180: 88ae d4be 3bb1 92bd 9749 4bbe d883 3bbe
00000190: 8e8d 9abd 9db3 9b3d 3ca8 79bc 3dd4 35be
000001a0: c4cd 8abd 8c89 94be 08f7 c2bd 4896 77be
000001b0: e680 d53d 3894 fdbd 50c5 11be b2a5 a0be
000001c0: 2efd 2a3e f2c9 0a3d 6fcf a5bd 699f e8bd
000001d0: 9c1d e7bd db54 e43d 1775 4cbe a239 f2be
000001e0: 167f 9f3d c213 b93d f2f4 42be ef2d cbbe
000001f0: fad7 bdbc 23fe e6be 8bf5 5b3e e93f 1d3e

fc2.weight f4 [9, 128]
-0.2423059 0.20837364 -0.18742552 0.18149306 -0.10498782 0.23685487 0.06567575 -0.029225495
-0.065606825 -0.3831677 -0.06475353 -0.037280556 -0.061315615 -0.1141565 0.091264784 -0.15288354
-0.25460356 -0.28837612 -0.16571319 0.05422178 0.074007034 0.07313557 -0.008612489 0.050634038
-0.06812518 -0.031435285 -0.06525147 0.15532863 -0.16259013 0.2841879 0.007938636 0.31655172
0.15864474 -0.47042966 -0.01171134 0.15937716 -0.007363738 -0.02569299 -0.14653446 -0.04455445
0.39201304 -0.041655276 -0.30680847 0.16621025 -0.0968124 -0.06321632 -0.054202627 0.10310061
-0.4229417 -0.01778806 -0.12696236 0.08134831 -0.33958608 0.24760559 -0.16148648 0.27790868
0.08341252 0.047821485 0.00924649 -0.21034545 0.0385301 0.17024337 0.07584704 -0.5320764
0.07429904 0.07792883 -0.25353718 0.12500346 0.16470894 -0.062414203 0.14745127 -0.11949154
0.10907018 -0.26224744 0.010233219 0.14126244 0.035801835 0.03712505 0.47701347 0.19817273
-0.2286422 0.027239852 0.28974566 0.032850694 -0.13509665 -0.024315009 -0.038752623 0.1032815
-0.060397338 -0.16393709 0.036758214 0.065915056 0.06296293 -0.03923522 -0.32014808 -0.04031883
0.12219332 -0.057941087 -0.10594168 0.076155595 0.18174207 -0.0414099 0.044817124 -0.20864424
-0.045050763 0.0799919 0.23843454 -0.007626685 -0.0033993693 -0.010177955 0.41220638 -0.18049209
0.13860655 0.19806463 0.032073908 0.07175962 -0.014805228 -0.0530105 0.0068464093 -0.27189317
0.079018824 -0.24899858 -0.023223689 0.13870072 -0.084249526 0.0571236 -0.111304976 0.21274686
0.11846632 0.2029096 -0.25662452 0.056657303 -0.05415632 0.21966536 -0.4653039 0.19038017
-0.077284 0.097566254 0.037655156 -0.3166426 -0.3071622 0.15001576 -0.2618049 -0.27087072
0.15088789 0.10153752 -0.06913641 -0.13949916 -0.018512117 0.18249011 0.053745866 0.09633299
0.08654126 0.03743094 0.14286342 0.16327095 0.043675862 0.17502996 -0.04342489 -0.21018234
0.10820655 0.028397633 -0.15229006 -0.014810931 0.012009581 -0.31043792 -0.0033257315 0.0709788
-0.50068694 0.0041385326 -0.00046693647 0.16141208 0.43058947 -0.3489866 -0.06964692 0.029877488
0.09551481 -0.22776194 -0.17927529 0.1692939 -0.075526066 0.14443663 0.036609817 0.05309833
0.1433949 -0.043928858 -0.056643166 0.06382344 0.12579061 0.08753252 -0.0101083815 -0.06475341
-0.30545342 0.10890947 0.18779558 -0.2692395 0.079638876 0.09240625 0.11072323 -0.20738915
0.16881979 0.23201051 0.018867528 -0.4056636 -0.14285938 -0.013904432 -0.15371636 0.21431299
-0.07305329 0.13893895 -0.26326695 0.058897123 0.05653442 -0.050844796 0.4106379 -0.2816279
-0.13245705 0.22485365 0.10041168 0.1569535 0.03745233 0.19216676 0.12819897 -0.27587453
-0.20387359 -0.26310906 0.0281373 0.08129903 -0.0059479317 0.34948105 -0.1631328 0.010724802
-0.08439056 0.1612 -0.24028364 0.08183779 -0.14436376 -0.20370848 -0.14230613 0.07202408
0.056869525 -0.31394404 0.19118345 -0.020694047 -0.10749135 -0.19915052 0.058362063 0.103268676
0.14821842 0.1081279 0.15157175 0.23978184 0.02789664 0.107224 -0.08555117 0.14130604
00000000: 0a1f 78be e65f 553e 7aec 3fbe 51d9 393e
00000010: db03 d7bd 158a 723e 0281 863d 4e6a efbc
00000020: df5c 86bd 8f2e c4be 809d 84bd 7fb3 18bd
00000030: 1526 7bbd e2ca e9bd 08e9 ba3d 818d 1cbe
00000040: 665b 82be 09a6 93be b8b0 29be a817 5e3d
00000050: 0091 973d 1ac8 953d 661b 0dbc a365 4f3d
00000060: 3785 8bbd 49c2 00bd 90a2 85bd 780e 1f3e
00000070: 077e 26be 1481 913e 0d11 023c 1113 a23e
00000080: c473 223e 28dc f0be ece0 3fbc c433 233e
00000090: 834b f1bb 1b7a d2bc 210d 16be ba7e 36bd
000000a0: efb5 c83e b99e 2abd 0016 9dbe 0533 2a3e
000000b0: 9445 c6bd 8f77 81bd 9303 5ebd 6a26 d33d
000000c0: d18b d8be 44b8 91bc 6c02 02be f199 a63d
000000d0: 3ade adbe 528c 7d3e b65c 25be 0c4a 8e3e
000000e0: 2fd4 aa3d 76e0 433d 977e 173c cc64 57be
000000f0: bdd1 1d3d 4754 2e3e b155 9b3d 2936 08bf
00000100: 182a 983d 2799 9f3d a0cf 81be e800 003e
00000110: 76a9 283e 09a6 7fbd 77fd 163e fbb7 f4bd
00000120: 3060 df3d 4c45 86be 3ba9 273c 1aa7 103e
00000130: f2a4 123d 7010 183d 1c3b f43e cbed 4a3e
00000140: 2e21 6abe 1c26 df3c 8b59 943e 738e 063d
00000150: c756 0abe 4530 c7bc 12bb 1ebd 4085 d33d
00000160: 3363 77bd 20df 27be c88f 163d 79fe 863d
00000170: b5f2 803d 1cb5 20bd 73ea a3be 5c25 25bd
00000180: 7e40 fa3d a253 6dbd f4f7 d8bd 77f7 9b3d
00000190: 981a 3a3e 6d9d 29bd 2992 373d d6a6 55be
000001a0: 2687 38bd cbd2 a33d 2f28 743e 45e9 f9bb
000001b0: f4c7 5ebb 70c1 26bc b70c d33e ebd2 38be
000001c0: e0ee 0d3e 74d1 4a3e ee5f 033d b5f6 923d
000001d0: a191 72bc 8a21 59bd d857 e03b 9535 8bbe
000001e0: 9fd4 a13d 7cf9 7ebe 9b3f bebc 9007 0e3e
000001f0: 048b acbd 70fa 693d ddf3 e3bd 50da 593e
00000200: 789e f23d 89c7 4f3e 4a64 83be 7d11 683d
00000210: 04d3 5dbd f5ef 603e 503c eebe 05f3 423e
00000220: 1347 9ebd d1d0 c73d 4b3c 1a3d fb1e a2be
00000230: 5d44 9dbe bb9d 193e 4b0b 86be 91af 8abe
00000240: 5b82 1a3e e7f2 cf3d 6497 8dbd ded8 0ebe
00000250: b9a6 97bc b0de 3a3e a024 5c3d 3b4a c53d
00000260: 8b3c b13d 2f51 193d ca4a 123e 8030 273e
00000270: 76e5 323d 0e3b 333e 4cde 31bd 0a3a 57be
00000280: 659b dd3d 27a2 e83c edf1 1bbe 8ca9 72bc
00000290: d5c3 443c b8f1 9ebe 84f4 59bb 555d 913d
000002a0: 052d 00bf 879c 873b 27cf f4b9 3549 253e
000002b0: 3976 dc3e 5fae b2be 0ba3 8ebd a2c1 f43c
000002c0: 459d c33d 6d3a 69be f193 37be 615b 2d3e
000002d0: 69ad 9abd 32e7 133e 2df4 153d a27d 593d
000002e0: 1dd6 123e bfee 33bd aa02 68bd ddb5 823d
000002f0: 41cf 003e 4044 b33d a09d 25bc 709d 84bd
00000300: 6464 9cbe ee0b df3d 7c4d 403e c2d9 89be
00000310: b519 a33d 7d3f bd3d dcc2 e23d d25d 54be
00000320: 18df 2c3e 2a94 6d3e 1390 9a3c 24b3 cfbe
00000330: bb49 12be 6acf 63bc d267 1dbe dd74 5b3e
00000340: f79c 95bd 0346 0e3e edca 86be 1c3e 713d
00000350: a390 673d a242 50bd 213f d23e 8831 90be
00000360: d2a2 07be 0940 663e a4a4 cd3d 6bb8 203e
00000370: 9d67 193d 5dc7 443e 9746 033e 6d3f 8dbe
00000380: 3dc4 50be 3bb6 86be 3280 e63c 1b80 a63d
00000390: dee6 c2bb 2eef b23e 490c 27be 14b7 2f3c
000003a0: f5d4 acbd 9d11 253e ea0c 76be 929a a73d
000003b0: 18d4 13be f598 50be b3b8 11be 5c81 933d
000003c0: 05f0 683d 46bd a0be 98c5 433e 9086 a9bc
000003d0: 6d24 dcbd 1dee 4bbe 0f0d 6f3d 877e d33d
000003e0: 92c6 173e 2972 dd3d a035 1b3e 5f89 753e
000003f0: 7f87 e43c 4298 db3d 7435 afbd 88b2 103e

fc2.bias f4 [9]
0.07723525 0.058870886 -0.03486266 0.011024659 -0.009573357 0.5798521 -0.029338034 0.0015060455
-0.012639494
00000000: 842d 9e3d 9922 713d 26cc 0ebd c5a0 343c
00000010: 92d9 1cbc 3071 143f 5156 f0bc 8066 c53a
00000020: e115 4fbc
