Old_models/tic_tac_toe_net_v2.pth (torch, 11489 bytes, 4 tensors)

fc1.weight f4 [128, 9]
000000 98 e4 fd be ba c2 37 be 3a 57 09 3f 50 ad b7 be
       -0.49588466 -0.17945376 0.5364872 -0.35874414
000010 e8 2e 94 3d 72 ed c9 3d 56 20 a7 be 66 bb 4b bd
       0.07235509 0.09859742 -0.32641858 -0.049739264
000020 84 d5 fc 3d c8 e8 59 be b0 f1 73 be 23 e4 55 bd
       0.123454124 -0.21280205 -0.23822665 -0.05221952
000030 ec 18 74 3e f8 90 30 bf 57 d7 c3 3e 4a f6 f5 bd
       0.23837632 -0.68971205 0.3825023 -0.120098665
000040 1c 75 37 3b c4 a4 63 3e 40 71 a3 3e fe fe fc 3d
       0.0027993387 0.22230822 0.3192234 0.123533234
000050 58 17 92 3d 7c 02 22 3e 50 ef 3b 3e 61 58 cb be
       0.07133359 0.1582126 0.18353009 -0.39715865
000060 3b f7 31 be b0 f1 a0 be 2e e3 e5 bd 80 9c 28 3e
       -0.17379467 -0.31434393 -0.11224972 0.1646595
000070 ac 47 35 3e 87 a5 80 3e b9 5c 37 be e8 e2 2e 3d
       0.17703122 0.25126287 -0.17906465 0.042696863
000080 49 d9 bf bd e3 94 ca be b8 de c0 3d ee 52 9c 3d
       -0.09367616 -0.39566717 0.0941748 0.07633005
000090 e0 d6 01 be c0 67 c2 bd 45 c1 84 3d f7 5f c9 ba
       -0.12679625 -0.09492445 0.06482176 -0.0015363683
0000a0 74 e9 32 3d 00 83 93 be 06 2f e5 3d a6 90 ce bd
       0.04367967 -0.28810883 0.1119061 -0.10086183
0000b0 2f e1 51 3e 7d ea f3 3d 4f c4 d5 3b 0c 12 9e be
       0.20496057 0.119099595 0.006523646 -0.30873144
0000c0 25 b4 1b 3e 55 af 32 3f d1 74 e2 bd ac 36 be 3d
       0.15205438 0.69798785 -0.11057437 0.092877716
0000d0 ff 2e 8c be 04 98 87 be 1e 92 dc 3e e6 96 4d be
       -0.27379605 -0.26483166 0.4308023 -0.20077094
0000e0 1b c5 01 bd 46 fa d8 bc 66 b0 f1 3d 8c cb 0d be
       -0.031682115 -0.026486527 0.118012235 -0.13847178
0000f0 23 6a 8b be b5 75 f0 3e 00 21 aa be 1b 2a 2f 3e
       -0.27229413 0.46964803 -0.33228302 0.17105906
000100 d1 d1 2a be 94 70 c5 bd 7b 36 83 3d 82 10 ef 3c
       -0.16681601 -0.09640613 0.06406876 0.029182676
000110 11 87 3e bd cf f5 60 be f6 76 16 3f b0 20 d3 be
       -0.046515528 -0.21968769 0.5877527 -0.41235876
000120 3f e9 8b be c8 34 70 bd 82 42 88 be 1b 5e a9 3d
       -0.2732639 -0.058644086 -0.2661324 0.08269902
000130 d7 e1 25 3e 81 da 8f 3c e8 2d 8a bd 9b 20 9d 3e
       0.16199432 0.017560245 -0.06747037 0.30688938
000140 f8 21 b4 bd eb 6e 39 be ee a3 0b be fc e8 bf 3e
       -0.087955415 -0.18108718 -0.13636753 0.3748244
000150 d0 25 99 bc 01 24 52 3e b9 04 3f 3d f2 cc 05 bf
       -0.018694788 0.20521547 0.046635363 -0.52265847
000160 cb d4 e5 3d b6 d3 77 3d e1 2b f3 be 77 26 a8 bd
       0.11222228 0.060504638 -0.47494414 -0.082104616
000170 fd 0a 84 3d 9d 7e a8 be 32 5f 49 bd e3 eb 32 3e
       0.06447408 -0.32909098 -0.04916305 0.17472796
000180 79 27 dc 3e e3 1e 08 be 2e c5 33 bc 0b 32 5c 3d
       0.42998865 -0.13293032 -0.010972304 0.053758662
000190 0d ce da be d1 74 3d be 6c 1d 25 3e 10 b9 0e 3e
       -0.4273533 -0.18501593 0.16124505 0.13937783
0001a0 86 e5 c5 3e 3d d4 07 bc b1 f6 31 bd 7d 1d e4 bd
       0.38651675 -0.008290348 -0.043448154 -0.11138437
0001b0 9e b3 90 3e 49 c4 cf be 34 b1 8e be 6d e3 00 be
       0.28262037 -0.4057944 -0.2786957 -0.12586756
0001c0 4d 92 9f be 0d b7 ae be 9f 0b b5 3e 27 bf 49 be
       -0.31166306 -0.34124032 0.3536043 -0.19701825
0001d0 de 99 a4 bd 88 50 21 bf 39 d8 13 3e a4 79 a0 be
       -0.0803716 -0.63013506 0.14437951 -0.31342804
0001e0 ae bf 18 bc b6 46 6f bb 70 c6 bf be ae ba 33 3e
       -0.009323044 -0.0036510653 -0.37456083 0.17551681
0001f0 07 99 0e 3e 71 08 6e 3e 17 ec 82 3e ba d2 84 3d
       0.13925563 0.23245408 0.25570747 0.064855054
000200 05 62 09 be 10 1a 04 bf 28 d1 e7 bd 89 64 94 be
       -0.13416298 -0.5160227 -0.1131919 -0.28982952
000210 74 0b 3d be 08 83 5b 3e 4e 22 32 3e 26 4b 5e bd
       -0.184614 0.21436703 0.17395899 -0.054270886
000220 98 a8 b1 be 2b 49 fb 3d 15 68 c8 be 31 df 45 3c
       -0.3469894 0.12269815 -0.39141908 0.012077139
000230 89 7e 6f 3e 2a 58 14 be 57 cf 30 be 04 7c d4 bd
       0.23388113 -0.14486757 -0.17266594 -0.103752166
000240 3e 17 a0 bd 57 35 90 be 16 46 a5 3c 3f 31 1a bf
       -0.07816933 -0.28165695 0.020175021 -0.60231394
000250 d5 20 21 3e 3a ca 23 bf 0b b0 fe 3c 82 b3 a6 3d
       0.1573518 -0.6398045 0.031089803 0.08139707
000260 de 93 21 3e 55 b8 58 3e 58 8f 20 be 4a 66 e0 3c
       0.15779063 0.21164067 -0.15679681 0.027392525
000270 84 36 f7 3d fb 1f a5 3e 21 41 25 bd cd 6e d8 be
       0.12070945 0.32250962 -0.040345315 -0.42272034
000280 f0 51 aa bd 1d bf d2 bc 25 9b fd 3d 40 84 64 bd
       -0.083164096 -0.025725896 0.12383107 -0.055790186
000290 f6 32 1c 3c 38 17 43 be df 67 2c 3d 5b fc 8f 3b
       0.009533634 -0.19051826 0.042091247 0.004394097
0002a0 bf d0 dc be 8e 36 b8 bd d1 e1 03 bf 3d bb 23 be
       -0.4312801 -0.089947805 -0.51516443 -0.15989394
0002b0 d6 a9 29 3d 4b 44 81 be ee a8 b5 3d 9d b6 8b be
       0.041421734 -0.25247416 0.088701114 -0.2728776
0002c0 84 10 e6 3d 23 51 69 be c4 e7 ce 3e 1e 34 4b be
       0.11233619 -0.22784857 0.40411198 -0.198441
0002d0 c6 33 95 be 59 41 1e be c2 3e d8 3e 71 47 25 3c
       -0.29141062 -0.15454616 0.4223538 0.010087834
0002e0 e7 47 92 3e df b2 7d be 36 1a c0 bc 4e a5 0c 3e
       0.28570482 -0.24775265 -0.023449998 0.13734934
0002f0 24 22 0e 3d 72 f5 5f be 0b a2 04 3e b1 aa 14 be
       0.034700528 -0.21870974 0.1295244 -0.14518239
000300 8b 32 90 3c 72 f1 91 3d 2a 4f ba 3d 00 27 b8 3d
       0.017602226 0.0712613 0.090971306 0.08991814
000310 4b 23 c9 3e 05 7d 89 3e 50 4c 94 3e 31 2b de be
       0.3928474 0.26853195 0.28964472 -0.43392327
000320 e3 5f 25 bf 83 b7 b7 3d e0 1e fc bd 41 f9 1a bf
       -0.64599437 0.08970549 -0.123105764 -0.6053658
000330 3f 50 52 3e c6 0d 88 be 31 ff 81 be 2b ca 62 3e
       0.20538424 -0.26573008 -0.25390008 0.22147433
000340 0c 8d de be 30 f6 ed 3c c4 16 96 3e 3c 6a 07 bf
       -0.43466985 0.029048055 0.29314244 -0.52896476
000350 8d f9 21 3e 52 2b 1f 3e ca 85 02 be 37 a6 09 3d
       0.15817852 0.15543869 -0.12746349 0.03360578
000360 69 69 22 3d c3 a5 06 be 7a 2e ca 3d 5a 83 41 3e
       0.03965131 -0.1314917 0.09872146 0.18897763
000370 08 47 9e 3c 07 bf f1 3d 6e d9 9b be 92 3e 75 3d
       0.01932098 0.11804014 -0.30439323 0.059874125
000380 7f d1 d8 be b6 d2 0f 3e 75 f3 04 be a7 27 c9 be
       -0.42347333 0.14045224 -0.12983496 -0.39288065
000390 16 d0 08 3e 80 6b 74 3e a0 bb 2b 3d 42 88 cf 3d
       0.13360628 0.23869133 0.04192698 0.10133411
0003a0 06 59 72 3e 73 3c 1c 3d 01 17 1a 3f 2b 5e 7e be
       0.23666772 0.038143586 0.6019135 -0.2484061
0003b0 f8 e6 80 3e a3 15 0d bd a9 d0 3f 3e b4 54 4e 3d
       0.25176215 -0.034444463 0.18731941 0.050373748
0003c0 e0 ec a0 be 80 97 8c 3d a6 4d 4c bd d9 b2 25 be
       -0.3143072 0.06864834 -0.04987874 -0.16181506
0003d0 34 39 ed bd 0e e7 22 3d 1e 0c d5 3c 06 31 1b be
       -0.11583176 0.039771132 0.026006754 -0.1515542
0003e0 3a 1e a3 bc 30 8c 4c be d4 84 7c 3e 95 11 25 3e
       -0.019911874 -0.19975352 0.24660045 0.16119988
0003f0 a9 aa 11 be d1 b1 f0 3c ee c5 4c be d8 4d 15 bd
       -0.14225258 0.029381664 -0.19997379 -0.03645119

fc1.bias f4 [128]
000000 53 f6 e5 be 32 ee 3b bf 9e c9 ec be 20 88 71 be
       -0.44914493 -0.7341033 -0.46247572 -0.23587084
000010 eb 10 33 be 1e 89 8e be bd 7c 04 3e f7 36 aa bd
       -0.17486922 -0.27838987 0.12938209 -0.08311265
000020 a7 ff 63 be 36 1b d1 be 74 b2 17 bf eb 91 07 be
       -0.22265492 -0.40841073 -0.5925667 -0.13239257
000030 50 32 16 bf 19 11 ec be 02 4d f2 bc 37 ee 80 be
       -0.5867052 -0.46106794 -0.029577736 -0.25181744
000040 d0 52 5c be 0b a3 0c be be 6d eb be 90 1c 0e be
       -0.21515965 -0.13734071 -0.45982164 -0.13878083
000050 ef 75 a7 bd 22 d5 a4 be 6f 3e 22 bf 5e d3 e4 be
       -0.08176791 -0.32193857 -0.63376516 -0.4469251
000060 70 a3 b7 3d 35 54 f3 bd db 0a 9b be 35 61 23 3e
       0.0896672 -0.118812956 -0.3028172 0.1595505
000070 10 53 88 be 8a cb 7f be 11 9b b8 be 96 04 3d be
       -0.26625872 -0.24979988 -0.36055806 -0.1845878
000080 37 93 b0 be 35 56 e5 be d9 91 01 bf 84 3c 18 be
       -0.34487316 -0.44792333 -0.5061317 -0.14866835
000090 b1 40 bc bd 92 58 5b be 05 a7 2e bf de f2 50 be
       -0.091920264 -0.21420506 -0.682236 -0.20405146
0000a0 2d ea b9 bb f0 44 f0 be cb 5d ea bd 3e 9b 6f be
       -0.005673668 -0.46927595 -0.11443671 -0.23399064
0000b0 55 8e 20 3b f2 a0 0b be da 10 a1 3d c7 7f 5e 3d
       0.00244989 -0.13635615 0.07864542 0.054321077
0000c0 30 b1 1f bf 37 b4 7c be 68 50 38 be 68 19 44 be
       -0.6237974 -0.24678122 -0.17999423 -0.19150317
0000d0 2e 83 8b bd 73 9c d9 be df ff 3c be f7 94 04 bd
       -0.0681213 -0.42502174 -0.18456982 -0.032368626
0000e0 73 e6 56 3b 42 00 e2 bb e4 b3 d2 be a7 7b fc be
       0.0032791167 -0.0068970034 -0.4115287 -0.4931309
0000f0 75 96 7f be 59 d2 5c be 15 e9 60 3d 40 06 8c bd
       -0.24959739 -0.21564616 0.054909784 -0.068371296
000100 1b a6 03 bf e0 b2 6a be fa 9f c0 be 3b 00 14 bf
       -0.5142533 -0.22919798 -0.37622052 -0.5781285
000110 93 dc 00 3e df 24 32 bc 98 88 ed be 38 27 0c bd
       0.12584142 -0.010873049 -0.46393275 -0.03421709
000120 19 8f b4 be 60 86 07 bf 44 4b 5a be 39 2d 11 bf
       -0.35265425 -0.52939415 -0.21317774 -0.5670963
000130 44 c5 49 be 20 76 24 be db d9 e1 be 22 7a a4 bd
       -0.19704157 -0.16060686 -0.44111523 -0.080311075
000140 07 2f e9 be 13 12 18 3d 74 6e 9a be c0 df 76 be
       -0.45543692 0.037126612 -0.30162394 -0.24108791
000150 4a 92 93 be 97 fc e3 bd 36 75 4b be 95 d2 3e bf
       -0.28822547 -0.11132162 -0.19868931 -0.7454007
000160 5d 15 78 3e 54 3d 93 3d b8 5e 7a bd 45 f6 76 3d
       0.242269 0.07189432 -0.061125487 0.060293455
000170 d0 35 50 bd a3 1f bd be 55 4a 1d be 57 1d 86 be
       -0.05083257 -0.369382 -0.15360387 -0.2619426
000180 78 a6 c2 be 75 f5 9f 3d a0 3e 7f be 96 2c 5f 3c
       -0.3801763 0.07810489 -0.24926233 0.01362147
000190 c5 34 b1 be a0 d9 05 be 55 7a 21 bd 29 52 79 3c
       -0.34610572 -0.13071299 -0.039423306 0.015217342
0001a0 44 77 9e be 26 08 4b bf 70 1c 00 bf 3c c1 2d 3e
       -0.30950367 -0.7930931 -0.5004339 0.16968244
0001b0 ee 32 3f 3e e2 37 a5 be 6a ca d6 3c 68 8d 76 be
       0.18671772 -0.32269198 0.026219565 -0.2407738
0001c0 d7 d6 a6 be 3e e2 40 be ae 9e d5 3d f2 2b 9f 3d
       -0.32585785 -0.18836305 0.104306564 0.07772054
0001d0 5f 43 00 bf 1b ee 30 be bc ad 81 bb 76 58 af be
       -0.501028 -0.1727833 -0.0039574783 -0.34247178
0001e0 e3 b5 43 be e8 ef fe be 42 a4 cb 3d a3 6e 15 3e
       -0.19112353 -0.4979241 0.09943439 0.14592986
0001f0 36 82 31 bb 36 9d 3f be f4 5a 77 be ec 21 a4 be
       -0.0027085668 -0.18712315 -0.2415579 -0.3205713

fc2.weight f4 [9, 128]
000000 0a 99 af bd 97 25 8f 3e bf 13 2e 3d ee 23 a6 bd
       -0.08574112 0.27958366 0.0424993 -0.08112322
000010 86 1f 5f be 89 90 90 3d 3f 2c db 3e cd df ad be
       -0.21789369 0.07058818 0.42807195 -0.3395981
000020 39 54 ab 3e ff 54 13 3e 23 05 a7 3d dc 24 93 be
       0.33462694 0.14387892 0.081552766 -0.2873906
000030 d8 78 e5 bd 5d 57 0a 3e 57 05 02 3e 1f e4 aa 3d
       -0.1120469 0.13509889 0.1269735 0.08344292
000040 57 4c 95 be 29 2b ae bd c8 71 60 be 8e 3b 4f bd
       -0.29159805 -0.08504326 -0.21918404 -0.050593905
000050 fa 48 b5 3c eb 37 67 3e c7 97 b2 3e c2 2c c5 be
       0.022129524 0.22579925 0.34881422 -0.3851071
000060 58 f0 9b 3d 24 fb 69 bc 8a 6e d6 bd fd 2d a7 be
       0.07614201 -0.014281068 -0.104703024 -0.32652274
000070 93 02 a1 be d4 8a c8 bd 6f c7 03 be bb 4f 9c be
       -0.31447276 -0.09792104 -0.12869047 -0.3052958
000080 70 98 f3 bd e4 16 56 3d 66 1c 0d 3e e0 0f 74 3e
       -0.118943095 0.052267924 0.13780364 0.23834181
000090 84 23 77 3e e2 08 b7 bd b4 7f c7 3e c7 2c ad bd
       0.24134642 -0.08937241 0.38964617 -0.08455806
0000a0 43 f4 79 3e a2 29 2e 3e c0 58 84 3d d7 b1 8b 3e
       0.24409585 0.17008069 0.0646224 0.2728412
0000b0 ef 15 87 3e 61 14 0f 3e d4 63 15 3d cd 45 93 be
       0.26383922 0.13972618 0.036472157 -0.2876419
0000c0 5d ce 09 bc 04 3f d5 b7 bb f8 10 3e 08 51 ae bd
       -0.008411017 -2.5420923e-05 0.14157383 -0.08511549
0000d0 5e 4a 06 bd ff a8 9b be 6a 5a 11 bd 0f 9f 41 bc
       -0.032785766 -0.3040237 -0.035486616 -0.011817708
0000e0 a5 64 14 3e 39 50 2b be 68 47 16 3e c2 80 5b be
       0.14491518 -0.16729821 0.14675677 -0.21435836
0000f0 ac 37 5f be 5a 46 9f 3e 5b b8 32 3d 96 e5 a1 3d
       -0.21798581 0.3110836 0.043632846 0.07905118
000100 0d ee 1f 3d 74 c8 4c 3e 7e 04 03 be 7f 42 31 be
       0.039045382 0.19998342 -0.12794682 -0.17310522
000110 cd e9 9b 3e a6 9b 91 bd 4f 5e ec 3c 3c 67 29 3e
       0.30451813 -0.07109766 0.028853564 0.16543287
000120 96 70 85 3e 39 db 92 3d bd 72 b7 3e 6d 97 ed bd
       0.2606246 0.0717072 0.35829726 -0.11601148
000130 bc cc 0c be 6c e4 a2 3c 29 fb 4d 3e a5 f8 76 bd
       -0.13749975 0.01988431 0.20115341 -0.06029572
000140 0a a1 09 bf 02 9b eb be 92 68 95 3d 5a e9 49 be
       -0.5376135 -0.460167 0.07295336 -0.19717923
000150 97 f2 c3 be fb 0d e2 3d 32 6c 05 3e 85 cc 54 3d
       -0.3827102 0.11037823 0.13029554 0.051952858
000160 de 1f 80 bd 0e 47 27 3d a7 8d 60 bd 01 f7 32 be
       -0.06256078 0.040839247 -0.05482259 -0.17477037
000170 78 42 21 3e 6b 77 aa bd 61 20 fc bd 11 4b d9 3d
       0.15748012 -0.083235584 -0.12310863 0.10610021
000180 a8 35 9a be c8 de bf 3d 21 5c b3 be 28 eb 73 be
       -0.3011906 0.09368664 -0.35031226 -0.23820174
000190 76 3b 15 3e 84 7c 1b be ea c4 30 b9 cc 9f 2b 3e
       0.14573464 -0.15184218 -0.00016858024 0.16760176
0001a0 70 a4 32 be 1e e4 82 be db 4b fd bc 08 bd 8c 3c
       -0.1744554 -0.25564665 -0.03091996 0.01717998
0001b0 35 8a d8 bd 67 62 f7 3d 46 cb de 3d 4d 4f a8 bd
       -0.10573236 0.12079316 0.10878615 -0.082182504
0001c0 08 a7 29 3e 05 39 d9 3d 97 b2 4c 3e 9e ca b6 bd
       0.16567624 0.10606579 0.19990002 -0.08925365
0001d0 87 93 15 bd 9e 47 28 be 1a 20 30 bd 52 7f 5d be
       -0.036517646 -0.1643357 -0.042999364 -0.216306
0001e0 aa ed f6 3d 59 59 af 3c 79 64 09 3d e0 61 cb bc
       0.120570496 0.021404909 0.033543084 -0.024826944
0001f0 6b f3 ed 3d 23 2b 6f 3e e2 b5 12 3e 12 d3 00 3e
       0.11618694 0.23356299 0.14327195 0.12580517
000200 2e 7e 98 be ca 8c 39 be 03 a0 c1 bd b0 01 13 be
       -0.29783767 -0.18120113 -0.09454348 -0.14356112
000210 9f e4 01 3b 3a 00 46 be b3 5c b9 3b bb 73 d8 3c
       0.0019820107 -0.19336024 0.0056568026 0.026422372
000220 fe 4d 99 3d 41 50 90 be 46 fd 12 be e3 5d 4a bd
       0.07485579 -0.2818623 -0.14354429 -0.049405944
000230 ff 44 5c 3c dc 35 cd bc ec fa 46 be c7 03 9e 3d
       0.013444184 -0.025050096 -0.19431657 0.07715564
000240 68 58 83 3e c9 aa b4 3d 75 16 d8 3d c1 e8 b0 3d
       0.25653386 0.08821637 0.10551158 0.08638144
000250 51 6f ff bd 13 1d 21 3e 36 4d e3 bc d9 ea 55 3e
       -0.12472404 0.15733747 -0.027746778 0.20890369
000260 66 f0 b1 bd 65 da df 3e a6 61 0e 3e 40 6e 66 bd
       -0.086884305 0.4372131 0.13904437 -0.056257486
000270 91 6d 63 3e 22 9c b1 3d 16 2a b2 be fb c9 3b 3a
       0.22209765 0.08672358 -0.34797734 0.00071635813
000280 56 d4 8f 3c 17 5b b7 3d fa 68 40 3e 49 4d bf 3c
       0.017557304 0.08952921 0.18790045 0.023352282
000290 17 52 6e 3d 96 4b 30 be da 4d 7f 3d ac d6 b6 3c
       0.058183756 -0.17216334 0.062330104 0.02231916
0002a0 8b bd 35 bd b2 03 14 be be ca 1c bd fa d0 a1 3d
       -0.044370215 -0.14454535 -0.038279288 0.07901187
0002b0 97 41 e5 bd 41 3b 41 be ad 74 4a 3e d6 e3 24 3e
       -0.11194151 -0.1887026 0.19771071 0.16102538
0002c0 30 a8 85 3e 9a b4 ff 3d b0 e6 df b8 d8 87 08 be
       0.2610488 0.12485619 -0.000106764375 -0.1333307
0002d0 d1 54 55 3d 34 72 16 3e 08 b8 19 be cd 79 3b bd
       0.05208284 0.14692003 -0.15011609 -0.045770455
0002e0 19 5d ac 3c 87 bd 2f bd fb 72 23 be df 61 86 3e
       0.021040486 -0.042905357 -0.1596183 0.26246545
0002f0 5c 2f f9 bb dd 9a a7 bc 96 4d 2b 3e 69 32 41 3e
       -0.0076045226 -0.020459587 0.16728815 0.18866886
000300 a4 98 94 3e aa 20 43 3e 4b 22 04 be 2a 86 5a be
       0.29022706 0.19055429 -0.12903707 -0.21340242
000310 81 0c 35 be 02 be 73 be 15 73 01 3e 88 d0 02 3e
       -0.17680551 -0.23802951 0.12641557 0.12774861
000320 f4 e0 7b be 78 4c b5 bd fd ef 8d bd 2b f3 9b bd
       -0.24597532 -0.08852476 -0.0693054 -0.0761474
000330 c4 4e fb bd 6b ed 80 be 89 f4 c8 be 63 6b 87 3d
       -0.12270883 -0.25181136 -0.39249066 0.06612279
000340 71 29 87 3e e0 77 4b 3e 12 21 ae 3e 8c 43 36 3d
       0.26398805 0.19869947 0.34009606 0.04449801
000350 98 84 39 3e dc 1e 1b bd dc 50 cc 3c 5a 83 01 bf
       0.18116987 -0.037871227 0.0249409 -0.5059105
000360 ae 6e 2b be f8 5f 1a 3e 4f 05 f9 bd 2d 1f 47 be
       -0.1674144 0.15075672 -0.12159216 -0.19445486
000370 a8 ad 3b 3c 34 0a 28 3e 79 89 27 3e 71 b3 a0 be
       0.011454977 0.16410142 0.16361035 -0.31386903
000380 bb 66 90 bc 1a da a1 3e 00 7f f2 3d 24 47 06 3e
       -0.01762711 0.3161171 0.118406296 0.13113075
000390 47 8a 8d be 9d f3 13 3e b6 4b 31 3d 3e d4 32 3e
       -0.2764456 0.144484 0.043285094 0.17463776
0003a0 0d 24 6b 3d 41 8a f7 3c b5 37 ab bd 7e 95 ac bd
       0.057407428 0.030217292 -0.08360235 -0.08426951
0003b0 8d e6 2c 3c 2f 1b 63 bd 81 70 5e bc 9a a0 66 bd
       0.010553014 -0.055445846 -0.013576628 -0.056305505
0003c0 b5 42 10 3e e8 4f 03 3d a5 dd 6d bc 05 7f 2d bd
       0.14087947 0.032058626 -0.014518176 -0.042357463
0003d0 b7 e9 a4 bc b8 87 52 be d5 6e 9c bd 72 0e 7d be
       -0.020130975 -0.20559585 -0.07638327 -0.24712542
0003e0 24 12 14 be 0a 56 6c 3b 66 6c 52 be 13 5a 0e bd
       -0.14460045 0.0036062025 -0.20549163 -0.03475387
0003f0 f4 78 6f 3e 70 aa 3b be a7 7e 0c 3f aa 0d 8c 3d
       0.23385984 -0.18326735 0.54880756 0.06838544

fc2.bias f4 [9]
000000 d8 2d 2e 3d 43 ff eb 3d 81 87 87 3e b0 55 60 3e
       0.04252419 0.11523297 0.2647057 0.21907687
000010 2f 3c d6 bc f4 b4 08 3e 3e 14 d4 bc 13 67 3d bc
       -0.026151745 0.13350278 -0.025888558 -0.011560219
000020 0c e4 b0 3e
       0.34548986
