Old_models/tic_tac_toe_net_v1.pth (torch, 11489 bytes, 4 tensors)

fc1.weight f4 [128, 9]
00000000: da02 63bb 5b80 e53e 9b6e 6e3a 56b0 2a3d
00000010: d87f 1abf b98c 343d b72d 8abb d741 3abe
00000020: 48c7 fa3d 541b 8cbe b1dd 1f3e c0b3 363e
00000030: 561f 07be c3f5 023f 5024 6fbe 5fcd 153e
00000040: 579c 21be 74b1 ca3e aedc 9ebe f1a3 97be
00000050: 93c6 213d fa00 0bbe b19c c83e 0d74 443e
00000060: 1d96 67be 3cca 15be aa7e be3e e699 c63e
00000070: 2f70 993e e693 5f3e 5ab7 50be 85c1 e1be
00000080: faf3 a2bb a87b a0be 5aa1 99be 7c40 c13c
00000090: 3349 10be 890d c93e 7d78 5fbe 8408 623e
000000a0: 7990 d43d 7f90 bd3d a9d8 54be b509 13be
000000b0: c021 14be f800 dc3e 6898 e53d de19 7dbd
000000c0: 764f 993d cfb3 83be 0e52 0bbe 3fc8 e2bd
000000d0: c78c db3d 013f 3abe 866e 70be 14aa 8a3e
000000e0: b060 5b3e 2cf0 03be a3f6 92be 0826 a53e
000000f0: 9f8e 13be 81ca d93d 792d 803e 6e21 b73d
00000100: 21b1 b43b 9a25 8abe 1eb5 0a3e 2162 cdbe
00000110: 3705 b03e f9ee 9dbd 5741 36be 153c 39be
00000120: d7c0 89bd ea63 fcbe 4525 f3be 4742 b03d
00000130: 7da2 ad3e 67a1 8a3d 6f92 a5bd 1893 6bbe
00000140: a6d5 a73e e41e d33e c09a 313e 2022 dfbe
00000150: dac8 5dbd f93b 763b 0ed8 d4bd efd9 703e
00000160: 59f6 9a3d 2509 293d 0f56 26bf 26c3 a2be
00000170: c2c4 6fbe bf5f 9abe fcc8 c6be a996 49be
00000180: ed4a 06be 6a11 6e3e 4182 2e3e 33de 38be
00000190: aec5 15bf dce9 5d3d b021 263e cb13 1c3f
000001a0: aff2 56bd b9d0 cebe bf1a e2be 5d62 713e
000001b0: b0ad a4bc b0a4 c2be 3bdb ae3e 1c73 033e
000001c0: 2125 f83d a564 6abb 7a1c 8bbe f5bb 72be
000001d0: ad55 423d a1d0 ee3e e3b5 f1be 4357 0f3f
000001e0: 15e0 c8bd 3108 84be c964 0b3e fdc8 54bc
000001f0: 3df2 b6bd 1de4 a1bd 7f81 043e ab24 0bbe
00000200: ab30 d1be 1c8d f7bd f9d3 f5bd b9ae 5b3e
00000210: 58fa 09bf 2ea1 25be 37e4 bfbe 50c4 e8be
00000220: b0ea d63d 398d acbd 71fe cebc 8596 073f
00000230: 3965 4bbd abf3 ef3d d60a 6abe 515b 0a3c
00000240: be83 40be 1c7d 3b3d 00d2 1d3e 69e8 61bc
00000250: ff17 b8be 7921 203d 66ae ec3d 8eab 97bd
00000260: 80d2 aabe 82c8 a4be 2bbd 00be c077 0d3e
00000270: 844e 34bd bde5 15be d28e a3bd 95d8 583d
00000280: 3cca 313e 1e65 b23e 5857 043d 7367 af3e
00000290: 381a 223e c4c1 c3be ac38 e0bd dd03 3b3e
000002a0: 3fed 973d 4304 7c3d fc39 cb3c 7b38 d1be
000002b0: 88b5 673e a005 003e 0e7a 063d cb83 093e
000002c0: e9c3 2dbe 600d e53e b90a debd 8a5c 5fbd
000002d0: 800c e2bd 8af7 cb3e 5e69 a1be 4a81 8abe
000002e0: df40 013e be5e 383e ede1 06be 189d 9b3d
000002f0: 7c26 423e 1fe9 843e fa7a ba3d abae 8abc
00000300: c079 8f3d b873 de3d 5fd7 b1bd 36ed a63e
00000310: 23ce 373d efc3 8abe 89cb 04be ea5d d7bc
00000320: 428a 58be 4b02 42be 804c b13c 0391 59be
00000330: cf43 df3d 13e8 9d3e 7584 ab3e 098d 8b3d
00000340: de8f 8fbe 09bd d3bd 6081 103e 0c3b ef3d
00000350: 585b b3be c11b 13be ed2b fe3d bb2c 18be
00000360: 7f25 dbbe 9999 0bbf feb4 da3e a5d0 acbd
00000370: 22e3 b43d 21b9 853d d460 c4bd 3c5b b2be
00000380: 1433 a93d 0778 c43d 4bfb c0be dfe7 fbbe
00000390: 54f4 603e adc0 6f3e f46e 313e 04d0 b8be
000003a0: ca84 a1be 8f44 e23d 0078 a13c 21f8 cdbc
000003b0: dc36 ffbd 7af6 3e3d 4d05 1cbf ec9b d53e
000003c0: d96e ed3d 5ada 173e cd1f 943e 0101 af3e
000003d0: c9d2 2cbe 3b92 993e 2e2c 3dbc c0d3 f3bc
000003e0: f10a 7dbe 7aa1 54be 150b c9be f788 3dbe
000003f0: ed2c 18be 3eed 4e3e 4a2b 37bd 56f6 163e
-0.003463915 0.4482449 0.0009095461 0.041672073 -0.60351324 0.044079516 -0.0042168754 -0.18189178
0.12245041 -0.273646 0.15611912 0.17842007 -0.13195547 0.5115625 -0.23353696 0.14629124
-0.15782295 0.3958851 -0.3102774 -0.29617265 0.039496016 -0.13574591 0.39182046 0.19184895
-0.22615857 -0.14627928 0.37206012 0.3878929 0.29968402 0.21833763 -0.20382443 -0.44092956
-0.004972932 -0.31344342 -0.30005914 0.023590319 -0.14090423 0.3926814 -0.21823306 0.22073561
0.103791185 0.09256076 -0.20785774 -0.14359172 -0.14466 0.4296949 0.1121071 -0.061792247
0.07485859 -0.2572312 -0.1360552 -0.1107335 0.107202105 -0.18188097 -0.23479661 0.27082884
0.21423602 -0.12884587 -0.28703794 0.32255578 -0.14409874 0.10634328 0.25034693 0.08941923
0.0055142795 -0.26981813 0.13545653 -0.4011393 0.3437898 -0.07711596 -0.17798363 -0.18089326
-0.067262344 -0.49294978 -0.47489372 0.086063914 0.3391303 0.06769066 -0.080845706 -0.2300533
0.32780188 0.41234505 0.17344189 -0.43580723 -0.054146625 0.0037572368 -0.10392772 0.23520635
0.07566518 0.041268487 -0.64975065 -0.3178951 -0.23414901 -0.30151173 -0.38825214 -0.19686379
-0.1311452 0.2324883 0.17041875 -0.18053512 -0.5850476 0.054178104 0.16223788 0.609677
-0.052477535 -0.40393618 -0.4416103 0.23572679 -0.020102352 -0.38016272 0.34151635 0.1283688
0.12116457 -0.0035765555 -0.27170163 -0.23704512 0.047444988 0.46643546 -0.4720908 0.55992526
-0.09808365 -0.257875 0.13612665 -0.012987372 -0.08932922 -0.07904837 0.12940024 -0.13588206
-0.40857443 -0.12087461 -0.12003321 0.2145337 -0.5389762 -0.16174766 -0.37478802 -0.45462275
0.10493982 -0.084253736 -0.025267811 0.5296405 -0.04965708 0.11716398 -0.22855696 0.008444623
-0.18800256 0.04577361 0.1541214 -0.013788321 -0.35955808 0.039094422 0.11556701 -0.07405768
-0.33363724 -0.32184225 -0.12572162 0.13815212 -0.04402019 -0.1463842 -0.07986225 0.052940924
0.17362303 0.3484277 0.03230986 0.34258613 0.15830314 -0.3823377 -0.10948309 0.18263192
0.07418298 0.0615275 0.024807923 -0.40863404 0.22627842 0.12502146 0.032831244 0.13429181
-0.16969265 0.44736767 -0.10841889 -0.05453161 -0.110375404 0.39837295 -0.315257 -0.27051765
0.12622403 0.18004891 -0.13172121 0.07598323 0.18959993 0.25959107 0.09105487 -0.016928991
0.07005644 0.10861915 -0.08683657 0.32602853 0.04487432 -0.2710261 -0.12968268 -0.026289899
-0.21146491 -0.18946187 0.021642923 -0.21246724 0.10901605 0.3084112 0.33499494 0.0681401
-0.2803945 -0.1033879 0.14111853 0.11681184 -0.35030627 -0.14366056 0.12410722 -0.14860813
-0.42802045 -0.54531246 0.4271621 -0.08438233 0.08832385 0.06529451 -0.09588781 -0.3483523
0.082616955 0.09593206 -0.3769172 -0.4920034 0.21968204 0.23413344 0.17327482 -0.36096203
-0.31546623 0.11048233 0.01971054 -0.025142731 -0.124616355 0.046621777 -0.6094559 0.4172052
0.11593408 0.14829388 0.28930512 0.34180453 -0.16877283 0.29994377 -0.011546178 -0.029764056
-0.24711205 -0.20764723 -0.39266267 -0.18509279 -0.14860888 0.20207688 -0.044719018 0.14742407

fc1.bias f4 [128]
00000000: 6e3c 353e 43ea d3bd 20fc 6fbe 16c3 453e
00000010: 4d9e 8bbe 1d14 e6be 4cec 89be 5352 c7bd
00000020: 3d35 f0bd 82d8 aebd 5bdb 10bd 33d0 74be
00000030: 6f60 e83d ad84 21bf de66 7abe b534 abbe
00000040: 802a 39be 6e7a 3cbe 6d6d debc fc5b 8abe
00000050: b655 43be f16b b5be 8721 5abe 7e88 e2be
00000060: 6728 09bf c639 c13d 6eb2 b9be 6816 9b3d
00000070: 0a29 8fbe 3772 6abd ff07 bfbe ffa0 5bbd
00000080: 4c3f 34bf b62a d4be 6249 6bbe b1ef 0dbe
00000090: ef06 803d 43b6 adbd 1b8d e0bd c656 0a3e
000000a0: 0f8a f03c 9bc0 76be 521b 6abe cb32 87be
000000b0: 451e 51be 20ea abbd 1bbc ba3c 3135 0f3e
000000c0: 36cd 4cbe b442 93be 3e50 c3be 0ca7 44bc
000000d0: f25d 63bd 602e 153d a86d 91be 0b06 6ebe
000000e0: 8d44 95be f92e e2be 4f57 203e b38c b6be
000000f0: c002 ecb8 52dd e43d 20db 41bf 0f57 5cbe
00000100: 00f1 40be d70f 633d 1d9f a1be 3c34 e6be
00000110: ddf6 bebd 07eb 12bf 9920 1bbe 44bb f4bb
00000120: 8856 7e3d c25b 033e 2518 9c3e 57b8 453e
00000130: 11ed 53be 3e23 20bf 5e4f c23e 45b9 04bf
00000140: a947 253d 7990 1fbd 4f83 b9bd 80c5 c3be
00000150: fa0d 83bd aeaa 3bbf 7ac5 92be 5f97 9dbd
00000160: c851 a3be 48cc 8b3d 7611 89bd 1f09 3ebf
00000170: d3a0 72be 3bd0 99be 9718 5cbe ef35 163e
00000180: 0f7e 52bd d918 39bf cd9d e83d c6d9 17be
00000190: 7e3a 03be 0bef 3cbe bb4d 90be c52e eb3d
000001a0: 3872 cd3d 3c94 533d f4ef 47be 5de7 8bbd
000001b0: d08a d43d edcd a7bd 4ca5 c33d 10d2 13be
000001c0: 9c0e ae3d 0ceb 0e3e 9bb2 d0bd f31e 08bf
000001d0: 2fd7 9a3d 200b 93be 8cc1 4bbe 9c81 e6bd
000001e0: 1a27 aabe 425d 22bf 14c0 8abe 5c0c e4be
000001f0: f36f 663c 35e3 c9be e1f8 9bbe 5ded 003e
0.17698833 -0.10347416 -0.23436022 0.193127 -0.2726921 -0.4493722 -0.26938093 -0.09732499
-0.117289044 -0.08537389 -0.035365444 -0.23907547 0.11346518 -0.6309307 -0.24453303 -0.3343865
-0.18082619 -0.18406078 -0.027151788 -0.27023304 -0.19075665 -0.35433915 -0.21301852 -0.4424476
-0.53577274 0.094348475 -0.36268944 0.07572633 -0.27960998 -0.05723783 -0.37310788 -0.053620335
-0.70409083 -0.41438836 -0.22977212 -0.13860966 0.062513225 -0.08482029 -0.10964414 0.13509664
0.029362706 -0.2409691 -0.22861984 -0.2640594 -0.20421703 -0.08394265 0.022794774 0.13985135
-0.20000157 -0.28761828 -0.38147157 -0.012002718 -0.055509515 0.03642118 -0.28403974 -0.23244493
-0.29153863 -0.44176462 0.15658306 -0.3565422 -0.00011253869 0.11175026 -0.75724983 -0.21517585
-0.18841934 0.055435028 -0.31566706 -0.44961727 -0.09324429 -0.57389873 -0.15149154 -0.007468613
0.06209424 0.12827972 0.3048717 0.19308601 -0.20695902 -0.62553775 0.37951177 -0.518452
0.040351544 -0.03895614 -0.09058248 -0.38236618 -0.0639915 -0.7330731 -0.28666288 -0.07694887
-0.31898332 0.06826073 -0.066927835 -0.7423267 -0.23694162 -0.3004168 -0.21493755 0.14669012
-0.05138975 -0.7230354 0.11358223 -0.14829168 -0.12815282 -0.18450563 -0.28184304 0.1148353
0.10031551 0.05165504 -0.19525129 -0.068312384 0.10378039 -0.08193574 0.09553012 -0.14435601
0.0849888 0.13956851 -0.10190316 -0.53172225 0.07560574 -0.28719425 -0.19898051 -0.1125519
-0.33232957 -0.6342355 -0.2709967 -0.4454068 0.014064777 -0.39431158 -0.30463317 0.12590547

fc2.weight f4 [9, 128]
00000000: c62c 23bd 0884 a0bb 5aad bcbc b6c7 d6bc
00000010: d125 9d3d b0bf 0d3e ee13 343e a478 1d3b
00000020: 508f 06be d8d4 023e 5b66 053e 4405 eb3c
00000030: c7a0 23be 2755 a2be 64f9 153c 52f5 5d3d
00000040: 2251 253e 21c9 d03d 3809 5e3c 53fe 86bd
00000050: 1148 713d e6df 25be 0170 1b3e f08b f8bd
00000060: 4a73 a6bd 8e61 dd3c 5686 4bbe 9bdf d23d
00000070: 1513 21be d201 103e ad69 213e fb84 233d
00000080: b720 34bc e929 23bc d504 b739 ba5b 653e
00000090: d171 c13c cb98 1e3e bc72 103e 5816 043e
000000a0: ff0e 1bb9 6653 89bd f055 0f3d 7cd8 99be
000000b0: 92c9 723d c653 d43d ea89 6a3e d535 30bd
000000c0: acc9 d8bd f285 813e eb56 e83d a820 f3bd
000000d0: a67a 8e3d 7c13 a6bc 1948 53bd 6941 833e
000000e0: 6354 87bd f301 b0be b336 d93c 68df 153e
000000f0: b8e2 123e 7751 433d b1ec aebc 7f8f 763d
00000100: 106c f03a d809 b5bc 4002 babd c6b5 ca3d
00000110: 2aa4 52bd f37a 6d3d 799f 41bd 1250 903d
00000120: 8557 9e3b 3337 27be 6c1b 983b c164 eaba
00000130: 086f 2dbd dfe0 1cbe 58f0 413d ee8e 093e
00000140: b576 523d 4045 36be 5126 b3bd 865c bd3c
00000150: bc20 823c 363a b43c 7e19 513d 5510 bd3c
00000160: 2661 b4bc b292 10bc 0bb0 99be 4e79 8b3c
00000170: 0f9b 3bbd 90a6 6cbd 66ab 1a3e 7937 5e3d
00000180: 6f64 a7bd 8340 7b3d b997 4dbd 0b44 92bd
00000190: 36d9 8b3d 4932 323e a480 393b 1880 1bbe
000001a0: 38f7 babd 83b0 06be e139 dcbb 0c59 463e
000001b0: aa12 81bc dad0 b53d 49f4 bc3d 8006 25be
000001c0: aa00 c0bc cd72 1a3e 1daf ce3d 9257 f53b
000001d0: f962 5c3d b6e9 95be 2de0 85bd ad02 b83e
000001e0: fe9a 97be 77c0 e5be ee25 843d ef65 74be
000001f0: 250b d83d 49f0 cdbd b7ac c43d 1e53 a13b
00000200: 6261 983e ffd7 e9bd 145a a83e 3a18 573e
00000210: 4257 823e 42cc a7be 6b86 f3bd b61a bbbd
00000220: b07f 333e 9dc9 26be 71af 2f3e c77b 09bd
00000230: 1098 603c 7c70 023d 9f3c b8be fae0 5bbe
00000240: ebba d03d 7397 253e 3367 f63c e048 2bbe
00000250: c325 79be fa88 3c3c 0e0a 4b3d 9966 323e
00000260: 740c a73d 53fa 91be 1a56 c13e b7a7 45bd
00000270: 5ef6 6cbe 2d84 abbe 8990 d3be 72dc dc3d
00000280: 3870 543d 0615 943d 4e40 29bc a3e9 0e3e
00000290: 53fd 13be 7573 6d3c 7df2 273c 4055 203d
000002a0: 2751 e23b cca6 293e bb48 60be 22af 133e
000002b0: a154 d2bd 9b42 403e 5f61 453e 2faa 9abd
000002c0: b71b 6cbb 7afd 083f 2e72 e83d 414b 01bd
000002d0: e7a4 36be 0e55 e93d 0b4e eb3d 281c 343c
000002e0: a737 093e 4b1a 2d3c a19d 23bc 1030 efbd
000002f0: ef0d 1abe 6f9a 003e 8752 263e d859 913e
00000300: 5891 ca3c d511 c63e 469b 96bc c1c6 453e
00000310: 1a99 fbbe beb1 9fbe b366 0c3e 43f7 8ebe
00000320: 4c8a 813d 5211 67be b834 33be 8f4d 533e
00000330: 1482 82be 96a0 90be 5a23 43be 2208 71bd
00000340: f24d e4bd 949a 9d3d b32c 3fbd 417b 2e3e
00000350: 27b0 bebc 1f1c 8c3d 2afb 40bd 5b86 863e
00000360: b62a 8ebd 75bb 403e e0c1 083e 88d6 123d
00000370: 9d24 8fbc c87e cdbb ba85 88be 3f65 e73d
00000380: a8ae ba3b 167a 0dbd 6cd2 51bc b24c b33e
00000390: 7d84 4c3e 7c76 ccbd b611 283c d11b a0bd
000003a0: 2cf4 1ebe 8070 c9bc 19ec ff3d a7cd 50be
000003b0: ddeb 4c3e 5060 293e 25b7 633d 0cae 3ebe
000003c0: f97d 8fbe 2bc1 1f3e 6ee6 cd3c 55b4 4abe
000003d0: 692b 02bc 1501 4bbe afef dfbe 418d 183c
000003e0: a76c a33c 5a9c e6be ca1f 9fbd 1a0f ddbd
000003f0: 5bf3 423d ab86 993d 39d0 053e dda4 5cbe
-0.03983762 -0.004898552 -0.02303188 -0.026218276 0.076732285 0.13842654 0.17585728 0.0024028206
-0.13140607 0.12776506 0.13027327 0.028689034 -0.159793 -0.3170559 0.009153698 0.054189034
0.16144231 0.10194612 0.013552003 -0.06591477 0.05890662 -0.16198692 0.15179445 -0.12136066
-0.081274584 0.027024057 -0.19875464 0.102965556 -0.15729935 0.14063194 0.15762968 0.039921742
-0.010994128 -0.009958723 0.0003490808 0.22398272 0.023613842 0.15487973 0.14106268 0.12899148
-0.00014787538 -0.0670536 0.034994066 -0.30047977 0.059274264 0.10367541 0.22904173 -0.04302009
-0.10585341 0.25297505 0.11344703 -0.11871463 0.06956987 -0.020272963 -0.05158243 0.2563584
-0.06607892 -0.34376487 0.02651534 0.14636004 0.14344299 0.047685113 -0.021353098 0.060195442
0.0018342752 -0.02209942 -0.090824604 0.09897952 -0.05142609 0.05797858 -0.047271226 0.07046522
0.0048322105 -0.1632965 0.004641941 -0.001788281 -0.042342216 -0.15320157 0.04734835 0.1343343
0.05138274 -0.17799854 -0.08747543 0.023115408 0.01588475 0.022000413 0.051049702 0.023079077
-0.02201898 -0.008824037 -0.30017123 0.017025616 -0.045802172 -0.057776034 0.15104446 0.05425212
-0.08173453 0.06134082 -0.050193522 -0.071418844 0.06828539 0.17401995 0.0028305436 -0.15185583
-0.091291845 -0.13153271 -0.006720767 0.19369906 -0.01575597 0.08877726 0.09226281 -0.16115761
-0.023437817 0.15082856 0.10091994 0.007487246 0.053805325 -0.2927987 -0.06536899 0.3593954
-0.29610437 -0.44873402 0.06452547 -0.2386701 0.10549001 -0.100555964 0.09603255 0.0049232384
0.29761797 -0.11418151 0.32881224 0.21005335 0.25457197 -0.32773024 -0.118908726 -0.09135954
0.17529178 -0.16287847 0.1715677 -0.03356531 0.0137081295 0.031845555 -0.3598375 -0.2147254
0.10191902 0.16171055 0.030078506 -0.16727018 -0.24330811 0.011507267 0.049570136 0.1742195
0.08156672 -0.28511295 0.37761003 -0.04825565 -0.23140857 -0.3349928 -0.4132121 0.10784234
0.051864833 0.072305724 -0.010330273 0.13956313 -0.14452104 0.014492859 0.010250685 0.0391438
0.006906647 0.16567534 -0.21902744 0.14422277 -0.10270048 0.18775408 0.19275425 -0.07551991
-0.0036027262 0.53511775 0.11349903 -0.03156591 -0.17836343 0.11393176 0.11489495 0.010993041
0.13400136 0.010565351 -0.009986312 -0.11679089 -0.15044378 0.12558912 0.16242419 0.28388858
0.024727508 0.3868548 -0.018384587 0.193141 -0.49140245 -0.31190294 0.13711052 -0.2792302
0.06325206 -0.22565201 -0.1750058 0.20635055 -0.25489867 -0.28247517 -0.19056454 -0.058845647
-0.111476794 0.07695499 -0.046673488 0.17039205 -0.023277355 0.06841301 -0.04711453 0.2627438
-0.0694174 0.18821509 0.13355207 0.035849124 -0.017473513 -0.006271217 -0.26664525 0.11298608
0.00569709 -0.03454026 -0.012806516 0.3501945 0.19972415 -0.099835366 0.010258129 -0.078178056
-0.15522832 -0.024589777 0.12496204 -0.2039095 0.2001185 0.16540647 0.055594582 -0.18621081
-0.28025797 0.15601031 0.025134291 -0.19795354 -0.00794492 -0.19824632 -0.43737552 0.009311021
0.01994927 -0.45041162 -0.07769735 -0.10793896 0.047595363 0.07496389 0.13067712 -0.21547265

fc2.bias f4 [9]
00000000: faa3 36bd 48c4 2c3e 75c4 cb3c b975 8c3e
00000010: f673 313e eab8 6a3d 6f71 3c3d 5f37 043f
00000020: 6676 b13a
-0.044589974 0.1687175 0.024873951 0.27433565 0.17329392 0.057305254 0.046006616 0.5164699
0.0013539314
