tic_tac_toe_net_v1.pth (torch, 11489 bytes, 4 tensors)

fc1.weight f4 [128, 9]
000000 2f 54 20 3d b8 38 67 3b 96 cf 2f 3e 2b a8 ec 3d
       0.039142784 0.003528161 0.17169032 0.11555513
000010 e4 bc 7b be d1 f6 df 3d 8f 31 09 be f1 2d 62 be
       -0.24583775 0.10935748 -0.13397811 -0.22087838
000020 73 d8 f5 3e c7 5d 74 3d 1c bd 6f be a4 23 53 3a
       0.480167 0.059659746 -0.23411983 0.0008054322
000030 73 61 c0 bc b6 15 92 bd 22 c2 94 3e 4b 9e ab bc
       -0.023483967 -0.07133047 0.29054362 -0.020949503
000040 6c fa 2a 3e dc 27 db bd f3 f0 b0 be 19 86 17 be
       0.16697091 -0.10700962 -0.3455883 -0.14797248
000050 3b 02 7d 3e 76 5c 9e 3e 0f 77 2f 3d 75 4b 9d 3d
       0.24707882 0.30929917 0.042838152 0.07680408
000060 f6 de ac 3e f5 e5 0f 3d a2 8f 7c 3e 27 38 a0 3a
       0.33763856 0.035131413 0.24664167 0.0012223766
000070 31 b3 2a be fc b2 fb 3d 9d 34 d7 3d c7 df cb be
       -0.16669919 0.12289998 0.10508082 -0.39819166
000080 39 01 f4 bd 36 6f 93 3e 4d a7 ef bd 67 fb e8 bd
       -0.11914296 0.28795785 -0.11701832 -0.11376076
000090 7a 32 e6 bd de 65 bc bd cb 4e c5 bd 87 b2 fc bd
       -0.112400964 -0.09199117 -0.09634169 -0.12338739
0000a0 e3 50 d3 be a3 f0 12 bd d0 08 17 3e 4d e8 34 3e
       -0.4127265 -0.03587402 0.14749455 0.1766674
0000b0 94 d7 df 3e e8 4a d3 3e 02 d2 bd bc ee a2 99 be
       0.4371916 0.41268086 -0.023171429 -0.30007118
0000c0 52 13 b5 be b8 8c 6b 3e 5b 4a fb bb 3b ab d5 3d
       -0.35366303 0.23002899 -0.007668776 0.1043305
0000d0 f3 86 e8 be 8c 69 b8 bd 9e b9 fd bd 2d e7 f9 3c
       -0.45415458 -0.090045065 -0.12388919 0.030505741
0000e0 af cc 08 be 4d 34 81 be 82 7b 69 3d fb 60 4a bd
       -0.1335933 -0.25235215 0.05700255 -0.049408894
0000f0 9c ea a8 bd d2 f2 ed 3d 37 63 b7 3e 00 dd b0 3d
       -0.08247873 0.1161858 0.35817882 0.086359024
000100 48 33 c2 be 44 08 15 be ab 48 de 3e 40 34 46 3d
       -0.3792975 -0.14553934 0.43414816 0.048389673
000110 9c 13 8d be a7 f1 86 be 60 e2 04 bf 37 e2 1f 3d
       -0.27554023 -0.2635624 -0.5190792 0.039034095
000120 51 d1 9d 3e d6 4c cc bd 42 e4 84 3e f5 89 4e 3c
       0.30823758 -0.09975593 0.25955397 0.012606134
000130 fb 8e b9 be 11 2b 85 be 60 c6 01 3e b0 e6 36 bd
       -0.36241898 -0.2600942 0.1267333 -0.044653594
000140 5e 30 73 3e f2 eb 23 3e 51 f9 d8 3e 10 08 0a 3e
       0.2374892 0.16007975 0.42377713 0.13479638
000150 d7 7e 1e 3e 0f 9c de be 6a 82 86 be bc 7a 45 3e
       0.15478073 -0.43478438 -0.26271373 0.192851
000160 67 77 cf 3d e5 8d 88 3d d2 24 50 3e 5f 26 96 3d
       0.10130196 0.06667689 0.20326546 0.073315375
000170 00 bb 92 bd 7c 77 3e be 23 40 e9 be f5 8e f3 bd
       -0.07164574 -0.18600267 -0.45556745 -0.11892501
000180 46 80 22 3e eb 7c d4 be e6 a3 a3 bd b1 15 08 3b
       0.15869245 -0.41501555 -0.079902455 0.0020764882
000190 ab 9e a7 3e 30 67 7a bd 15 5d 06 be b6 94 53 3e
       0.32738242 -0.061133564 -0.13121445 0.20662197
0001a0 d9 21 ac be 95 a9 55 3b 08 48 bf bd 94 af 97 bd
       -0.33619574 0.00326023 -0.09339911 -0.07406536
0001b0 fd 16 13 bd 35 7d 88 3e e0 f0 43 be 28 f7 1c bd
       -0.035910595 0.26658025 -0.19134855 -0.038321644
0001c0 bc 55 34 3e df e0 03 3d 57 c8 c4 3d 71 91 81 be
       0.1761083 0.032196876 0.09608524 -0.25306275
0001d0 a2 c3 15 be 8a f5 15 3e ab 80 b0 3e bb 68 74 be
       -0.14625409 0.14644447 0.34473166 -0.23868077
0001e0 39 36 21 be 1b 98 58 be bd 73 b1 be 19 96 3f be
       -0.1574334 -0.21151774 -0.34658614 -0.18709601
0001f0 01 d4 ac bd b6 91 60 be 8c a2 0c 3e 85 3f fe bc
       -0.08438874 -0.21930584 0.13733882 -0.031036148
000200 34 a3 72 be 55 5f c4 bd 25 af a0 be 96 f6 b4 be
       -0.2369507 -0.09588496 -0.31383625 -0.3534438
000210 47 c1 09 3f c0 a6 e0 3d 95 d2 c8 3d 8b 03 c6 bd
       0.5381054 0.10969305 0.0980579 -0.096686445
000220 73 73 21 3e 59 e5 40 be d3 0a d7 3e 85 1c d8 3d
       0.15766697 -0.18837489 0.42000446 0.10552315
000230 c8 65 82 be 5c 6b 0d bc 21 81 38 3e f9 32 81 be
       -0.25468278 -0.0086315535 0.18018009 -0.25234202
000240 90 81 24 3d d0 71 8f be 6d a5 a3 3d 47 78 42 be
       0.040162623 -0.2801652 0.07990537 -0.18991195
000250 76 fd 4a bd e8 7e 8c be 81 3a 63 3e a1 a1 96 3e
       -0.049558125 -0.27440572 0.22190286 0.29420188
000260 b4 3d 20 3e 78 42 c5 bc 09 ca 8b 3d 2a d0 9b bd
       0.15648538 -0.024079546 0.068256445 -0.076080635
000270 1a f1 dd bd 9d 60 21 be 30 df c5 3d f0 c1 66 3e
       -0.10837002 -0.15759511 0.0966171 0.22534919
000280 8a d9 78 3e 54 bc 62 3e 8a 77 9b 3e d6 e2 5c 3d
       0.24301735 0.22142154 0.3036464 0.053927265
000290 54 0b a0 bc 8d ea c8 3e 66 19 97 3e 3a e2 d5 be
       -0.019536652 0.39241448 0.29511565 -0.4177416
0002a0 49 52 22 3e 58 8d ec bd ef 28 fb be 0d b5 5d 3b
       0.15851702 -0.11550397 -0.49054667 0.0033829839
0002b0 1b dd 89 3e ea 04 c1 bd 86 35 68 be 3b a2 d7 be
       0.26926503 -0.094247654 -0.22676668 -0.4211596
0002c0 74 ee a3 be 05 68 0f 3e 17 7b 67 be 34 11 60 be
       -0.32017863 0.14004524 -0.22605549 -0.21881562
0002d0 e0 0d 64 be 0c 77 2a 3d d9 57 0a bd a3 ef 37 3e
       -0.22270918 0.04161744 -0.033775184 0.17962508
0002e0 6d cf dc bd 4f df cb 3e 5b cf ec 3c db 39 c0 3e
       -0.10781751 0.39818808 0.028907469 0.3754414
0002f0 52 ef 51 3d 3b be 6d be 8f cf 14 3e d4 ce a8 be
       0.051253624 -0.23217098 0.14532302 -0.32970297
000300 c2 0e 92 3d f8 98 66 be e0 36 a2 be 1d 9a 96 3e
       0.07131721 -0.2251929 -0.3168249 0.29414454
000310 aa 5e 52 3d 8a 92 8d 3e 13 8b a8 3e 0e b4 1e 3e
       0.05135981 0.27650863 0.32918605 0.15498373
000320 c7 61 c4 bd 44 6c 00 be 96 c0 f1 bd b3 6c ff 3d
       -0.09588962 -0.125413 -0.11804311 0.124719046
000330 39 97 b6 3e 8d 2c 38 be 42 49 b8 3e 58 c6 21 3e
       0.3566225 -0.17985745 0.3599339 0.15798318
000340 99 91 a1 be 0f 08 20 3e c8 e9 24 be e9 d8 f0 be
       -0.31556395 0.15628074 -0.16104805 -0.4704049
000350 87 d2 be 3d de 42 f2 bd c2 4b d6 be 2c a0 c5 3d
       0.09317499 -0.1182916 -0.41854674 0.09649691
000360 55 0a d9 bc d0 06 80 3c b6 a6 70 3c f2 41 f2 3e
       -0.026494185 0.015628248 0.0146881845 0.47315937
000370 ae c1 38 be 78 0e 99 be 56 68 e5 3e 9d e8 8b 3e
       -0.18042633 -0.2989385 0.44806165 0.27325907
000380 10 e9 46 3e cd da 7e 3e 36 21 01 bf 40 60 14 be
       0.19424844 0.24888153 -0.504413 -0.14489841
000390 cb 64 a2 be 0e 49 17 3e 08 45 3a bd 65 2e cf 3e
       -0.31717524 0.14773962 -0.04547599 0.40465084
0003a0 a5 3c 82 be 14 a4 59 be 30 ed 5f 3e 0c 00 01 be
       -0.25436893 -0.21253997 0.21867824 -0.12597674
0003b0 2a 2f 43 be 8c 76 60 be 44 04 38 3e ab 93 96 bc
       -0.1906096 -0.21920222 0.17970377 -0.01838096
0003c0 c3 81 21 3e fe d2 97 3e 14 09 83 3e 9e ad 8c 3e
       0.15772156 0.29653162 0.25592864 0.2747621
0003d0 93 9b ad be 6e ea 8a 3e da 4a 76 bd 47 a3 81 bd
       -0.33907756 0.2713198 -0.060129978 -0.06329971
0003e0 8e 3f 8e be 7c 6b 93 be 64 4a b6 3d 7a 8b e0 be
       -0.27782863 -0.28792942 0.08900908 -0.43856412
0003f0 05 b4 37 be c8 ea a9 3e 71 cb a4 3e cb f6 9b be
       -0.17939766 0.33186936 0.32186463 -0.30461726

fc1.bias f4 [128]
000000 b9 32 d6 be 6a 8e 02 3c 37 80 af be a7 03 80 3e
       -0.41835573 0.0079685245 -0.34277508 0.25002787
000010 38 a5 59 3c e2 9a 3e be 14 58 d1 3c 20 1c 3d be
       0.01328402 -0.1861377 0.025554694 -0.1846776
000020 e7 3e 88 be bb 95 e8 be be cd 5f be 77 17 30 3d
       -0.2661049 -0.45426735 -0.21855828 0.042991128
000030 57 5d f4 be 6c 76 bc 3d e7 2a 91 bd 26 4c 99 be
       -0.47727463 0.09202275 -0.07088261 -0.2994091
000040 e6 70 b4 be f9 5f 63 bd 7b d6 82 be da eb 95 be
       -0.35242385 -0.05551145 -0.2555426 -0.29281503
000050 83 b1 9f be 51 88 ba bd d7 92 b0 3d cb 36 54 be
       -0.31190118 -0.091080315 0.086217575 -0.20724027
000060 bd f1 f3 bc 2f 4e d6 3c c1 2f 62 be 62 1f 96 be
       -0.029778356 0.026160328 -0.22088529 -0.29320818
000070 5b 7e b0 be e0 2c ef bd f5 12 67 be 73 7e 4c 3e
       -0.34471402 -0.11678481 -0.22565825 0.19970112
000080 a7 8f 4f be a2 f3 16 3d ba d6 1b be bc a2 bf 3d
       -0.20269643 0.03685344 -0.1521863 0.09357211
000090 20 83 0f 3e 6c d0 9f be a5 f2 25 3d 3e c4 11 3d
       0.14014864 -0.312137 0.040514607 0.03558754
0000a0 dc a4 cc be c9 92 f0 bd 7e ea d5 3d cc 8c 33 be
       -0.39969528 -0.11746747 0.104451165 -0.17534178
0000b0 f4 91 b0 be c1 17 3b be 91 b6 33 be 9f dd 92 3b
       -0.34486353 -0.1827078 -0.17550112 0.0044819857
0000c0 a7 18 13 be 91 06 f7 be 2c 21 8c be 04 a8 24 bd
       -0.14364873 -0.48247197 -0.27369058 -0.040199295
0000d0 de cf f5 be 60 30 b9 be 46 e2 b0 be 6e de b6 bd
       -0.48010153 -0.3616972 -0.34547633 -0.08929144
0000e0 af 86 a7 bd 99 ac 94 3d 85 b1 c7 be 60 01 92 be
       -0.08179986 0.07259483 -0.39002624 -0.28516674
0000f0 7c 84 9a be 14 36 38 be f5 a3 00 be 4f 8b 03 be
       -0.30179203 -0.17989379 -0.12562545 -0.12846111
000100 46 c1 48 bd ea 85 f2 3c 3f af 18 bf 8c 48 f8 be
       -0.049012445 0.02960487 -0.59642404 -0.4849285
000110 25 18 c2 3d a1 a7 c9 bd cc 13 58 be 35 4d 25 be
       0.094772615 -0.09846426 -0.21101302 -0.16142733
000120 e3 10 62 be 34 a7 6e bd 82 67 ad be c7 11 71 3c
       -0.22076754 -0.058264926 -0.33868033 0.014713711
000130 3c 3e 2b bd eb 1b 91 be 64 fa 83 3e f7 e7 08 bf
       -0.0418074 -0.28341612 0.2577697 -0.5347895
000140 44 e6 94 3d 99 f8 59 be 7e d7 4d be ee 56 f8 3c
       0.07270482 -0.21286239 -0.20101735 0.030314889
000150 a5 2c 9f be eb 25 97 bc 45 47 0c be d6 cb dd be
       -0.3108875 -0.018450698 -0.13699062 -0.43319577
000160 10 49 d8 bb 0b ec 82 be 11 e5 37 be ab 65 01 be
       -0.0066005066 -0.25570711 -0.17958476 -0.1263644
000170 57 b5 cb 3b d8 0c 0c 3e 83 10 82 be 22 ec 07 3e
       0.0062166858 0.13676775 -0.25403222 0.13273671
000180 a1 bf 9f 3d 02 5e 4e be 3e 35 fc 3d 34 c7 2a 3d
       0.07800222 -0.20153049 0.12314843 0.04169388
000190 24 30 d4 3c aa 8a a1 be 29 fb 70 be 68 cd c0 be
       0.025901861 -0.31551105 -0.2353331 -0.37656713
0001a0 a3 38 0c be 93 90 1c 3e b8 e4 97 bc 95 7f 0b be
       -0.1369348 0.15289526 -0.018541679 -0.13622887
0001b0 f9 5d 5a be 24 e5 9a 3d 9a be 76 bb a1 9d 13 bf
       -0.2132491 0.07563236 -0.0037650228 -0.576624
0001c0 7a f3 b9 bd dc d0 7e be 5a 8a 69 bd 00 d9 91 bd
       -0.090796426 -0.24884361 -0.057016708 -0.071214676
0001d0 3a 17 c2 3d f6 b1 dc 3d 8c 65 25 3e 28 90 11 bd
       0.09477086 0.10776131 0.16152018 -0.03553787
0001e0 20 29 7b be 15 f8 54 3d e8 29 59 be 81 51 82 bd
       -0.24527407 0.051994402 -0.21207392 -0.06363202
0001f0 6b c3 ef be a1 ee 60 be ef 15 d9 3d cc f0 c2 be
       -0.4682878 -0.2196603 0.105998866 -0.38074338

fc2.weight f4 [9, 128]
000000 d0 56 93 be b1 dd 81 bd 9c 8c c9 3d a8 6f c2 3d
       -0.2877717 -0.063411124 0.09841272 0.09493953
000010 0a b1 a4 3d 28 cc 54 3d 74 07 87 bd c6 2a 15 be
       0.0804158 0.05195251 -0.065932184 -0.14567098
000020 f4 70 53 3c 52 d7 81 be de 0a 16 3e d9 a1 44 3e
       0.012905348 -0.2535959 0.14652583 0.19202365
000030 79 44 84 3e b5 28 d4 3e 8d 1c cc bd 38 62 bc 3e
       0.2583349 0.41437307 -0.09966383 0.36793685
000040 a9 6c 22 bd e8 65 c7 bd a0 65 8b be 4e 67 a7 bd
       -0.039654408 -0.09736234 -0.2722597 -0.08174001
000050 cb 4f f1 3d 51 04 ac 3d 06 e6 40 3d a6 46 18 3e
       0.117827974 0.08399261 0.047094367 0.148707
000060 b8 36 c6 bc 57 b5 1e be da f0 e5 3d 82 46 79 3e
       -0.024196014 -0.15498863 0.112275794 0.24343303
000070 12 64 63 3d c8 45 ef bd 14 c3 cf 3d 48 e2 11 3e
       0.055515356 -0.116832316 0.1014463 0.14246476
000080 2e eb 9e bd 30 cf 12 3e fa 3e 00 3e 38 de e5 bc
       -0.07759701 0.14336848 0.12524024 -0.028060064
000090 31 8a 2a be 6e c1 b0 bb f4 9e 55 be bc 76 2b 3e
       -0.16654278 -0.0053941524 -0.20861417 0.16744512
0000a0 d1 17 97 3c 7a fd 27 3d 7b 2c 28 bd c1 dc 2a be
       0.018443974 0.04101322 -0.041058045 -0.16685773
0000b0 52 e8 0c bd d8 ca 75 3d 0a 75 25 bd b2 c8 aa 3c
       -0.034401245 0.0600079 -0.04039482 0.020847652
0000c0 7e ce db bb 50 01 85 be 51 3c af bd 2c f6 15 3e
       -0.0067079654 -0.25977564 -0.08556426 0.14644688
0000d0 6d b1 29 bd 73 9c d5 be 58 cc f2 3d fa ef 9e bd
       -0.041428972 -0.41720924 0.11855382 -0.07760616
0000e0 24 ef 9b be 8e 2e 9f 3d 4a 06 0d 3d ea a6 9e be
       -0.30455887 0.077725515 0.034429826 -0.3098672
0000f0 b7 20 2a 3e 4c cc d3 bd 41 cd 4c be 2b ea b3 3b
       0.16614042 -0.10341701 -0.20000173 0.0054905615
000100 c2 01 0c be 4e 4f c9 bd ad 5c d6 be ac 96 32 3e
       -0.13672546 -0.09829579 -0.4186758 0.1744029
000110 45 68 a6 3d 7a 7c 72 bd 38 a6 3b be df b2 01 3e
       0.081253566 -0.05920074 -0.18325126 0.1266589
000120 ec 6f e0 bd f0 06 49 3e 2c 41 23 be b5 98 92 3c
       -0.109588474 0.19631553 -0.1594283 0.017895082
000130 57 d8 64 be 7a ca e7 3d 27 3b 15 3d f4 64 d7 3d
       -0.22348152 0.11317916 0.036433365 0.10517302
000140 92 94 59 3e 31 8c 53 be de de a2 3e a1 9d 0a be
       0.21248081 -0.20658948 0.3181066 -0.13536693
000150 c4 2e 34 3c 55 3e f5 bd 63 24 35 3e ec 8d c6 3d
       0.010997478 -0.119747795 0.17689662 0.09695038
000160 88 c3 97 be 30 f2 9d be 21 42 08 bd 60 d0 fb 3b
       -0.29641366 -0.30848837 -0.03326619 0.0076847523
000170 43 9c 28 be da 7c cc bc eb 3a a1 bd 1c 20 a8 be
       -0.16465859 -0.024961878 -0.07872566 -0.32836998
000180 97 af 25 3e 7c e8 5e be ba 0f 32 bd 58 6c 72 be
       0.16180263 -0.21768373 -0.04347203 -0.23674142
000190 b8 4b a6 3e 28 14 9e 3e ad 06 19 3d e0 64 a6 3e
       0.32479644 0.30874753 0.037359882 0.32498837
0001a0 82 b6 73 3c 8e 25 42 3e 0e 4c 6b 3e a8 7d ef 3c
       0.014875056 0.18959638 0.22978231 0.029234722
0001b0 97 1e bf bc c6 c2 53 be 5e 10 13 3d 9c 1c 39 3c
       -0.023330016 -0.20679769 0.03590428 0.011298325
0001c0 92 df a8 3e 6b af 20 3e f9 6a e7 bd 04 26 c4 3c
       0.3298307 0.15691917 -0.112997 0.023943909
0001d0 18 3f 33 be 0f 2c b1 3e 54 74 22 3e 40 44 70 3e
       -0.17504537 0.34603927 0.15864688 0.23463535
0001e0 c2 9b aa be 32 10 86 be 4f 0c 7e be a5 79 10 3e
       -0.3332196 -0.2618423 -0.24809383 0.14108904
0001f0 46 a6 ac bc 8a cb 4b 3c 8f eb 8b bd e8 7b f2 3e
       -0.02107538 0.012438664 -0.068320386 0.47360158
000200 ab a3 09 3e 8c 71 c5 bc 76 fa 2b 3e 43 d5 2b be
       0.1344134 -0.024101995 0.16794762 -0.16780572
000210 75 be 60 be 3f c3 ac be 8a 04 6e 3d 48 af 46 3e
       -0.21947654 -0.3374271 0.058109798 0.19402802
000220 0e d1 bf 3d d2 da 58 3e 67 f1 93 3e d0 79 86 3e
       0.09366046 0.21177223 0.28895113 0.2626481
000230 6f b6 8f bd d8 8f 36 3e 89 aa 46 be 97 41 18 be
       -0.07017218 0.1782831 -0.19400991 -0.1486877
000240 c4 4a d9 3d d5 33 b6 bb 62 62 68 3e 43 65 86 3e
       0.106099635 -0.005560378 0.2269378 0.26249132
000250 cd 9a 5d 3d cd b0 89 3d cc e5 c3 bd bd 97 09 3e
       0.054102708 0.06723175 -0.09565315 0.1343679
000260 db b6 06 3e fb 59 ce 3e f4 4b 3e be aa ac e4 bd
       0.13155691 0.40303025 -0.18583661 -0.111657456
000270 67 aa f6 bc 12 fd 5c 3d fa d0 91 be f1 f1 9a 3d
       -0.030110551 0.053952284 -0.2847975 0.07565678
000280 bd 0a 69 3d be 45 ac bd 34 9a d2 3d 6d 71 b6 bd
       0.056895006 -0.0841174 0.10283318 -0.08908353
000290 62 b7 70 3e 9d bb d0 3d ee 18 c8 3e df 2c 02 3e
       0.23507455 0.101920344 0.3908152 0.1271243
0002a0 21 6a 6f 3e 80 7f 0d 3d 3d d5 d7 bc 6d 2b d6 3d
       0.23380329 0.03454542 -0.026346797 0.104575016
0002b0 0e e3 fc 3c dc 93 e1 3c 1b 8c 9b be 58 a0 b7 bc
       0.030869987 0.027536325 -0.3038033 -0.022415325
0002c0 a1 da 21 3d 44 1a 64 3e 5d e5 81 3e b2 5d f6 bc
       0.03951514 0.22275645 0.25370303 -0.030073974
0002d0 9b 6a bb bd 81 0a dc 3d 33 b9 dd bc 2f a1 a8 3d
       -0.09151193 0.10744191 -0.027065849 0.08233868
0002e0 e6 48 33 3e b1 66 01 be 23 31 ae bd c0 49 37 be
       0.17508277 -0.1263683 -0.08505466 -0.17899227
0002f0 4d 4a 4c be e1 2e 3f be dd 04 52 3e 84 c3 97 3c
       -0.19950218 -0.18670227 0.20509668 0.018525846
000300 a8 4b 4f 3e 46 80 19 be 2e 00 05 3d 39 e2 0f be
       0.20243704 -0.14990339 0.032470874 -0.14051141
000310 25 33 e5 bd c3 54 39 be f8 7b 72 3e 50 2c 6c 3e
       -0.11191396 -0.1809874 0.23680103 0.23063779
000320 e7 53 95 3d b0 67 90 bd d2 cf ab be 7b 27 fb 3d
       0.07291394 -0.07051027 -0.33556992 0.1226339
000330 84 55 2a 3e f5 ac a5 3d 6a 1c 9b bb 10 0b a0 be
       0.16634184 0.080896296 -0.004733612 -0.3125844
000340 3b 4d 18 be e0 33 dc 3d 8b 0e a1 3d 2a 17 62 be
       -0.14873211 0.10752082 0.07864102 -0.22079149
000350 93 79 9d 3e 37 09 d5 be 8e 7e 48 be 1d 78 0d 3e
       0.30756816 -0.41608593 -0.19579527 0.13815351
000360 b8 b1 48 be 05 88 03 3e e2 10 d8 3d 60 d0 3d 3e
       -0.19599044 0.12844856 0.10550095 0.1853652
000370 b1 d5 10 be 07 96 3d 3e cc d7 4e 3e ea 33 13 3d
       -0.14144017 0.18514262 0.20199507 0.03593818
000380 d6 33 86 3d a1 c8 17 be 2e 99 6a 3e 97 2e c5 bc
       0.06552856 -0.14822628 0.22909996 -0.024070067
000390 4d 32 00 be 25 63 ff bd 3b 46 e9 bd 67 3f 5d bd
       -0.12519188 -0.12470082 -0.113903485 -0.054015543
0003a0 e5 4a 65 be d3 6a 28 bd 2c f8 de bd b0 fb f3 bd
       -0.22391851 -0.0411175 -0.10887179 -0.1191324
0003b0 72 b4 9a bd 4f 9a 95 3d e3 c6 49 bd 7b 86 b1 bd
       -0.075539485 0.07304823 -0.04926194 -0.08668228
0003c0 08 92 3e be 73 0e 50 be c9 52 17 bd 0a 09 44 be
       -0.18610394 -0.20318012 -0.036944184 -0.19144073
0003d0 8f 9a fa bd 95 33 ae bd f9 c9 80 be 60 f4 d2 bd
       -0.12236511 -0.08505932 -0.25154093 -0.10300517
0003e0 9d 44 59 3e 7e d7 58 3e 9f 99 08 be 90 65 5b be
       0.2121758 0.21175954 -0.13339852 -0.21425462
0003f0 92 aa 77 3e de bf ee 3c d1 b8 82 3d ba 6f fc be
       0.24186161 0.029144224 0.06382907 -0.4930399

fc2.bias f4 [9]
000000 bb 36 ad 3c 5a d0 07 3e 6c 3a ae 3e 98 66 1d bd
       0.021144262 0.13263074 0.34028947 -0.03842792
000010 25 51 d7 3e fd 50 31 3e ed 81 15 bd f4 79 a1 3d
       0.42054096 0.17316051 -0.03650086 0.07884589
000020 59 3c 84 bc
       -0.016142057
