tic_tac_toe_net.pth (torch, 11471 bytes, 4 tensors)

fc1.weight f4 [128, 9]
0	0x3e08d6d6	0.13363203
1	0x3e6f0aaa	0.23343912
2	0x3de6430c	0.11243257
3	0xbe8ebed8	-0.27879977
4	0x3cc9ce10	0.024634391
5	0xbe5780bb	-0.210452
6	0x3e7a45c6	0.24440679
7	0x3e29350e	0.16524145
8	0xbe61b478	-0.220415
9	0xbea77b43	-0.3271123
10	0xbc88d4c0	-0.01670301
11	0x3e2c22f2	0.16810206
12	0xbd26a800	-0.04068756
13	0xbe6b5650	-0.22982144
14	0x3d7e5d78	0.062100857
15	0xbe0aad20	-0.13542604
16	0x3e52b05a	0.20575085
17	0x3e949501	0.2901993
18	0x3e152ee6	0.14568672
19	0xbb15bf80	-0.0022849739
20	0x3e158196	0.14600214
21	0xbe4c6c3b	-0.19963162
22	0x3e527daa	0.2055575
23	0x3e2ffb86	0.17185792
24	0xbe8889d3	-0.26667652
25	0x3e4dd4fa	0.20100775
26	0x3d6167a0	0.055030465
27	0x3e869e31	0.26292565
28	0xbdcdf256	-0.100559875
29	0xbd814ef4	-0.06313887
30	0xbe4f3fee	-0.20239231
31	0x3db35c74	0.087578684
32	0xbd8b3684	-0.067975074
33	0xbd8caddc	-0.068690985
34	0x3e8d15bd	0.27555647
35	0x3e2e6a5e	0.17032763
36	0x3d524820	0.051338315
37	0x3e607382	0.21919063
38	0xbd084ca0	-0.0332762
39	0xbe448b68	-0.19193804
40	0xbc49a520	-0.012307435
41	0x3e996341	0.29958537
42	0x3e6698d6	0.2251924
43	0x3c8a0910	0.016850024
44	0xbea89740	-0.32927895
45	0xbe8fcebc	-0.28087413
46	0xbe238af6	-0.15970978
47	0xbe98321f	-0.2972574
48	0x3e394aa6	0.18094882
49	0xbb043600	-0.0020173788
50	0xbe7b30cb	-0.24530332
51	0xbe15ddd8	-0.14635408
52	0x3e29f3d0	0.16596913
53	0xbe06ad4e	-0.13152048
54	0xbbc40500	-0.0059820414
55	0xbe4413a0	-0.19148111
56	0xbe927406	-0.28604144
57	0xbea46ca7	-0.32114145
58	0x3e8ef051	0.27917722
59	0x3e15bb66	0.14622268
60	0xbb32aa80	-0.002726227
61	0xbe47af58	-0.19500482
62	0x3ea70745	0.32622734
63	0xbd938590	-0.072032094
64	0xbe967704	-0.29387677
65	0xbe8202e8	-0.25392842
66	0xbea9ddef	-0.33177134
67	0xbe5cf6c0	-0.21578503
68	0xbe65742e	-0.224076
69	0xbe180000	-0.1484375
70	0x3e4a289e	0.19742057
71	0xbe0e9ed0	-0.1392777
72	0x3e0fb14a	0.14032474
73	0xbc491820	-0.012273818
74	0x3e0afcf6	0.1357306
75	0xbdeff556	-0.11716716
76	0x3e52253a	0.20522013
77	0xbe5bfe60	-0.21483755
78	0xbe3d9438	-0.18513572
79	0xbe931ecf	-0.28734443
80	0xbe552858	-0.20816171
81	0xbe89ff7c	-0.26952732
82	0x3e1e7582	0.15474513
83	0xbcdb3970	-0.026760787
84	0xbe376803	-0.17910771
85	0xbd8b80b4	-0.068116575
86	0xbd99acf4	-0.07503691
87	0x3d98a3c4	0.07453111
88	0x3e9e53df	0.30923364
89	0x3d093de0	0.033506274
90	0xbe0d909e	-0.13824698
91	0x3d558400	0.052127838
92	0xbd071820	-0.03298199
93	0xbe784feb	-0.24249236
94	0x3e44f1a2	0.192328
95	0x3e8ea2d5	0.27858606
96	0x3e7c2642	0.24623969
97	0xbe65ee23	-0.22454123
98	0x3e0630f2	0.13104609
99	0x3e2b54b2	0.16731527
100	0xbe863084	-0.2620889
101	0x3e36533a	0.17805186
102	0xbc3aa2e0	-0.0113913715
103	0x3e86ee89	0.26353863
104	0xbe1b1bce	-0.15147325
105	0xbe8751a7	-0.26429483
106	0xbe775b6e	-0.24155971
107	0x3dc95c04	0.09832004
108	0xbc912f40	-0.017722726
109	0x3da0d0b4	0.07852307
110	0x3da0ca20	0.07851052
111	0x3e14c9a6	0.14530048
112	0xbc57e9a0	-0.013178259
113	0xbe97f913	-0.29682216
114	0x3d7a94d8	0.061177105
115	0xbe791ba3	-0.24326949
116	0x3e8f8071	0.2802768
117	0x3e114442	0.14186195
118	0xbde68dc6	-0.1125751
119	0x3e3e460a	0.18581405
120	0xbe5ed090	-0.21759248
121	0xbc9a7590	-0.018854886
122	0xbe99a2e4	-0.30007088
123	0xbd9ede0c	-0.07757196
124	0x3e97b4f1	0.29630235
125	0x3e7ed012	0.2488406
126	0xbe2531fb	-0.16132347
127	0x3e8f4503	0.2798234
128	0xbe4b6ede	-0.19866511
129	0x3e22cca0	0.1589837
130	0x3e9937e1	0.29925445
131	0x3ea7e291	0.32790044
132	0xbe0add5e	-0.13561007
133	0x3e8a20af	0.2697806
134	0xbd8904c0	-0.06690359
135	0x3d108168	0.03527966
136	0xbd589b60	-0.052882552
137	0xbe141eb6	-0.1446484
138	0xbe50dae6	-0.20396003
139	0x3e8201f5	0.25392118
140	0xbe414898	-0.18875349
141	0xbe15ef4b	-0.14642064
142	0x3dd1b980	0.102404594
143	0xbe841032	-0.25793606
144	0xbe355756	-0.17709097
145	0xbcb5b290	-0.022179872
146	0xbe55777e	-0.20846364
147	0xbe39c27b	-0.18140595
148	0x3e58d2d2	0.21174172
149	0x3e91fdd1	0.2851396
150	0xbe0d71f0	-0.13812995
151	0xbcc35b50	-0.023847252
152	0xbe216c63	-0.15764003
153	0xbdf05d0c	-0.11736497
154	0xbea42d8f	-0.32066008
155	0xbd653628	-0.05595985
156	0xbe54270b	-0.20718019
157	0x3e2cf3fa	0.16889945
158	0x3ea7980d	0.32733193
159	0xbe01abd3	-0.12663202
160	0xbb626b80	-0.0034548938
161	0xbe87ac3a	-0.26498586
162	0x3dfcbd2c	0.12340769
163	0xbea929f4	-0.3303982
164	0xbe9b8948	-0.30378175
165	0xbe8eb18b	-0.2786983
166	0x3d59d138	0.053178042
167	0xbda4efe4	-0.08053568
168	0xbd616858	-0.05503115
169	0x3df41e90	0.11919892
170	0xbe940aa3	-0.28914365
171	0x3e536a4e	0.20646021
172	0x3cdc3240	0.02687943
173	0xbe7cddc6	-0.24693975
174	0x3ea2c2db	0.31789288
175	0xbe28bed8	-0.16479051
176	0x3cca6af0	0.024709195
177	0x3deb626c	0.11493382
178	0xbe50e188	-0.20398533
179	0x3e556736	0.20840153
180	0x3d8a6e94	0.06759372
181	0x3e8e894d	0.27839127
182	0xbe1e88a8	-0.15481818
183	0x3dbfad70	0.093592525
184	0xbe84152a	-0.25797397
185	0x3e98fc63	0.29880056
186	0xbddb3b96	-0.107047245
187	0xbe2f5688	-0.17122853
188	0x3e942541	0.28934672
189	0xbe633c76	-0.22191033
190	0x3e02923e	0.127511
191	0xbd021f68	-0.031768233
192	0x3e0c59e2	0.13706163
193	0x3dd56bcc	0.10420951
194	0xbb5b7600	-0.0033487082
195	0x3e42fff2	0.19042948
196	0xbde506c0	-0.11182928
197	0x3db07d1c	0.08617613
198	0x3d7743a0	0.060367227
199	0xbe9bc3c4	-0.30422795
200	0x3da58c0c	0.080833524
201	0xbe74ae2b	-0.23894565
202	0x3d4dfc40	0.050289392
203	0xbcfea310	-0.031083614
204	0x3df04c7c	0.11733338
205	0xbe576dcb	-0.21037976
206	0xbe97a907	-0.29621145
207	0xbdd5eda6	-0.104457185
208	0xbeaa4243	-0.3325368
209	0xbe04c180	-0.1296444
210	0xbe3e0d53	-0.1855977
211	0x3cfb88f0	0.030704945
212	0x3e48c1a6	0.19605121
213	0x3e9f614f	0.31128928
214	0xbe48237e	-0.19544789
215	0xbea1a033	-0.31567535
216	0xbea19813	-0.31561336
217	0xbbc50940	-0.0060130656
218	0x3dfa18b0	0.1221174
219	0xbe594d4e	-0.21220896
220	0xbea427a3	-0.3206149
221	0x3e9bb5c5	0.30412117
222	0x3e0c44b8	0.13698089
223	0xbda09cd0	-0.078424096
224	0x3de5fac0	0.112294674
225	0x3d2e1640	0.042501688
226	0x3e74f6ea	0.23922315
227	0x3e856fc7	0.26061842
228	0xbdb13f66	-0.086546704
229	0x3db8cb70	0.090231776
230	0x3da2a500	0.079416275
231	0x3c5c4a60	0.013445467
232	0xbea67f8b	-0.32519183
233	0x3e3c5a8a	0.18393913
234	0xbe4b6913	-0.19864301
235	0x3de7680c	0.11299142
236	0xbe8cdcf6	-0.2751233
237	0x3e1e4310	0.1545527
238	0x3e09335a	0.13398495
239	0xbe733b23	-0.23753028
240	0xbcdef130	-0.027214617
241	0x3e99a163	0.3000594
242	0xbd911aac	-0.070851654
243	0x3e0c5a9a	0.13706437
244	0xbe3db023	-0.18524222
245	0xbe9bcc14	-0.30429137
246	0x3e923a6b	0.28560194
247	0x3e052f18	0.13006246
248	0x3e65a9c6	0.22428045
249	0x3b8def40	0.0043314993
250	0xbe413903	-0.18869404
251	0xbe95f5a0	-0.2928896
252	0xbc4b8660	-0.012422174
253	0x3e8b6379	0.2722433
254	0xbe915620	-0.2838602
255	0xbe0abd33	-0.13548736

fc1.bias f4 [128]
0	0x3e69cbb6	0.22831616
1	0x3ea6d44f	0.32583854
2	0x3da6149c	0.081094
3	0xbe7f63b0	-0.24940372
4	0xbe5978f0	-0.2123754
5	0x3dd263ec	0.10272965
6	0x3e503012	0.20330837
7	0x3e2489be	0.1606817
8	0x3d757fa8	0.059936196
9	0xbe2433db	-0.16035406
10	0xbdc3c880	-0.09559727
11	0x3e570faa	0.21002069
12	0x3e888059	0.26660421
13	0xbe6dd37e	-0.23225209
14	0x3da2f5e4	0.07957056
15	0x3dfc15d4	0.12308851
16	0x3e5bd59a	0.21468201
17	0x3e9ef175	0.31043592
18	0x3e518e3a	0.20464411
19	0x3c6c8c60	0.014437765
20	0xbe1d142e	-0.15339729
21	0x3e9f9841	0.31170848
22	0xbe6f32e6	-0.2335926
23	0xbd3d6338	-0.0462372
24	0x3ea35165	0.31898037
25	0x3e50a092	0.20373753
26	0x3d18bbd8	0.037288517
27	0xbda64004	-0.08117679
28	0xbc617a00	-0.013761997
29	0x3e6a9f16	0.22912249
30	0xbea57400	-0.32315063
31	0x3dbb6cd4	0.09151617
32	0xbd182c88	-0.037151843
33	0xbe85e21e	-0.26149076
34	0x3d75bba0	0.059993386
35	0xbe8a740c	-0.27041662
36	0xbe67e6f3	-0.22646694
37	0x3e6776be	0.2260389
38	0x3e98f071	0.29870942
39	0x3e656ade	0.22404048
40	0xbe8ddaac	-0.27705896
41	0xbdb23790	-0.08702004
42	0xbe8fe824	-0.28106797
43	0xbdef8576	-0.116953775
44	0xbd23bcd8	-0.039975017
45	0x39796000	0.00023782253
46	0xbe44ee93	-0.19231634
47	0xbe5b0343	-0.21387963
48	0xbe87d89b	-0.26532444
49	0x3e7cae86	0.2467595
50	0x3e150f28	0.14556563
51	0x3ea3e6d7	0.32012054
52	0xbe7ac9c0	-0.24491024
53	0xbd941b9c	-0.072318286
54	0x3e8895b3	0.2667671
55	0x3d590440	0.05298257
56	0x3c972380	0.018449545
57	0x3e85776d	0.26067677
58	0xbe8a901f	-0.2706308
59	0x3e951cad	0.2912344
60	0xbea47ad6	-0.32124966
61	0x3dfebdbc	0.12438533
62	0x3d574d20	0.052563787
63	0xbe23106e	-0.15924236
64	0xbe1835f0	-0.14864326
65	0x3e841fc7	0.25805494
66	0xbe4a4a03	-0.19754796
67	0xbe3578c3	-0.17721848
68	0xbdbc3860	-0.0919044
69	0xbd3aae20	-0.045576215
70	0xbd371a60	-0.044702888
71	0x3e9d7dcd	0.3076004
72	0x3ea54bc1	0.32284358
73	0x3e86e80d	0.26348916
74	0xbd795528	-0.060872227
75	0xbcffe4b0	-0.031236976
76	0x3d0ccde8	0.034376055
77	0x3e57aac2	0.21061233
78	0x3e8ed5bf	0.2789745
79	0x3e00d092	0.12579563
80	0xbe422c7b	-0.1896228
81	0xbe4c656e	-0.19960567
82	0x3e1a8bbe	0.1509237
83	0xbe7c99d0	-0.2466805
84	0x3e39847a	0.18116942
85	0x3e24fe5e	0.16112658
86	0x3dae6d90	0.08516991
87	0x3e146fc8	0.14495766
88	0xbd391cc0	-0.045193434
89	0xbd944554	-0.07239786
90	0x3d240188	0.040040523
91	0xbe290ef8	-0.16509616
92	0xbddbe96c	-0.10737881
93	0xbe8aa457	-0.27078506
94	0xbe54e20e	-0.20789358
95	0x3e031442	0.12800696
96	0x3e1af06e	0.15130779
97	0xbe9299d8	-0.28632998
98	0x3ce53bb0	0.027982563
99	0x3e2c5346	0.16828641
100	0x3e4cab82	0.199873
101	0xbeaaa5b0	-0.33329535
102	0xbea65232	-0.32484585
103	0x3d983514	0.07431999
104	0xbe491913	-0.19638471
105	0xbe610a38	-0.21976554
106	0xbe00a08b	-0.12561242
107	0x3d3e9a98	0.04653415
108	0xbe934564	-0.28763878
109	0xbea2c3af	-0.3178992
110	0xbe4ef208	-0.20209515
111	0xbddcb846	-0.10777335
112	0xbe9b1d46	-0.3029577
113	0xbe46f9b0	-0.19431186
114	0x3e9fae4b	0.31187662
115	0x3e3a594e	0.1819813
116	0x3d0802b8	0.033205718
117	0x3e4a68a2	0.19766477
118	0xbe7b1e8e	-0.24523374
119	0xbce69550	-0.02814737
120	0x3da6cb5c	0.081442565
121	0x3e57788e	0.21042082
122	0xbe71dff8	-0.23620594
123	0x3de614ac	0.112344116
124	0xbe8d983c	-0.27655208
125	0x3ea6f579	0.32609156
126	0xbd607828	-0.05480209
127	0xbe32ea3e	-0.17472169

fc2.weight f4 [9, 128]
0	0xbd94f62a	-0.072735146
1	0xbc707b30	-0.014677808
2	0xbda61161	-0.081087835
3	0xbda74136	-0.08166735
4	0x3c89eae8	0.016835645
5	0x3da5375d	0.080672
6	0x3d327d5e	0.04357659
7	0x3b1b3ae0	0.0023686215
8	0xbd08fa68	-0.03344193
9	0xbce74c16	-0.028234523
10	0x3d66a0e2	0.056305774
11	0xbd7b7b24	-0.061396733
12	0xbaee3a80	-0.0018175393
13	0x3c06fac0	0.008238494
14	0xbd236930	-0.039895236
15	0xbc6d7d40	-0.014495194
16	0xbb73b2c0	-0.00371854
17	0xbd378aae	-0.04480999
18	0x3d9729ab	0.073809944
19	0x3d220e0a	0.03956417
20	0x3d956df7	0.07296365
21	0x3d3e3136	0.04643365
22	0xbda71d2a	-0.081598595
23	0x3dac2cab	0.08406957
24	0x3d4ffaee	0.050776415
25	0x3c8ce2f8	0.01719807
26	0xbda1dd56	-0.079035446
27	0xbd9c642c	-0.07636294
28	0x3d49a916	0.04923352
29	0xbd3f76b8	-0.04674408
30	0xbd8cba28	-0.06871444
31	0x3d867e7d	0.065670945
32	0xbd490dc5	-0.049085397
33	0xbdb1ed62	-0.08687855
34	0x3ca75bac	0.020429455
35	0xbdac7be2	-0.08422066
36	0xbb42be00	-0.00297153
37	0x3daf8e91	0.08572114
38	0x3d7e55e6	0.062093638
39	0xbc5ae228	-0.013359584
40	0xbd66fd4e	-0.056393914
41	0xbd2e469a	-0.0425478
42	0xbcb216e8	-0.021739438
43	0x3d9f5c27	0.077812485
44	0xbd94513f	-0.07242059
45	0xbd28f953	-0.0412534
46	0xbd697de7	-0.057004835
47	0xbd660958	-0.056161255
48	0xbd2d2d0b	-0.042279284
49	0x3db007e7	0.08595257
50	0xbd39012c	-0.045167133
51	0xbd2c16af	-0.04201382
52	0x3bbdb250	0.005789079
53	0xbc6110e0	-0.0137369335
54	0xbd156d02	-0.03648091
55	0x3ae06a00	0.0017121434
56	0xbd0ba4a5	-0.034092564
57	0x3d576192	0.052583285
58	0x3d8451db	0.06460925
59	0x3c44d4a8	0.012013592
60	0x3d906b53	0.070517205
61	0x3dae7aaf	0.08519494
62	0xbda73fd7	-0.08166473
63	0xbd93a593	-0.07209315
64	0xbcc0317c	-0.023461096
65	0x3d8c82ad	0.06860862
66	0x3d91502f	0.07095372
67	0xbd9d4cb8	-0.076806486
68	0xbd2b441f	-0.041813012
69	0xbcc2f7b0	-0.023799747
70	0xbbe2f660	-0.006926343
71	0xbcea23b2	-0.028581474
72	0xbd976b87	-0.07393556
73	0xb9c8b900	-0.00038284808
74	0xbc65fcf8	-0.014037363
75	0x3d3581aa	0.04431311
76	0xbdb07c3c	-0.08617446
77	0x3d697afa	0.057002045
78	0xbd76f317	-0.060290422
79	0x3d7d097e	0.06177663
80	0x3d41e9ae	0.047341995
81	0x3d53bbea	0.05169288
82	0x3da87463	0.08225324
83	0x3d3fbc82	0.046810634
84	0x3da455ef	0.08024203
85	0xbd9651f0	-0.07339847
86	0x3c8936f8	0.016749844
87	0xbd660dff	-0.05616569
88	0x3d8400ed	0.06445489
89	0x3d5e382a	0.05425278
90	0x3d3df51a	0.046376325
91	0xbd7f8429	-0.062381897
92	0xbcba69e8	-0.022755578
93	0x3da2d839	0.079513974
94	0x3d096f14	0.033553198
95	0xbd13460f	-0.035955485
96	0xbd5e9074	-0.05433698
97	0xbd52fa38	-0.05150816
98	0xbd80bb83	-0.06285765
99	0x3d70659a	0.058690645
100	0x3d6a78da	0.05724416
101	0x3cf0327c	0.029320948
102	0xbd45515e	-0.0481733
103	0xbd34de09	-0.04415706
104	0xbd4aa075	-0.04946943
105	0xbc7b9a00	-0.015356541
106	0xbc635010	-0.013874069
107	0x3d2ba522	0.04190553
108	0xbd8c520e	-0.06851588
109	0xbd431403	-0.047626507
110	0xbd9edb67	-0.077566914
111	0x3d944583	0.07239821
112	0x3d1412e6	0.036150835
113	0x3c503dc0	0.012710035
114	0x3d34bd56	0.044125877
115	0xbd91cfcd	-0.07119713
116	0xbd30eebe	-0.043196432
117	0x3c56dfa8	0.013114847
118	0xbd646b7f	-0.05576658
119	0xbd82eb40	-0.063925266
120	0x3c6badc0	0.014384687
121	0xbd3033de	-0.043018214
122	0xbcbf89ec	-0.023381196
123	0xbc4c2778	-0.012460582
124	0x3cf662e4	0.030076452
125	0xbd96d8ba	-0.07365556
126	0x3d23ee42	0.040022142
127	0xbc87f2c8	-0.01659526
128	0x3be960f0	0.0071221516
129	0x3d9d14a1	0.0766995
130	0xbd83da78	-0.06438154
131	0xbc491720	-0.01227358
132	0x3d4b0246	0.049562715
133	0xbd417ea7	-0.047239926
134	0xbd850fe4	-0.064971715
135	0x3d6713f2	0.056415506
136	0xbd6f5cd2	-0.05843813
137	0xbd72e5d8	-0.059301227
138	0x3b2b1e60	0.0026110634
139	0x3d05b190	0.03264004
140	0xbbc74b40	-0.0060819685
141	0xbd1780b5	-0.03698798
142	0x3d9cdfb1	0.07659853
143	0xbbc95760	-0.006144449
144	0x3da8cd5d	0.08242295
145	0xbb5020a0	-0.0031757727
146	0x3d9869eb	0.07442077
147	0xbccbd8a8	-0.024883583
148	0x3da40eb7	0.08010619
149	0x3c7a50a8	0.015278019
150	0xbd505a9c	-0.05086766
151	0x3d2caa2a	0.04215447
152	0x3d00d86e	0.031456403
153	0xbd6f32bd	-0.058397997
154	0xbc344138	-0.0110018775
155	0x3db45045	0.08804373
156	0xbcfcae8c	-0.03084495
157	0xbd18b4d1	-0.037281815
158	0x3cb3b6c0	0.021937728
159	0xbbb02e20	-0.0053765923
160	0xbb0dd2a0	-0.0021640435
161	0xbd96aa24	-0.073566705
162	0x3b534660	0.0032237992
163	0xbce5afe2	-0.028037969
164	0x3d44107a	0.047867276
165	0xbda19b71	-0.07890976
166	0x3d8bbaeb	0.06822761
167	0xbd75f847	-0.06005123
168	0x3d1ee8a2	0.038796075
169	0x3da72099	0.081605144
170	0x3d69554a	0.056966104
171	0xbd658da2	-0.056043275
172	0xbcd46078	-0.025924906
173	0xbd43ca1d	-0.047800172
174	0xbd25a62d	-0.04044168
175	0x3d01d0d8	0.03169331
176	0x3d808b11	0.06276525
177	0xbd524a75	-0.05134054
178	0xbdb448be	-0.08802937
179	0x3b804c40	0.0039153397
180	0x3c1afed8	0.009460174
181	0x3c0a47d0	0.008439973
182	0xbdad2642	-0.08454563
183	0xbc8c3924	-0.01711709
184	0x3d18677e	0.037208073
185	0x3bbed9d0	0.005824305
186	0xbca3fb4c	-0.020017289
187	0x3d025b30	0.031825244
188	0xbc9ce754	-0.019153275
189	0x3da11fc5	0.07867388
190	0x3db0d381	0.08634091
191	0x3d24aaea	0.04020206
192	0xbd90b4d2	-0.07065739
193	0xbd0abc56	-0.033871017
194	0xbd5c2904	-0.053750053
195	0x3d8ec997	0.06972044
196	0xbd363731	-0.04448623
197	0xbdb1fcd0	-0.08690798
198	0xba42ee80	-0.0007436052
199	0x3cee1860	0.029064357
200	0x3cb5bbd8	0.022184297
201	0xbd2667e7	-0.040626433
202	0x3a86a440	0.0010272339
203	0x3d915c37	0.07097667
204	0x3d369bc2	0.044582136
205	0xbdb35f64	-0.08758429
206	0x3bc4fef0	0.006011836
207	0x3d995113	0.07486167
208	0xbd0fd9c7	-0.035119798
209	0x3d798542	0.0609181
210	0x3d08301a	0.033249
211	0x3cef1e20	0.02918917
212	0xba073080	-0.00051570684
213	0x3c9920d0	0.018692404
214	0xbcc3590c	-0.023846172
215	0xbd97adcf	-0.07406198
216	0x3cdf301c	0.02724462
217	0x3d52bf8e	0.051452212
218	0x3d48a3a2	0.048984177
219	0xbd6beec9	-0.05760077
220	0xbbaaf130	-0.00521674
221	0xbd895ea7	-0.067075066
222	0x3a9e6400	0.0012084246
223	0xbdae6fb8	-0.085174024
224	0x3d8d4959	0.068987556
225	0xbca7fc08	-0.02050592
226	0x3d04c262	0.03241194
227	0x3d851823	0.06498744
228	0xbd1181ee	-0.0355243
229	0xbd707e90	-0.05871445
230	0xbca2f028	-0.019889906
231	0x3ca16928	0.019703463
232	0xbda90746	-0.082533404
233	0x3d91209b	0.07086297
234	0x3cd9d678	0.026591524
235	0x3d390316	0.04516896
236	0xbc31c480	-0.010850072
237	0xbc1133b0	-0.008862421
238	0xbd646582	-0.055760868
239	0xbd76a886	-0.06021931
240	0x3cf636b8	0.030055389
241	0xbda1ba64	-0.07896879
242	0x3ba5eac0	0.005063385
243	0x3d444666	0.0479187
244	0xbb253580	-0.002520889
245	0xbbed54f0	-0.0072427914
246	0x3d9af39f	0.07565998
247	0xbdb0ea65	-0.08638457
248	0x3d50222e	0.050813846
249	0x3d8b73a9	0.0680917
250	0x3bbcc840	0.0057611763
251	0x3a4f4980	0.00079073757
252	0x3c5a7ad0	0.013334945
253	0x3d851c79	0.06499571
254	0x3d30dda6	0.04318013
255	0x3caae3e8	0.020860627

fc2.bias f4 [9]
0	0xbd1ea9d9	-0.038736198
1	0x3abe5d80	0.0014523715
2	0x3d1dfe1a	0.03857241
3	0x3c2938b8	0.010328464
4	0x3d016c78	0.031597584
5	0xbdabb129	-0.083834
6	0x3d3fba12	0.04680831
7	0x3d475e72	0.048674054
8	0x3db4482d	0.08802829
