tic_tac_toe_net_v2.pth (torch, 11489 bytes, 4 tensors)

fc1.weight f4 [128, 9]
000000 8a fd dc 3d 82 82 c0 bd 19 04 5a 3d a0 be f0 be
       0.10790546 -0.093998924 0.053226564 -0.47020435
000010 e5 97 08 be c8 de 85 be 22 81 1f be 92 e1 74 3e
       -0.13339193 -0.2614653 -0.15576604 0.23914173
000020 37 aa 6c 3e 76 f3 6a be f5 cf c1 3d c9 2d f5 3d
       0.23111807 -0.22944435 0.09463493 0.119716235
000030 31 52 92 3e e2 b7 81 be 47 45 49 bc 89 a8 18 3e
       0.28578332 -0.25335604 -0.012284583 0.14908041
000040 9a 82 ca 3b e2 c2 e4 bd 26 0c 8d be 10 09 a6 3c
       0.0061801197 -0.111699834 -0.2754833 0.020267993
000050 fe 55 82 3e f2 f4 82 be 53 ec 07 3e d0 d5 f7 bd
       0.25456232 -0.25577503 0.13273744 -0.121013284
000060 67 dc b7 be 2c fe 05 3e 59 a9 0f 3f 2e dc 73 3e
       -0.3591034 0.1308524 0.5611778 0.2381446
000070 e8 2f 6b be d9 6c 81 3d e4 69 4d be ed 6b 5f be
       -0.22967494 0.06319589 -0.20059925 -0.21818514
000080 b6 b0 b9 be 3d 04 9b be 9e aa 01 bd e0 f7 7f be
       -0.36267632 -0.3027667 -0.031656854 -0.249969
000090 e0 c6 7f be f8 ad 76 be b2 3f d1 3e 30 8a 80 be
       -0.24978209 -0.24089801 0.40868908 -0.2510543
0000a0 e7 23 c0 3e 90 96 01 3b 55 f9 6f bd 32 ed ca 3d
       0.3752739 0.001977358 -0.05858739 0.09908523
0000b0 3c 9e c9 bd 46 93 14 3e 92 90 88 3d 91 40 ce 3d
       -0.09844634 0.14509305 0.066681996 0.10070909
0000c0 1a 20 1c be dd f1 2a 3f ba c4 a9 bd c0 08 a4 3e
       -0.15246621 0.66775304 -0.08289476 0.32037926
0000d0 82 3b f6 be 6d d0 e5 3d ad 33 dc be 9e f5 78 3d
       -0.48092276 0.11221395 -0.43008175 0.060781114
0000e0 1e 87 0c be 5d 07 c2 3e d1 8b 29 3d 3d be 91 bb
       -0.13723418 0.37896243 0.041393105 -0.004447727
0000f0 8a 7d 8a be f5 27 59 3e 25 46 b0 bd 1f ea c2 3e
       -0.27048904 0.21206649 -0.08607129 0.38069245
000100 75 bc 89 be 9b e5 0f be 36 8c 26 3e c0 c7 86 be
       -0.26901594 -0.14052431 0.16264424 -0.26324272
000110 c5 1c 8a be 5b a1 59 3e e3 78 3f 3e 31 78 75 be
       -0.26975074 0.21252958 0.18698458 -0.2397163
000120 50 e3 ef bc f7 12 ee bd df fd f1 bd 7c d7 df 3e
       -0.029283196 -0.11624711 -0.11816 0.4371909
000130 fa 43 de 3d 56 4b 3c be 93 db da be 95 1f e7 3e
       0.10852809 -0.18388113 -0.42745647 0.45141283
000140 82 93 25 be 17 b5 fc bb dd e9 d6 bd e6 c2 be bd
       -0.16169551 -0.0077120173 -0.10493825 -0.09314518
000150 dd 15 3f 3d ce b0 97 3e 6d e1 f4 3d af e0 a1 be
       0.04665171 0.2962708 0.11957059 -0.31616732
000160 1f 3f d1 be e6 96 b1 be 39 50 07 bf 8f 03 d0 be
       -0.4086847 -0.3468544 -0.52856785 -0.40627715
000170 ba c0 81 be 5c 13 ff 3d 57 cc d7 be 76 17 2a be
       -0.2534235 0.124548644 -0.42148086 -0.16610512
000180 b2 a6 69 bd b9 b4 13 3e d8 f2 88 bd a1 a9 92 bd
       -0.05704374 0.14424409 -0.06686944 -0.071612604
000190 0f 5c 4c be 4b 7e 9e bd f8 37 81 be 52 ac 43 be
       -0.19956993 -0.07738932 -0.25238013 -0.19108704
0001a0 46 b9 e8 3d 0e 7e 3e bd 04 65 e8 3d 17 7f e2 3c
       0.11363463 -0.046506934 0.11347392 0.027648492
0001b0 42 96 7f 3e 46 11 40 be ce e7 73 bd 85 9d 15 be
       0.24959663 -0.1875659 -0.059547238 -0.1461087
0001c0 07 ce 91 be 15 16 17 bd 63 2c 3e bd 8c af 78 3d
       -0.284775 -0.036886293 -0.04642905 0.06071429
0001d0 44 d6 b2 be f2 6a 43 be 63 81 25 3e ae be 28 be
       -0.34929097 -0.19083765 0.16162638 -0.16478989
0001e0 8b b4 cf 3d 0a 84 13 3e de 17 94 be bb 35 a3 3c
       0.10141858 0.14405838 -0.2892446 0.019923082
0001f0 4b fb ed bd 91 24 02 bf e8 05 86 be 84 a6 3d 3e
       -0.11620196 -0.50837046 -0.2617638 0.18520552
000200 7d 00 14 3d 73 a4 b0 3d 23 20 93 be 54 25 c5 bd
       0.03613328 0.08625116 -0.28735456 -0.096262604
000210 f4 87 17 3e cf 85 ad 3e e5 43 b1 3d d1 f4 9c 3e
       0.14797956 0.3389115 0.08655528 0.3065553
000220 f4 7e 3a be ff 86 91 3e 3d 7a 91 3c e1 23 f6 be
       -0.18212491 0.28423306 0.017758483 -0.48074248
000230 13 45 cf 3d 78 b1 22 3e a2 e4 01 be c8 f0 b2 3d
       0.10120597 0.15888011 -0.12684873 0.08737332
000240 28 bd 9d 3e d5 0b f6 bd e7 f3 03 3d c8 fe 33 be
       0.30808377 -0.120139755 0.032215025 -0.1757766
000250 b7 07 7d 3e 16 c9 e5 bc ed e9 14 bd 39 df 94 be
       0.24709974 -0.028049987 -0.0363559 -0.29076555
000260 0f 23 f5 bc 86 32 f0 3d dc 91 74 be 58 06 6e 3e
       -0.029923944 0.117283866 -0.23883766 0.23244607
000270 d0 62 b9 3c 6d 47 21 3f 43 3f 35 bd 95 ee 45 3d
       0.022630125 0.6299961 -0.044249784 0.048323233
000280 04 fb 8a 3d 38 1b 8b bd ea 73 79 be cd 69 c4 be
       0.06786159 -0.06792301 -0.24360624 -0.3836197
000290 c6 1d 75 3e 13 a1 fb bd 94 9f 6c 3e ec 2e 74 bd
       0.23937139 -0.12286582 0.23107749 -0.05961506
0002a0 c5 46 50 3b cd 99 7f be 02 05 bd 3e a3 94 18 3d
       0.0031780463 -0.24961014 0.36917883 0.037251126
0002b0 2c 01 07 3e f2 76 37 3e be fb 83 be 19 15 cc bd
       0.13184041 0.17916468 -0.25778002 -0.099649616
0002c0 5f 73 1d be df 4e bf 3e fd 17 2e bd 73 06 a1 3c
       -0.15376042 0.3736486 -0.042503346 0.019656396
0002d0 b5 99 69 be de 33 d1 3d eb d1 0d be ee 03 b5 3e
       -0.22812541 0.10214971 -0.13849609 0.3535456
0002e0 35 da 85 be 10 c0 fe 3b c1 16 35 bd c8 93 dc be
       -0.2614304 0.0077743605 -0.044211153 -0.43081498
0002f0 e2 bf 81 3d 0f 47 43 be e4 1c c3 be e6 d6 68 3e
       0.06335427 -0.19070075 -0.3810798 0.22738227
000300 1a 01 bf 3d 13 b3 8f 3e fe 1e 02 bd ff 21 6f 3e
       0.09326382 0.2806631 -0.031767838 0.23352812
000310 27 90 27 3e b5 a8 8c be db d5 65 3e b9 f8 ac 3c
       0.16363584 -0.27472463 0.2244486 0.021114694
000320 63 98 89 3e 00 4c 52 be a8 b8 08 bd de 40 35 3e
       0.26874074 -0.20536804 -0.033379227 0.17700526
000330 08 b7 11 3e e5 9e a3 3e 2a 9f 80 3d bc 25 90 bd
       0.14229977 0.31957164 0.06280358 -0.07038447
000340 c1 50 d7 3d 4f 22 c2 bd fc 0b 2b 3d dd e3 ca bd
       0.105134495 -0.094792 0.041759476 -0.09906743
000350 cb e1 78 3d 57 f8 73 be e7 cd 93 be 47 eb 8d be
       0.060762208 -0.23825203 -0.2886803 -0.27718565
000360 fb b7 a9 3d 50 2e 80 3d c1 55 37 3e fa e6 bf be
       0.082870446 0.062588334 0.17903806 -0.3748091
000370 04 10 92 3e 55 96 69 3e fa 81 9d 3c be b7 39 3d
       0.28527844 0.22811253 0.019227017 0.045341246
000380 cb e0 c6 bd cb 3b 03 be 25 f2 93 bd f6 b4 8a 3e
       -0.097108446 -0.12815778 -0.0722392 0.27091187
000390 68 9e e7 be b4 9f da 3c 89 ee ed bd de 4d 61 3d
       -0.45238042 0.02668748 -0.116177626 0.0550059
0003a0 00 cd be be 6d d9 94 be 09 3f 08 bf f3 54 05 3e
       -0.37265778 -0.29072133 -0.53221184 0.13020687
0003b0 c0 da 4f 3d 79 f5 87 3e d8 12 04 3e ae 1a 53 be
       0.050745726 0.26554468 0.12897813 -0.20615646
0003c0 3e 62 92 be e8 83 59 3e 4b a4 7c 3e 88 9b a0 be
       -0.28590578 0.21241724 0.24672048 -0.3136866
0003d0 49 b8 76 be 55 cb 47 3e a5 7e a6 bd 01 2f 8c be
       -0.24093737 0.19511159 -0.08129624 -0.2737961
0003e0 ff 22 da 3d e4 07 da bd eb 5a e0 bd 3e f4 ab 3d
       0.10651206 -0.10646036 -0.10954841 0.08396195
0003f0 50 5b f9 3d 2a 8b 8b bd 74 dc 30 bd 96 30 e4 bd
       0.121756196 -0.06813653 -0.04317899 -0.111420795

fc1.bias f4 [128]
000000 8c 72 ff be f3 34 cf bd e4 5e 35 3d 86 0b a0 bd
       -0.4989208 -0.10117521 0.044279948 -0.07814698
000010 6a ff 55 bd 27 e3 8a bd ee 18 7f bd 96 f1 21 3e
       -0.052245535 -0.06781607 -0.062279634 0.15814814
000020 cb 5c ba 3d 96 07 5a be ee 75 04 be 75 4c 7b be
       0.0909973 -0.21291956 -0.12935612 -0.24540885
000030 a1 b5 c0 bc c5 3f a7 be 1c 72 2d be 17 c2 10 bf
       -0.023524107 -0.3266584 -0.1693806 -0.5654616
000040 32 0f 37 3d 88 d1 9a be 41 57 e9 be 2c 43 82 3d
       0.044692226 -0.30237985 -0.45574382 0.06360468
000050 06 ae e7 3d 9c 34 62 be 52 d2 d4 bd a5 a7 c9 3d
       0.11312489 -0.22090381 -0.10391678 0.09846429
000060 64 01 44 be 73 b6 2e 3d 43 ae 84 be c5 b7 e2 bd
       -0.19141155 0.042654466 -0.259142 -0.110702075
000070 b9 ea 5f 3d b3 d5 b9 bd 85 5c cd be 2b 37 d0 3d
       0.05466721 -0.09073963 -0.4010965 0.101667725
000080 5e 7c c1 bc 8a 17 f0 be 97 33 75 3d d7 c7 76 be
       -0.023618873 -0.4689296 0.059863653 -0.2409967
000090 f3 ab a7 3c fa 0b 60 be 7a fa 47 be 3c 10 e2 be
       0.020467734 -0.21879569 -0.19529143 -0.4415301
0000a0 7e c6 f5 bd 59 c1 0b bf 51 6e 06 bd 8a d8 98 bd
       -0.1200075 -0.545919 -0.03282005 -0.074631765
0000b0 b5 51 9c be f4 fe cf 3c b3 0f 58 3c 7d c0 90 be
       -0.30531088 0.025390126 0.013187337 -0.28271857
0000c0 35 7f 01 be f9 7a c6 bd ff ab 7c be 05 71 c9 be
       -0.12646182 -0.09691424 -0.24674986 -0.3934404
0000d0 9d b5 68 3e a2 eb 16 3e e0 0b e0 be d1 11 2b be
       0.2272553 0.14738324 -0.4375906 -0.16706015
0000e0 69 2d 88 3c af 02 f8 be 02 f3 a9 bd 74 8c b1 be
       0.016623216 -0.48439547 -0.08298303 -0.3467747
0000f0 65 66 f2 3d 09 9b a3 3d 93 7a 0b be 39 08 52 3c
       0.118359365 0.07988555 -0.13620977 0.012819343
000100 ca 3c 5f be 38 d3 f2 be f6 49 59 3c 55 fd 1b be
       -0.21800533 -0.47426772 0.013262263 -0.15233357
000110 c4 82 12 be 9b e7 a2 be 6f 57 18 3e d0 81 ea bd
       -0.14307696 -0.31817326 0.14877103 -0.11450541
000120 99 99 f7 3d f8 99 7d be 6e 81 91 bd c5 0b 42 be
       0.12089843 -0.24765766 -0.07104765 -0.18949802
000130 c7 78 55 bb 56 b2 26 3d 5c 86 50 be 06 20 8a be
       -0.003257321 0.04069742 -0.20363754 -0.26977557
000140 c2 79 21 be 84 25 1c 3e f1 11 ac 3d 17 c1 5e bc
       -0.15769103 0.15248686 0.084018596 -0.013595841
000150 d3 2a 6f 3d 09 5b 31 be dd 86 9a bd 4f e7 3b be
       0.05839045 -0.17319883 -0.075452544 -0.18349956
000160 3a 6c 44 bf f3 cc d3 be c8 32 e1 be dd d2 7c 3d
       -0.7672764 -0.413673 -0.43984056 0.061724532
000170 27 c0 0b be 8d 7d bb be 30 b8 a7 bd 11 cb e0 be
       -0.13647519 -0.36619225 -0.08189428 -0.43904927
000180 c5 a0 33 bd a5 a8 69 39 dd cd 2a be e6 41 bf bd
       -0.043854494 0.00022283437 -0.16680093 -0.09338741
000190 21 85 5d be 03 86 1a 3e e8 32 d7 bd 64 cd 80 3b
       -0.21632816 0.15090184 -0.105077565 0.0039307345
0001a0 00 92 d3 be a6 3b 97 be e6 3c 0b bf d7 7c e3 be
       -0.41322327 -0.29537696 -0.543898 -0.44431183
0001b0 6a 99 08 be 17 86 c3 3d 23 ff ec be 81 f7 a1 bd
       -0.13339773 0.0954706 -0.46288404 -0.07908536
0001c0 49 2e e8 3d e9 6f e8 bd c0 7d 9b 3c 18 a6 9a bd
       0.11336953 -0.1134947 0.01898086 -0.07551211
0001d0 6f ba b9 be 32 53 6f bf ee 52 52 be c9 67 ae bd
       -0.3627505 -0.9348632 -0.20539448 -0.08515889
0001e0 4e df 72 3e 90 cd 4f be 30 55 f3 be a7 d4 13 bf
       0.23717996 -0.2029326 -0.4752593 -0.57746357
0001f0 60 0d 31 3e a0 61 6f be a1 36 6f be 01 7b c9 bd
       0.17290258 -0.23377085 -0.23360683 -0.09837914

fc2.weight f4 [9, 128]
000000 09 5f 82 bd e3 6d fa 3d 45 7c 1d be e8 0b 65 3c
       -0.06365783 0.122279905 -0.15379436 0.013979889
000010 cb 6e eb 3d 08 5f fb be 99 14 a6 3e 4a eb a9 3e
       0.114957415 -0.4909594 0.3243759 0.33187324
000020 c5 22 84 be 78 42 7a be cc 09 14 3e 88 0a 59 bd
       -0.25807777 -0.24439418 0.14456862 -0.05298856
000030 34 c5 23 3e ff 9b 9d 3c 2f 2d fe 3d 81 8b d2 be
       0.15993196 0.019239424 0.12410962 -0.41122058
000040 52 e6 69 3e 6d 2c 5d be f3 cd 0e 3e 9a ef f9 3b
       0.22841766 -0.21598978 0.13945751 0.0076274397
000050 07 f8 47 be a7 9c 97 3e ca 5a 96 3d 05 e0 91 3d
       -0.19528209 0.29611704 0.073415354 0.071228065
000060 db 9c 0f be 07 e2 61 bd f0 98 c9 bd 77 50 65 3e
       -0.1402468 -0.055147197 -0.09843624 0.22393976
000070 79 24 9b 3d 91 51 ce 3d 47 2c bd 3d f1 82 27 be
       0.07575316 0.10074151 0.09236961 -0.16358544
000080 03 ce a9 3d 46 fb 6d bd 2c 36 c8 bd c9 33 9d 3c
       0.08291247 -0.05810096 -0.097759575 0.019189732
000090 04 a2 5e 3e 5d 1f 0e 3e 9a a1 3b 3d 61 8d a8 3d
       0.21741492 0.13879152 0.045808412 0.08230091
0000a0 46 ff ad 3c 8c 48 76 be 5c 6b 7a 3d 86 96 e7 bc
       0.021239888 -0.24051112 0.061137542 -0.028270017
0000b0 b9 61 5f be e7 24 20 3e 11 08 fc 3c 55 26 0b bd
       -0.21814622 0.15639077 0.030765565 -0.033972103
0000c0 3c 1a 8a be 64 76 49 3d 25 a3 a2 3e 5d f2 8c be
       -0.2697314 0.04918517 0.31765094 -0.27528659
0000d0 49 72 b3 bd 7b 75 9c bd 89 00 46 be f4 9d a8 be
       -0.087620325 -0.07639595 -0.19336142 -0.3293301
0000e0 02 7a a3 3d 95 8b c0 bd 4c c1 20 3e cd 6e 09 be
       0.079822555 -0.09401623 0.15698737 -0.13421173
0000f0 d1 19 0f be 45 37 0a 3d 1e 61 87 be 2d 52 1f bc
       -0.13974692 0.033744115 -0.26441282 -0.009724182
000100 5c 6e b1 3e 1e 16 3b be b8 79 1b 3e 34 d0 10 bd
       0.3465451 -0.18270156 0.15183151 -0.035354808
000110 f2 ef bc 3d 10 36 2a 3e fd 09 0b 3e a0 63 56 bc
       0.092254534 0.16622186 0.13578029 -0.013085276
000120 c0 b5 f4 bd 65 00 94 3d 1b a5 14 be b5 a0 85 3e
       -0.119487286 0.07226638 -0.14516108 0.26099172
000130 4e b6 8c 3d 68 d3 03 bd b8 5d f6 3d 96 ff 50 be
       0.06870709 -0.032184035 0.12029594 -0.20409998
000140 e2 67 74 be cc 37 ae be 62 54 2e be 31 cd fc 3b
       -0.23867753 -0.34026945 -0.17024377 0.0077148904
000150 1f 48 b8 bd c4 57 91 bd bc a9 7c 3e f7 3e 8f bc
       -0.08998131 -0.07096818 0.24674124 -0.017486079
000160 b9 32 bb be 24 e1 8e be 12 ba c5 be ee 99 4b 3d
       -0.36562136 -0.27906144 -0.38618523 0.049707346
000170 2d 6a 49 bd 76 db 96 be ce 8c 5b 3e 12 13 34 bd
       -0.049173523 -0.2946431 0.21440431 -0.0439635
000180 67 b8 63 be 80 09 30 3d 33 e0 3a 3e c3 ac 2e 3e
       -0.22238313 0.04297781 0.18249588 0.17058091
000190 b6 d8 43 3e 38 ea a1 3e c5 6f 5b 3d d5 9d 43 3e
       0.19125637 0.31624007 0.05357339 0.19103177
0001a0 37 5c 80 3e 07 08 0b 3e c4 28 b3 be b0 96 4c bd
       0.25070354 0.13577281 -0.3499204 -0.049948394
0001b0 08 92 74 3d b9 fa 80 3c d3 19 3b be 5c 26 24 3e
       0.05970958 0.015744554 -0.1827157 0.16030258
0001c0 d6 8d 7a bb 64 78 6c be d1 75 1c 3e 67 53 9a 3d
       -0.0038231513 -0.230928 0.15279318 0.07535439
0001d0 54 d5 58 be 82 44 a2 3e ed a4 5c 3d 53 64 69 bd
       -0.21175128 0.31692892 0.053868223 -0.056980442
0001e0 d9 8c 35 be a9 cd 71 bc 66 82 61 3d 3c c0 7d 3d
       -0.1772951 -0.014758506 0.055056 0.061950907
0001f0 17 2a ea 3d 42 f1 1d 3e 78 a9 36 be 75 8a 1f 3e
       0.11433809 0.15424064 -0.17838085 0.15580161
000200 12 0c 4c 3d 47 05 1f be b3 95 94 3d 9c c1 e4 3c
       0.0498162 -0.15529357 0.07255115 0.027924351
000210 ca 3c ba bd 59 23 99 bd 72 a4 53 3d 17 55 57 bd
       -0.09093626 -0.07477445 0.0516705 -0.052571382
000220 5d a7 c2 bd 83 0a a0 3d 89 27 73 bd 05 c0 8a 3c
       -0.09504578 0.07814505 -0.059363876 0.016937265
000230 b4 77 a3 3c 45 64 90 be 6e 7d 6b 3d e1 22 66 3d
       0.01995454 -0.282015 0.057492666 0.056185607
000240 c1 54 42 3c 2f bb 41 bd 1e d1 bb 3d 12 16 c7 3c
       0.011861027 -0.047297653 0.09170745 0.024302516
000250 2e e3 ba bc 77 28 98 3e e4 45 4d 3d f3 6e 27 3d
       -0.022813406 0.29718372 0.05011548 0.040877294
000260 3b bc d2 bb a0 2d 02 be 96 5d d0 bc 0c 97 e4 3d
       -0.00643113 -0.12712717 -0.02543525 0.111616224
000270 dd 41 22 be 9c 47 59 3d 90 5c 02 be d9 a3 9b bc
       -0.15845437 0.053046808 -0.12730622 -0.018999027
000280 8c 3e cb 3c 3a 9a 2b 3c 2e 35 e4 3d e7 c8 3b 3c
       0.024810098 0.010473782 0.11142956 0.011461473
000290 8b f2 1c be df c6 fa 3d b9 93 a4 3c 49 9a ce bb
       -0.15326898 0.12244963 0.02008997 -0.0063050133
0002a0 2f 57 e2 bc 01 7f d0 3a 1d c1 33 3e 5d 93 fd 3b
       -0.027629463 0.0015906991 0.17554136 0.0077385143
0002b0 1d 4d 0a bd b0 67 2b bd 4b ec 30 be 09 05 23 3e
       -0.033764947 -0.04184693 -0.17277639 0.1591989
0002c0 a8 f1 cf 3c 14 1f 17 bd d5 2d a8 3d 57 62 2d bd
       0.025383785 -0.036894873 0.08211867 -0.042330112
0002d0 9d e5 e9 bd 3d 4d e7 3d d5 63 df 3c 3c 1b 08 3c
       -0.114207484 0.11294029 0.027269283 0.008307274
0002e0 cf 73 e5 bd b1 ad aa 3d 59 54 93 3d be e0 85 bd
       -0.11203729 0.0833391 0.071938224 -0.06537007
0002f0 ec af 5b 3e 22 75 6e 3e fb d8 68 3d 48 fa 83 3e
       0.21453828 0.2328687 0.056847554 0.25776887
000300 80 aa 86 3e 8d 75 75 3d 2e 46 e0 bd 7d 1e b4 3d
       0.26301956 0.05992656 -0.10950886 0.08794878
000310 3e 94 4a bd c9 3d d9 bd 41 4d da bd 21 37 96 bd
       -0.04945778 -0.10607488 -0.10659266 -0.07334734
000320 aa 18 de 3d 66 ed 96 bc 49 44 12 be 74 25 c6 3c
       0.10844548 -0.018423747 -0.14283861 0.02418778
000330 fb 40 d0 bb 50 8c bd bd 07 ef 1e bd 02 43 07 be
       -0.0063554025 -0.09255278 -0.038802173 -0.13209155
000340 59 20 d9 3b fe 06 c7 bd cb 7b 7c 3d 75 ae 8d be
       0.0066261706 -0.097181305 0.061641496 -0.27672163
000350 d2 65 54 3d 07 a0 27 bc c8 f9 d6 3c 04 85 38 3d
       0.051854916 -0.010231025 0.026242152 0.04504873
000360 5b f2 ec 3b 00 c3 1c 3d ed bd ed bc 91 86 57 be
       0.0072310395 0.038271904 -0.029021228 -0.21047427
000370 aa 63 b9 3d e5 5a 6a 3d c4 98 39 3d fb e0 0d 3e
       0.090522125 0.05721559 0.045311704 0.13855354
000380 09 f2 e9 bb 39 38 10 3e 0e 8b c0 bd c7 f7 32 3e
       -0.0071394485 0.14083947 -0.094015226 0.17477332
000390 01 83 aa bd 37 1a d3 3b 89 2f 46 3d 41 08 d0 bc
       -0.08325768 0.006442334 0.048385177 -0.02539456
0003a0 99 b1 be 3c 5e 37 89 be d9 fe a5 3d ab a5 d0 3d
       0.023278045 -0.26800054 0.08105249 0.10187849
0003b0 bd 56 23 be b9 01 a1 3d 3b 11 3e be 81 aa a2 be
       -0.15951057 0.07861657 -0.1856126 -0.3177071
0003c0 42 42 04 3e 61 11 f0 bd fa 01 c1 bd 0d 69 ba bd
       0.129159 -0.11722065 -0.09424205 -0.09102068
0003d0 da a7 2a 3e 3e a8 03 3a 31 cc 91 bd ed f8 fc 3c
       0.16665593 0.00050223235 -0.071190245 0.030880416
0003e0 14 8d 7d 3e f1 04 73 3d 3c ce 97 3e 89 51 08 be
       0.24760848 0.059330884 0.29649532 -0.13312353
0003f0 3f 88 b6 bc 11 26 e3 bc 60 a4 30 3d aa af a8 bd
       -0.022281764 -0.027728112 0.04312551 -0.0823663

fc2.bias f4 [9]
000000 ce ab 30 3e 05 b6 6f 3d 78 83 ab bd 44 73 51 bd
       0.17253038 0.058523197 -0.08374685 -0.051135316
000010 84 8f d2 3d 5b 15 d4 3e 15 1c 37 3c 7a d9 9f bc
       0.1028128 0.41422543 0.011176129 -0.01951288
000020 25 79 bb 3e
       0.36615863
