models/tic_tac_toe_net_v7.pth (torch, 11944 bytes, 4 tensors)

fc1.weight f4 [128, 9]
-0.16910249 -0.108787596 -0.29758784 -0.12973674 -0.20723486 -0.1445733 -0.03164959 0.16361207
0.24185036 -0.34418362 -0.05938946 0.34488517 0.30216184 0.18576902 0.0032808285 0.25105768
0.11356277 0.4269639 0.14900179 -0.2763632 0.13507475 0.045805488 0.09193024 0.14260124
0.037609205 0.027676828 -0.16698448 0.37427613 -0.06824616 0.05128177 -0.30255774 0.32584077
-0.07911922 0.028870827 0.23914638 -0.17193384 -0.10487573 -0.20581028 0.1862667 -0.30549914
0.30793598 0.15138444 -0.037642233 0.25831872 0.0018961953 -0.35722727 0.18296583 0.0458881
-0.14136599 0.039493866 -0.16953431 -0.42177752 -0.0899302 0.23315383 -0.011908383 -0.03680703
0.17896289 -0.088020645 -0.23631713 -0.13851169 -0.39832863 -0.19581285 0.02613972 -0.06666703
0.03612381 0.201888 0.21562913 0.18539067 0.3001803 -0.10897268 0.041870132 0.17137161
-0.091423705 0.20324485 -0.32142928 -0.08239385 0.14407189 -0.020978192 -0.32099372 -0.05321064
0.16128215 0.030012455 -0.04691084 -0.22300686 0.025340552 -0.1571929 -0.081060104 -0.08004444
-0.08187956 0.25842616 -0.14627689 -0.25582567 -0.38067362 -0.02725787 0.02131732 0.005540336
-0.51043725 -0.057458602 -0.012404078 0.09569587 0.1754687 0.22969669 0.30619854 0.008031821
0.04490031 -0.15383306 0.28455627 -0.26576644 -0.1835942 -0.15150738 -0.27649894 -0.10138275
0.04351311 0.14242825 -0.089234084 -0.07539328 0.42778492 -0.13537903 0.07700334 -0.16873075
0.1417288 -0.14017342 0.20707856 -0.45945874 0.16718286 0.110603124 -0.27565593 0.21072522
-0.41455072 -0.023213394 -0.45134288 -0.12954164 -0.102689564 -0.056958638 -0.16419625 0.33179456
0.2040486 -0.170491 0.2019758 -0.0956936 -0.31254813 -0.027751997 0.22042622 0.019291434
0.14427307 -0.11516776 0.33665895 0.3989074 -0.11109848 0.038543694 -0.2661146 0.18798888
-0.0050296676 0.073549755 0.080037504 0.05658232 0.1964037 -0.36561024 0.22457439 -0.29012462
0.03129017 0.29419515 0.091512166 -0.11804455 -0.103304744 0.2569083 0.098135054 0.029264865
0.17173463 -0.09078296 -0.14074188 -0.33891016 0.16174524 -0.02505693 0.24066241 0.054111417
0.24906409 0.45458457 0.15504079 0.24385396 0.115442805 0.10988254 0.20365424 0.3082085
-0.11421059 -0.018105129 -0.17748086 0.0020995855 -0.42656827 -0.30822152 0.032185584 -0.45718542
0.3070987 0.22211547 0.31890142 -0.040305164 0.08329143 -0.07003737 0.14111024 0.18342774
-0.20252734 0.34808347 0.22913682 0.12886679 -0.18398936 0.18708786 -0.41831693 0.26925695
-0.09509983 -0.02258139 -0.2788466 0.36768463 -0.086832866 -0.024183365 -0.11973391 -0.26938415
0.03798621 0.23403288 -0.3309411 0.11566262 -0.024675447 -0.093661696 0.21793242 -0.13410579
0.042661946 0.25584197 0.2570616 0.0725005 0.008301495 -0.16253747 -0.2813398 -0.15369244
0.19771814 0.23636378 -0.23230787 -0.28628543 0.23612054 -0.043254197 -0.16619818 -0.15882705
0.11704884 -0.059059437 -0.22444232 -0.050842084 0.30983582 0.25122622 0.025346491 0.108689666
0.2787413 -0.21718776 0.14387919 0.012986 -0.26822433 -0.015232786 -0.036696564 -0.14891025
00000000: 3429 2dbe 08cc debd 6f5d 98be b5d9 04be
00000010: 6035 54be 060b 14be 00a3 01bd ec89 273e
00000020: 9fa7 773e d638 b0be 5d42 73bd ca94 b03e
00000030: f5b4 9a3e 3c3a 3e3e 2b03 573b a28a 803e
00000040: 9993 e83d 039b da3e ed93 183e 7a7f 8dbe
00000050: 0951 0a3e 899e 3b3d ec45 bc3d 0f06 123e
00000060: 1c0c 1a3d 84ba e23c fbfd 2abe 1fa1 bf3e
00000070: a5c4 8bbd d50c 523d d9e8 9abe 9ad4 a63e
00000080: 4209 a2bd 8382 ec3c cae2 743e 6d0f 30be
00000090: 16c9 d6bd eebf 52be b3bc 3e3e 626a 9cbe
000000a0: c9a9 9d3e 8604 1b3e be2e 1abd 5a42 843e
000000b0: c289 f83a 7ee6 b6be 655b 3b3e 29f5 3b3d
000000c0: 3fc2 10be 52c4 213d 679a 2dbe 39f3 d7be
000000d0: 532d b8bd e1bf 6e3e 611b 43bc f8c2 16bd
000000e0: 0c42 373e 2b44 b4bd 1efd 71be 02d6 0dbe
000000f0: bbf1 cbbe 2a83 48be f722 d63c b988 88bd
00000100: 8ff6 133d babb 4e3e e2cd 5c3e 0dd7 3d3e
00000110: 3bb1 993e 122d dfbd 0480 2b3d 0a7c 2f3e
00000120: 5a3c bbbd 6b1f 503e 6192 a4be 1bbe a8bd
00000130: 9587 133e 75da abbc 4a59 a4be 66f3 59bd
00000140: 2627 253e aedc f53c 9525 40bd e95b 64be
00000150: fd96 cf3c 2df7 20be d702 a6bd 57ee a3bd
00000160: 79b0 a7bd 6f50 843e 9cc9 15be 95fb 82be
00000170: a7e7 c2be e64b dfbc a9a1 ae3c b58b b53b
00000180: 04ac 02bf b659 6bbd 793a 4bbc 32fc c33d
00000190: 11ae 333e 9c35 6b3e 0ec6 9c3e e697 033c
000001a0: 63e9 373d 6a86 1dbe 5cb1 913e 8a12 88be
000001b0: 1e00 3cbe c024 1bbe 4591 8dbe c2a1 cfbd
000001c0: ce3a 323d b6d8 113e 5cc0 b6bd cb67 9abd
000001d0: a006 db3e cda0 0abe edb3 9d3d c1c7 2cbe
000001e0: 5b21 113e 9f89 0fbe 670c 543e 2d3e ebbe
000001f0: fc31 2b3e e483 e23d c622 8dbe 5ac8 573e
00000200: fe3f d4be 042a bebc 6a16 e7be 90a6 04be
00000210: e84e d2bd 764d 69bd 1023 28be fae0 a93e
00000220: 1ef2 503e 3195 2ebe bed2 4e3e 02fb c3bd
00000230: 4f06 a0be 2858 e3bc 69b7 613e 1209 9e3c
00000240: 52bc 133e 13dd ebbd 905e ac3e 973d cc3e
00000250: 9a87 e3bd fedf 1d3d 2c40 88be 2880 403e
00000260: e9cf a4bb 41a1 963d b4ea a33d ddc2 673d
00000270: 0d1e 493e 4431 bbbe d4f6 653e 378b 94be
00000280: 1f2a 003d bfa0 963e bb6a bb3d 57c1 f1bd
00000290: 7091 d3bd 7c89 833e 08fb c83d dfbc ef3c
000002a0: 34db 2f3e 6bec b9bd a41e 10be a285 adbe
000002b0: 8ba0 253e 3144 cdbc 3570 763e efa3 5d3d
000002c0: a80a 7f3e 4fbf e83e 03c3 1e3e dab4 793e
000002d0: 476d ec3d 190a e13d bd8a 503e 81cd 9d3e
000002e0: 3ee7 e9bd 3551 94bc 8bbd 35be 3399 093b
000002f0: 2867 dabe 36cf 9dbe 08d5 033d 3514 eabe
00000300: 0a3c 9d3e 3d72 633e 0c47 a33e 0717 25bd
00000310: b294 aa3d c16f 8fbd 347f 103e 7bd4 3b3e
00000320: 5463 4fbe ff37 b23e d8a2 6a3e a8f5 033e
00000330: b567 3cbe f693 3f3e a32d d6be 0cdc 893e
00000340: b3c3 c2bd 9bfc b8bc fbc4 8ebe 2941 bc3e
00000350: 6ed5 b1bd 311c c6bc 0d37 f5bd b8ec 89be
00000360: 6e97 1b3d 51a6 6f3e 1d71 a9be 86e0 ec3d
00000370: 2a24 cabc b4d1 bfbd ad29 5f3e 0753 09be
00000380: 4bbe 2e3d b8fd 823e 949d 833e 247b 943d
00000390: fe02 083c 3970 26be c50b 90be 8d61 1dbe
000003a0: a076 4a3e 5909 723e 1de2 6dbe 0194 92be
000003b0: 95c9 713e 502b 31bd db2f 2abe 8fa3 22be
000003c0: 4db7 ef3d 4fe8 71bd 35d4 65be ca3f 50bd
000003d0: cda2 9e3e b9a0 803e 72a3 cf3c b098 de3d
000003e0: 2eb7 8e3e 7866 5ebe 1155 133e 3bc3 543c
000003f0: b354 89be ef92 79bc 234f 16bd ee7b 18be

fc1.bias f4 [128]
0.21751463 -0.29402882 0.0766082 0.049518067 -0.1912819 -0.18571168 0.038728017 -0.18457732
-0.026218897 0.18444717 0.2528617 0.032366995 -0.09195931 0.16661893 0.09097366 -0.31585008
0.11463785 0.23801053 -0.011223794 -0.13268419 -0.21172889 -0.07966417 -0.131546 -0.19104633
-0.3068305 -0.032071672 0.11965995 -0.15103869 0.026760895 -0.077853344 0.17024465 -0.14663991
0.08779658 -0.31654483 -0.3216412 -0.092797466 -0.18735269 -0.03882271 -0.15954815 -0.27639884
0.01512531 0.00219707 0.17137219 0.35218164 0.07312679 0.19096647 -0.20080468 -0.12846103
-0.4556866 -0.2594622 -0.11948118 0.11647441 -0.10701284 0.07236007 0.09890128 -0.03220292
0.017887358 0.18136862 -0.25689882 -0.24461338 0.026700018 -0.17551666 -0.20369954 -0.27511656
-0.023602262 0.29170805 -0.42211175 -0.23743223 -0.08213544 -0.37296858 -0.19623579 -0.22347236
0.14154643 0.18849556 -0.28750587 0.12481864 -0.12997189 0.0334318 0.027917169 -0.08810876
0.17870604 -0.3821498 0.1541219 -0.15400906 -0.15703802 -0.3019088 0.03065385 -0.051797103
0.13630804 0.11439557 0.0036944975 -0.22863331 0.21451381 0.0893422 -0.0065674274 -0.26951054
0.02543373 -0.16152605 -0.016010668 -0.2715359 -0.2676041 0.032031603 0.075202875 -0.18497054
-0.29005316 0.27973875 -0.049722888 0.058951173 -0.20972477 -0.13302805 -0.18336034 -0.041384507
-0.21966821 0.10641146 -0.39642623 -0.09168362 -0.2018277 0.11880321 -0.3646946 -0.01869172
-0.1413472 -0.31140643 -0.14498772 -0.17419371 -0.0045243213 -0.015977278 -0.059765853 -0.07401694
00000000: 28bc 5e3e f28a 96be c3e4 9c3d 75d3 4a3d
00000010: 67df 43be 342b 3ebe 45a1 1e3d d601 3dbe
00000020: 03c9 d6bc b8df 3c3e 1777 813e 4193 043d
00000030: 2a55 bcbd 279e 2a3e 6650 ba3d 1ab7 a1be
00000040: 40c7 ea3d 08b9 733e 01e4 37bc 5dde 07be
00000050: 75cf 58be f826 a3bd ffb3 06be a6a1 43be
00000060: e318 9dbe 965d 03bd 4710 f53d e3a9 1abe
00000070: aa39 db3c 9371 9fbd 9d54 2e3e c628 16be
00000080: b1ce b33d 2a12 a2be 28ae a4be 990c bebd
00000090: 62d9 3fbe 9004 1fbd 9760 23be 2684 8dbe
000000a0: 26d0 773c b8fc 0f3b 317c 2f3e 2751 b43e
000000b0: 80c3 953d b78c 433e be9f 4dbe 4a8b 03be
000000c0: c14f e9be 3bd8 84be 8db2 f4bd 238a ee3d
000000d0: 8c29 dbbd 8431 943d c18c ca3d 36e7 03bd
000000e0: 8288 923c b2b8 393e 3e88 83be ee7b 7abe
000000f0: ffb9 da3c a4ba 33be 9d96 50be 14dc 8cbe
00000100: 8859 c1bc c25a 953e 081f d8be 6f21 73be
00000110: a036 a8bd bdf5 bebe 09f2 48be f0d5 64be
00000120: 8cf1 103e fb04 413e f833 93be eaa0 ff3d
00000130: 5a17 05be c8ef 083d 8cb2 e43c 5e72 b4bd
00000140: b7fe 363e 23a9 c3be 22d2 1d3e 8db4 1dbe
00000150: 93ce 20be ca93 9abe c81d fb3c 3329 54bd
00000160: 5694 0b3e 3948 ea3d 621f 723b da1e 6abe
00000170: 82a9 5b3e 0bf9 b63d 9333 d7bb 49fd 89be
00000180: 665a d03c 1667 25be ce28 83bc c106 8bbe
00000190: 6803 89be 9233 033d f703 9a3d eb68 3dbe
000001a0: d981 94be eb39 8f3e 3aaa 4bbd c976 713d
000001b0: 17c2 56be 8138 08be d0c2 3bbe cd82 29bd
000001c0: b4f0 60be 40ee d93d 61f8 cabe 9fc4 bbbd
000001d0: ecab 4ebe 194f f33d 40b9 babe 611f 99bc
000001e0: 52bd 10be aa70 9fbe a977 14be d65f 32be
000001f0: c240 94bb c8e2 82bc 0acd 74bd 3296 97bd

fc2.weight f4 [9, 128]
-0.015291973 0.123318024 0.052828882 0.09829873 -0.04228528 -0.088888004 0.027580969 0.013980567
-0.07863308 0.02747008 0.027364673 0.06264797 0.011897483 -0.029600544 -0.013559109 0.086697556
-0.038791146 -0.01723158 0.004540864 0.16992268 0.09517491 0.003368105 -0.14271821 -0.0143698575
0.08424659 0.13409747 0.016315946 -0.066844076 0.14802577 -0.053071678 -0.0029955734 -0.003280054
0.16106646 -0.009628668 0.01339067 0.08470553 -0.14420271 -0.06757286 0.043349396 -0.076115325
0.006842348 0.13287707 0.04856474 0.0013205499 0.039450273 0.1704523 0.020883964 -0.054748774
0.046835043 -0.04330427 -0.058351643 0.015411304 0.021446545 -0.05435058 -0.03373234 -0.077273905
0.027450236 0.19416706 0.092167236 -0.038330417 0.08639589 0.15552661 -0.025446445 0.0025063432
-0.07606472 -0.13715863 -0.1036883 -0.00026115248 0.097183034 0.0052586044 0.028096637 -0.036563653
0.020857824 -0.12724373 -0.008814815 -0.04214974 -0.15355615 0.09155821 0.12053001 -0.012355071
-0.25143772 0.011936716 0.07760675 -0.046387024 -0.056623198 -0.054744143 0.00054730533 -0.01892118
-0.055970352 -0.08530762 0.019857116 0.0025525691 0.070195846 0.012022612 0.04985076 -0.05265324
-0.06644655 0.19316827 0.014708663 -0.02760347 -0.033172954 -0.0041010417 0.2184785 0.1214746
-0.0054076086 0.05621336 -0.019360207 0.006985189 0.11769124 0.25266847 -0.009751458 -0.05152851
-0.079537086 0.009843954 0.03467371 0.070907496 -0.12016898 -0.03088374 -0.06583815 -0.031663056
0.044433534 -0.0349926 0.16519164 0.020498468 0.14898632 -0.03703368 -0.0009869393 -0.054434095
-0.069811456 0.25221118 -0.08943335 -0.0324059 0.18002458 -0.23969911 -0.2413904 -0.019417925
0.16033478 -0.02969322 -0.27884015 -0.0798808 -0.1285898 0.06499644 0.21741943 -0.036050644
-0.17745985 0.2603457 -0.053441957 -0.10064712 -0.17289276 -0.18769377 -0.10561267 0.037297565
-0.16009814 -0.061868798 0.018476173 0.08166906 -0.18807332 0.028908264 -0.17813648 -0.08580986
0.12713993 -0.11161851 -0.094480895 -0.12616067 -0.12059621 0.2229731 0.022284701 -0.19698487
-0.2102923 0.100384824 -0.3239283 0.2200295 -0.063431926 -0.16296093 0.10322565 -0.069171324
-0.04256318 0.024171446 -0.19662006 -0.25189152 0.05359963 -0.14946058 -0.28513882 0.009050427
0.22077347 -0.08916705 0.09250908 0.09559097 0.04583729 0.059625123 0.016022235 -0.027283873
-0.029153414 0.26608118 -0.04615883 -0.09262558 0.13573225 0.02706929 -0.0053596892 -0.11252588
0.1162231 -0.089704394 0.0032366752 -0.21830493 0.11303021 -0.03320313 0.10024296 0.15331249
-0.13628499 -0.060555138 -0.091481626 -0.004053813 -0.035657424 -0.007832323 -0.3118495 0.029320927
0.013931655 -0.051733803 0.071071535 -0.00573178 -0.017620573 0.14061613 0.12682977 -0.021740818
0.19625938 -0.13609095 0.12084184 0.058593612 0.11464033 -0.08744056 0.021239376 -0.058108658
0.017740702 0.10460155 0.07892021 0.14011364 -0.04288407 -0.11320618 0.1787889 -0.34627643
0.25471404 -0.06679095 0.17837554 0.03965754 0.17480877 0.07448252 -0.0889248 0.09398485
-0.082989156 0.052791983 0.007681734 -0.16830768 0.043267254 0.15328088 0.14206845 0.008148146
00000000: 2f8b 7abc 298e fc3d 1963 583d d850 c93d
00000010: 5433 2dbd ea0a b6bd 7cf1 e13c c00e 653c
00000020: 610a a1bd ef08 e13c e12b e03c 944d 803d
00000030: a9ed 423c d77c f2bc 0627 5ebc 7d8e b13d
00000040: 77e3 1ebd 3e29 8dbc 87cb 943b 3600 2e3e
00000050: 10eb c23d 6dbb 5c3b b924 12be 8d6f 6bbc
00000060: 7a89 ac3d d950 093e 05a9 853c 8ce5 88bd
00000070: 1194 173e b061 59bd 6251 44bb 2df6 56bb
00000080: 9bee 243e 90c1 1dbc 8a64 5b3c 187a ad3d
00000090: e0a9 13be a463 8abd 238f 313d 5ae2 9bbd
000000a0: c635 e03b ed10 083e d2eb 463d 4d16 ad3a
000000b0: 9c96 213d 0c8b 2e3e d914 ab3c 4040 60bd
000000c0: 1ad6 3f3d d15f 31bd 2202 6fbd b27f 7c3c
000000d0: aab0 af3c b79e 5ebd ec2a 0abd c841 9ebd
000000e0: 51df e03c bbd3 463e 2dc2 bc3d 5b00 1dbd
000000f0: 54f0 b03d 5e42 1f3e 1075 d0bc 7641 243b
00000100: d2c7 9bbd 5073 0cbe 885a d4bd 4beb 88b9
00000110: e607 c73d 5f50 ac3b eb2a e63c c5c3 15bd
00000120: 07de aa3c 2e4c 02be 046c 10bc 35a5 2cbd
00000130: d33d 1dbe df82 bb3d 70d8 f63d ec6c 4abc
00000140: 72bc 80be 3792 433c 4af0 9e3d 5200 3ebd
00000150: baed 67bd 653b 60bd 0a79 0f3a 9700 9bbc
00000160: 2b41 65bd c3b5 aebd 64ab a23c 0149 273b
00000170: d7c2 8f3d 7dfa 443c 4f30 4c3d ecaa 57bd
00000180: 2115 88bd e7cd 453e 9bfc 703c ac20 e2bc
00000190: 5de0 07bd 0862 86bb d4b8 5f3e adc7 f83d
000001a0: 4f32 b1bb fb3f 663d 4c99 9ebc 03e4 e43b
000001b0: 1b08 f13d c35d 813e 94c4 1fbc 8f0f 53bd
000001c0: 57e4 a2bd 8948 213c 0506 0e3d f337 913d
000001d0: 271b f6bd e6ff fcbc 27d6 86bd 1fb1 01bd
000001e0: f0ff 353d 6754 0fbd ff27 293e 67ec a73c
000001f0: df8f 183e a1b0 17bd 305c 81ba 49f6 5ebd
00000200: 4ff9 8ebd d321 813e d528 b7bd 0dbc 04bd
00000210: 5d58 383e af73 75be 0c2f 77be 5712 9fbc
00000220: cd2e 243e 323f f3bc 23c4 8ebe 8b98 a3bd
00000230: 0bad 03be db1c 853d 33a3 5e3e d7a9 13bd
00000240: 09b8 35be 084c 853e f4e5 5abd 1420 cebd
00000250: cd0a 31be cc32 40be 754b d8bd 55c5 183d
00000260: c4f0 23be 236a 7dbd 585b 973c 1c42 a73d
00000270: 4b96 40be 06d1 ec3c 6969 36be 14bd afbd
00000280: f830 023e 3f98 e4bd 337f c1bd 4330 01be
00000290: 25fb f6bd 0f53 643e 688e b63c 67b6 49be
000002a0: dd56 57be 8f96 cd3d eed9 a5be 6a4f 613e
000002b0: 99e8 81bd 3bdf 26be f867 d33d b2a9 8dbd
000002c0: bb56 2ebd 3203 c63c c556 49be edf7 80be
000002d0: 498b 5b3d 320c 19be b7fd 91be 3e48 143c
000002e0: 7112 623e 379d b6bd 6775 bd3d 33c5 c33d
000002f0: e2bf 3b3d 7939 743d 1041 833c 6e82 dfbc
00000300: 24d3 eebc cb3b 883e 0b11 3dbd 7bb2 bdbd
00000310: 65fd 0a3e 6ac0 dd3c 55a0 afbb f873 e6bd
00000320: 6006 ee3d f0b6 b7bd 661e 543b 548b 5fbe
00000330: 627c e73d 0100 08bd 2e4c cd3d f3fd 1c3e
00000340: 4b8e 0bbe aa08 78bd b85a bbbd d9d5 84bb
00000350: 850d 12bd 2553 00bc bdaa 9fbe 7132 f03c
00000360: 9941 643c d3e6 53bd f48d 913d a8d1 bbbb
00000370: 0559 90bc adfd 0f3e aadf 013e cd19 b2bc
00000380: 38f8 483e 6d5b 0bbe ed7b f73d dbff 6f3d
00000390: 8dc8 ea3d 0914 b3bd 33fe ad3c 5803 6ebd
000003a0: f354 913c 5639 d63d eba0 a13d f379 0f3e
000003b0: 35a7 2fbd a4d8 e7bd 7014 373e 254b b1be
000003c0: e169 823e b2c9 88bd 14a8 363e f26f 223d
000003d0: 1201 333e 4b8a 983d 351e b6bd 217b c03d
000003e0: 38f6 a9bd 683c 583d 0eb7 fb3b d958 2cbe
000003f0: 0139 313d aaf5 1c3e 647a 113e cd7f 053c

fc2.bias f4 [9]
-0.06891527 0.3040621 0.2295811 0.021959558 0.030708784 0.10069335 0.26543012 -0.027635314
-0.04260236
00000000: 7323 8dbd 07ae 9b3e 4f17 6b3e 88e4 b33c
00000010: fd90 fb3c 5138 ce3d 75e6 873e 7463 e2bc
00000020: d07f 2ebd
