models/tic_tac_toe_net_v3.pth (torch, 11489 bytes, 4 tensors)

fc1.weight f4 [128, 9]
000000 c0 eb 98 3d 92 33 ca be 8a 4e ae 3d a0 0c ef 3d
       0.07466841 -0.3949247 0.08511074 0.1167233
000010 0f 00 8c be da b1 79 3e fa 0c b2 be 07 a0 94 3e
       -0.27343795 0.24384251 -0.34775525 0.2902834
000020 5a 15 60 be 9a 1e 93 bd ba e4 64 bd 4f 90 51 bb
       -0.21883145 -0.07183571 -0.055882193 -0.0031976884
000030 4b 8a 72 3d 37 3e 96 bd 00 2e 8d 3d 9a 44 df 3d
       0.059213918 -0.07336085 0.068935394 0.109017566
000040 a7 38 8c 3d b9 3b 8f 3b dc c3 00 3f f5 17 94 be
       0.06846743 0.004371133 0.5029886 -0.28924528
000050 0a 17 09 be 43 9e 60 bd 00 62 8a be e2 2f 0e bd
       -0.13387695 -0.05483843 -0.27027893 -0.034713633
000060 99 47 59 be 1f 90 14 3e 51 00 f9 3e 42 8a 9f be
       -0.21218719 0.14508103 0.48633054 -0.3116017
000070 5c 60 9e be f6 4f 46 bc d8 f1 1e 3e 98 e4 29 be
       -0.3093289 -0.012104025 0.15521944 -0.16591108
000080 48 7e 21 be 15 2a 09 3f 89 82 6d 3e 73 78 77 3d
       -0.15770829 0.5357984 0.23194326 0.060417604
000090 53 cd 5e bd af 83 ec bd bc de 33 bd 91 7b 75 3e
       -0.05439503 -0.11548554 -0.043913588 0.23972918
0000a0 2c c2 ec bd 95 85 b4 be 46 b1 15 3f ba a3 71 be
       -0.11560473 -0.35258165 0.5847362 -0.23597613
0000b0 f3 8d 20 be 07 d8 4a 3d 5e 34 cd be 4f 00 c1 3d
       -0.1567915 0.049522426 -0.40079015 0.09423887
0000c0 22 92 a1 3e 07 60 af 3d a4 ba dd 3e d3 25 0a 3e
       0.31556803 0.08563238 0.43306458 0.13490991
0000d0 dd df 63 bd 5f 65 e2 bc ec 95 8e 3e 1a 4a e8 3e
       -0.055633415 -0.027636228 0.27848756 0.45369035
0000e0 e6 ac 02 be b7 04 a9 3b 47 a6 01 be 55 31 c8 be
       -0.12761268 0.0051580328 -0.12661086 -0.39100137
0000f0 14 c6 cb be 34 56 7f 3d af 15 86 3e a2 10 79 3e
       -0.3979956 0.06233807 0.26188418 0.24322751
000100 a5 be ac bd 2d ae f2 bd 4e 5e 8e 3e f3 43 e1 be
       -0.084348 -0.11849628 0.27806324 -0.43997154
000110 85 5f 63 3d 68 fa 40 3e 60 1f bd bd 30 17 00 be
       0.055511016 0.18845522 -0.092345 -0.12508845
000120 8d 6b 06 be 26 51 9e 3d 5c df 04 be 50 a4 c4 3d
       -0.13126965 0.077303216 -0.1297583 0.096016526
000130 51 b6 43 3d 90 dd be bd 75 43 aa be 37 3d ec 3d
       0.047781292 -0.093196034 -0.3325459 0.11535113
000140 23 7c 88 be bb 37 8d 3c f3 23 ae 3d 30 a1 1a 3e
       -0.2665721 0.017238488 0.085029505 0.1510055
000150 2d 80 bd 3e a0 ff 85 be e2 6c 55 3c ae fa a5 be
       0.37011853 -0.2617159 0.013026448 -0.32417816
000160 ac 72 c3 be 0e a1 72 be 86 9f 18 bb 1a d6 40 3e
       -0.38173425 -0.2369425 -0.0023288443 0.18831673
000170 ee 49 b6 3e 5a 0d 94 bd 36 66 6d be 78 c0 75 bd
       0.3560328 -0.07229109 -0.23183522 -0.059998006
000180 77 0a 23 bf 7f e2 68 bc ad 4d 89 be 95 f4 88 be
       -0.63687843 -0.014214157 -0.26817074 -0.267491
000190 8b b2 b0 3d 21 28 ee 3d 56 78 83 3e 9b c5 1e be
       0.08627804 0.11628748 0.25677747 -0.15505068
0001a0 b6 2b 95 be cb 70 4f 3e e6 3f 6f be cb 9c 14 bd
       -0.2913491 0.20257871 -0.23364219 -0.036282342
0001b0 26 65 6c be 39 7c d2 3e 78 b4 91 be 30 f0 62 bd
       -0.2308546 0.411104 -0.28458 -0.055404842
0001c0 c4 81 cf be c1 7e 58 3e 22 18 d7 bd ca 19 b7 bd
       -0.4052869 0.21142103 -0.1050265 -0.08940466
0001d0 27 2c 39 3e cb f7 cb 3c 5a 87 37 be d9 bc b0 3e
       0.18083249 0.02489843 -0.17922726 0.3451908
0001e0 b1 d5 24 be c5 15 25 be d4 0e cd 3e 50 93 bb 3d
       -0.16097142 -0.16121586 0.40050375 0.09158957
0001f0 a3 f8 31 3e 0a 28 61 bd ec 62 86 3e 9c 6d 7c bb
       0.17380004 -0.054969825 0.26247346 -0.003851748
000200 79 d9 3f be 22 aa d3 bd ab 9d 87 3d 47 51 9b bd
       -0.18735303 -0.10335185 0.0662187 -0.07583862
000210 66 61 bc 3e a8 33 1b 3e 31 a9 36 3e 0e d7 cd bd
       0.3679306 0.15156424 0.17837979 -0.10050784
000220 fb d8 b1 bd 2b 98 05 3f 0e a5 97 bb 3e 43 4f bd
       -0.08683964 0.52185315 -0.0046278303 -0.050601237
000230 08 02 e1 3d 73 87 e1 3e 42 e6 c6 3e b3 93 5e 3e
       0.109867156 0.44048652 0.38847548 0.2173603
000240 f3 57 03 3e 09 f6 aa 3d 55 93 55 bc 37 3b 54 bd
       0.12826519 0.08347709 -0.013035615 -0.051814284
000250 48 e7 9f be 58 ee 8f 3d 96 63 7b be f8 8d 63 3e
       -0.3123114 0.07027882 -0.24549708 0.22222126
000260 83 11 39 3f 91 00 a4 be 51 0d 81 be 57 9f dc 3e
       0.72292346 -0.32031682 -0.25205472 0.43090317
000270 73 c3 ed 3e 3e 5b bf be b8 6d 5a bd 9a e0 d4 be
       0.46438178 -0.373743 -0.053327292 -0.41577607
000280 d4 3e 72 bb da 2f 3e be 67 c1 7c 3d 07 b3 87 3d
       -0.0036963718 -0.18572941 0.06170788 0.06625944
000290 48 19 ac be a5 23 c5 3e 6e 28 b3 ba 7c 0b 1f 3d
       -0.33613038 0.38503757 -0.0013668665 0.03882931
0002a0 0e 39 0e be 83 48 af 3e 4d e5 11 bd 3a 11 4e 3e
       -0.13888952 0.3423501 -0.03561907 0.20123759
0002b0 1b 64 29 bd 90 fd 0c 3e f0 35 07 3c 0f 81 05 be
       -0.041355234 0.13768601 0.008252606 -0.13037513
0002c0 5c 3c 90 bc 69 e3 0a 3f 84 d2 42 3e d8 15 81 be
       -0.017606907 0.5425325 0.19025618 -0.25211978
0002d0 70 2e 0a 3e d7 54 9d 3e ed e4 e0 bd 17 48 12 be
       0.13494277 0.3072879 -0.10981164 -0.14285313
0002e0 39 c3 11 3d cf 22 25 3e db 7a 8b 3e aa 6f 42 bd
       0.03558657 0.1612656 0.2724217 -0.047469772
0002f0 bc 08 55 be c3 5d 7b bc 69 08 14 ba ef 3b 5b be
       -0.20804113 -0.015342179 -0.0005647005 -0.21409582
000300 41 67 3e 3e d4 9e 6a bc 15 ba 00 bf 73 66 60 be
       0.18594076 -0.014320094 -0.5028394 -0.21914081
000310 b1 0b ed bd 38 b3 ce 3d 52 37 88 be 3a a7 41 bd
       -0.115744956 0.10092777 -0.26604706 -0.04727862
000320 8e 8e bd be cd 1c 50 bd cf 50 ed be 47 27 3c be
       -0.37022823 -0.050808717 -0.46350715 -0.18374358
000330 d3 94 20 bf 57 25 53 3e 3d c0 99 3e b0 af 02 bf
       -0.6272709 0.20619713 0.3002948 -0.5104933
000340 03 f1 25 3e 31 08 18 bd c8 fb 3f bd e4 f8 90 be
       0.1620522 -0.037117187 -0.046870977 -0.28314888
000350 91 79 9c 3d a9 fa 1c 3e 75 1c 85 be 94 54 ec be
       0.076403745 0.15329994 -0.25998273 -0.46158278
000360 fa b9 a3 bd 96 e2 0c 3e 5b ca 49 be d7 6d c9 3d
       -0.079944566 0.1375831 -0.19706099 0.098354034
000370 88 98 70 3e 8f 61 e2 be 4f 37 e0 3d c6 48 62 be
       0.23495686 -0.44215056 0.10948049 -0.22098073
000380 15 d1 e6 3c 90 58 82 be ea 4a ba 3e 2d 4a 99 3e
       0.02817587 -0.25458193 0.3638528 0.29939404
000390 06 d9 0d 3d 53 9b 34 be ba 98 56 be ab 9c 01 be
       0.034630798 -0.17637376 -0.20956698 -0.1265742
0003a0 cb 0a e4 3e 1f 4f 63 3d 54 6c 48 3d f8 a7 1b be
       0.44539484 0.055495378 0.048931435 -0.15200794
0003b0 26 42 da 3e 7f ed c4 be 78 18 a9 bb 95 c4 80 be
       0.42628592 -0.38462445 -0.0051603876 -0.2514998
0003c0 98 26 d7 3d a7 e6 8c be 2b 3f ae bd 56 12 e0 3e
       0.10505408 -0.27519724 -0.08508142 0.4376399
0003d0 19 55 90 be fd df 94 3d 38 91 64 3e be 55 eb be
       -0.28189924 0.07269285 0.22321022 -0.45963854
0003e0 eb fc 14 be 85 68 63 bd dc 1f 7d 3e 0c 6f 61 bd
       -0.14549606 -0.0555196 0.24719185 -0.055037543
0003f0 91 fe 40 3d 89 18 2c be e7 dc 1c 3c c1 d9 35 3d
       0.047117773 -0.16806234 0.009574152 0.04439712

fc1.bias f4 [128]
000000 0f 64 d3 be e7 b0 fe bd ef c1 08 be 1c 52 6a be
       -0.41287276 -0.12436085 -0.1335523 -0.22882885
000010 e3 72 b1 3c 99 73 2f be f7 34 12 bf ea 9c de bd
       0.021661228 -0.17133941 -0.5711207 -0.10869773
000020 de ad 8a 3d 8d d3 79 bd b0 15 d1 be 08 77 03 be
       0.06771444 -0.060992766 -0.4083686 -0.12838376
000030 44 bb 3c 3e b7 c4 52 3e 55 b4 06 be 00 2d 8c be
       0.18430811 0.20582853 -0.13154729 -0.27378082
000040 85 87 3a be 84 a4 01 bf 3e cc c0 be fe 5e f4 3d
       -0.18215759 -0.50641656 -0.37655824 0.11932181
000050 02 62 ed bc d9 d1 01 bf e4 b0 4e be 14 df d9 bd
       -0.028977398 -0.5071083 -0.20184666 -0.10638252
000060 d6 d2 cd be 30 a9 41 be 4c fd b6 be 94 ac d1 bd
       -0.40199918 -0.18912196 -0.35740125 -0.10237995
000070 dc 3a bb be 48 05 91 be 3b 30 72 3d 7f 45 28 bf
       -0.36568344 -0.28324342 0.059128027 -0.6573104
000080 a9 0f ba be 17 d1 84 3d 0d b9 d4 3d 28 20 e4 be
       -0.36340073 0.06485193 0.10386858 -0.44555783
000090 e4 28 0e be 92 fa a2 be b7 c7 63 be a2 55 d3 be
       -0.13882786 -0.31831795 -0.22244154 -0.4127627
0000a0 b9 2a 71 bc a2 83 4d be 4c 54 36 be 8b 04 23 bd
       -0.0147196585 -0.20069745 -0.17805594 -0.039799254
0000b0 1e cf 32 3d 6a 79 cb be df c7 6d be d2 f3 5e bd
       0.043654554 -0.3974107 -0.23220776 -0.054431744
0000c0 ba 24 84 3b 40 c6 e1 be 3a da 85 bc 3d 5b bb be
       0.0040326985 -0.44096565 -0.01633941 -0.36593047
0000d0 08 82 a1 bd 1d d6 28 3c 3e 01 b1 be 60 ef b8 be
       -0.078861296 0.010304955 -0.3457126 -0.3612013
0000e0 a0 9a 19 bc fe 7d 1b bf 69 78 5c be 3d 6d 02 3e
       -0.009375244 -0.60739124 -0.21530308 0.12736984
0000f0 30 96 2d be d5 4f e6 bd 57 43 e3 be 2c d9 fa be
       -0.16951823 -0.112456955 -0.44387314 -0.48993814
000100 94 15 55 bb f1 ff 01 be c8 91 28 be 46 c1 2b 3b
       -0.0032514082 -0.1269529 -0.16461861 0.002620773
000110 ce 89 7b 3e 19 bf 90 be 25 32 01 bf 2a b0 44 be
       0.24564287 -0.28270796 -0.5046714 -0.19207826
000120 e3 f2 e0 bd 55 cc 22 be b0 3b 47 be 31 f1 bd be
       -0.10983827 -0.15898259 -0.19456363 -0.37098077
000130 24 1f bc bd 78 9c 4d 3e 1a e3 c1 3c c0 ee 61 bd
       -0.09185627 0.2007922 0.02366786 -0.05515933
000140 cb b7 94 3d 59 d2 95 be e3 eb f5 be 99 ed b9 bd
       0.07261618 -0.29262045 -0.4803153 -0.09078521
000150 69 39 e0 be 0a cd 59 3d 20 01 fd bd 11 68 e5 be
       -0.437938 0.053174056 -0.1235373 -0.4480596
000160 a7 94 fd 3d 53 0d 5b be 5e 3f 25 be 1f 3b 2e be
       0.12381869 -0.21391802 -0.16137454 -0.1701474
000170 15 a4 c9 3d 70 33 b1 be aa 6a 82 be 05 d9 86 3d
       0.09845749 -0.34609556 -0.25472003 0.06584362
000180 3b 50 f9 be 0a f2 22 bf 69 14 a5 be 7a f9 ae be
       -0.48694023 -0.6365057 -0.32242134 -0.3417471
000190 4e 52 26 be 49 60 b4 bd 0d 87 bd 3c d6 85 04 be
       -0.16242334 -0.088074274 0.023135686 -0.1294168
0001a0 4e e1 b2 3d e8 04 af be 29 26 d9 bd 87 95 dc be
       0.0873438 -0.3418343 -0.106029816 -0.4308283
0001b0 99 dd 20 bf 4d 7d 06 bf b8 2f 16 bc 87 ff 1a be
       -0.6283813 -0.52534944 -0.0091666505 -0.15136538
0001c0 3f f7 3e be 49 67 89 be 06 00 79 be 69 4e d9 bd
       -0.18649004 -0.26836613 -0.24316415 -0.10610659
0001d0 33 8e 9f 3e 76 22 a2 bd ed 2f e4 be 7d e9 88 be
       0.31163177 -0.07916729 -0.44567814 -0.26740637
0001e0 b7 04 eb bd 59 ec d8 be a8 b6 85 3d aa 20 05 be
       -0.11475509 -0.4236782 0.065289795 -0.13000742
0001f0 88 1d a9 be 31 0f 95 be 40 aa e4 bd 59 a5 32 be
       -0.33030343 -0.29113153 -0.11165285 -0.17445888

fc2.weight f4 [9, 128]
000000 aa f1 86 bd 35 65 3a 3c 0b 23 e5 3e 10 28 f5 3d
       -0.065890625 0.011376669 0.44753298 0.11970532
000010 72 38 07 be cf 6c 46 3d 71 7a 68 be 84 b0 f2 3c
       -0.13205126 0.04844361 -0.22702958 0.029625185
000020 f2 47 5f be 7f cd 6e 3c 80 5c 4a 3e d1 9b 29 3e
       -0.21804789 0.014575361 0.19761848 0.16563345
000030 6b 0e 1e be 12 90 4a 3d 4d 7e 90 3d 90 dc 9f bc
       -0.15435188 0.049453802 0.0705534 -0.019514352
000040 3a 32 3d bc bb 2c 28 3d e8 2c d6 bc 3c 21 11 3e
       -0.0115476195 0.041058283 -0.02614446 0.14172834
000050 4f 49 f4 bc 48 76 a1 3d 2e 3d 5e 3e e6 51 72 3e
       -0.029820113 0.078838885 0.21703026 0.23664054
000060 c1 9e 8a 3d 7d cd 35 3e 84 a8 91 3d 4a 76 89 3e
       0.06768561 0.17754169 0.0711222 0.2684806
000070 ed 8c 0b 3e 1c 69 28 bd dd 0a 47 3e 64 b0 3d bd
       0.13627978 -0.041115865 0.19437738 -0.046310797
000080 4c ab 79 3c 06 4f 55 3e f1 9d 4c be 5c c8 83 be
       0.015238594 0.20830926 -0.19982125 -0.257388
000090 9d 42 f4 bc e0 e2 10 3d 1a 72 d1 3c f2 2d 17 be
       -0.02981692 0.035372615 0.025567103 -0.1476362
0000a0 a2 cb 3e 3e e1 99 fa bd c8 7a 67 bd 75 a1 d3 bd
       0.18632367 -0.12236381 -0.056513578 -0.1033353
0000b0 20 8d e0 bc 6b 30 00 bf 10 7c a5 bc fe bc 2f 3e
       -0.027411044 -0.5007388 -0.02020076 0.17161939
0000c0 8d 8e 2d bd 86 a3 50 be 50 bc e1 bb 9b c0 04 bc
       -0.042372275 -0.20374879 -0.0068889037 -0.008102561
0000d0 02 f0 2f 3d c4 ff b0 3b c0 f8 a4 3d 3b bb 98 3e
       0.0429535 0.0054015834 0.08055258 0.29830346
0000e0 16 2c 38 3e 8d f5 67 3c 19 7c eb bc a9 b3 8a bd
       0.17985567 0.014157665 -0.028745698 -0.06772549
0000f0 a2 1f c1 bd 12 07 b6 3d bf 6e 1e bd 74 ee 6d 3e
       -0.094298616 0.08888067 -0.038679834 0.23235494
000100 bd f4 cf 3c 8e 1a 2c bd 79 62 80 bd 34 61 cd 3d
       0.025385255 -0.042017512 -0.06268782 0.10028306
000110 04 3c 18 3d ae 18 95 3e 20 02 7a 3c 1e 12 b0 bd
       0.03716661 0.29120392 0.015259296 -0.085972056
000120 39 59 07 bd b2 45 34 3e 40 14 04 be 73 1f a1 3d
       -0.033044074 0.17604712 -0.1289835 0.078673266
000130 33 02 08 be 3a 54 05 3e d0 de f0 bc 59 18 38 3d
       -0.13282089 0.13020411 -0.02940312 0.044945095
000140 61 97 86 3d b4 92 ad be ec e4 57 be a5 b5 39 3e
       0.06571842 -0.33900988 -0.2108342 0.18135698
000150 c1 15 94 3e c3 02 e4 be f2 7d ce 3d bc ef b1 3d
       0.28922847 -0.44533357 0.10082616 0.08688304
000160 d7 ad 2a be d1 f1 7c 3d 3e 8b e3 bd 4b f7 35 bb
       -0.16667877 0.06175405 -0.11110543 -0.0027765806
000170 5b 4a e2 bd ae 62 27 bd f3 d3 a3 be 5f 8b f2 3d
       -0.110493384 -0.040865593 -0.31997642 0.11842989
000180 ab 84 f3 be 6c 33 bc bb 23 ae 08 3e ce 58 43 3d
       -0.47562155 -0.0057434347 0.13347678 0.047692113
000190 bb 9f 86 be 21 42 61 3d f2 38 0c 3c 30 cf 14 3d
       -0.2629374 0.054994706 0.008558499 0.036330402
0001a0 d7 fa 84 be 27 97 3c 3d d6 0c 40 be e8 18 a7 3e
       -0.25972626 0.046042588 -0.18754897 0.3263619
0001b0 a8 a1 d3 3d 65 59 95 bc d2 a0 c1 bd 11 9c 93 bd
       0.10333568 -0.018231103 -0.09454502 -0.07207502
0001c0 cd b1 9c bd 0e fa ce bd 12 8f 8e 3d a5 b2 0a be
       -0.076511 -0.10106288 0.06960882 -0.1354471
0001d0 1a 36 35 3e 85 98 a7 3d 34 a6 84 be d1 19 88 be
       0.1769642 0.08183388 -0.25908053 -0.26582196
0001e0 cd c4 8a 3d cd 23 11 3d c4 28 21 3e 14 fe 9c bd
       0.06775818 0.035434533 0.15738207 -0.07665649
0001f0 e5 cb 8d bc 11 1a 93 3b 98 14 a2 be 35 33 b1 bc
       -0.017309139 0.0044891913 -0.31656337 -0.021630863
000200 da f6 1c 3e e4 51 12 3c ce b5 00 be 5b 61 7a 3e
       0.15328541 0.008930657 -0.12569353 0.244512
000210 b1 a5 1a bd 69 2e b0 3e e3 26 16 3d 30 01 52 bd
       -0.037755672 0.34410408 0.03665818 -0.051270664
000220 64 bb 8f 3d 1a a1 a6 bd 53 b0 49 3e f1 30 c2 bd
       0.07018164 -0.081361964 0.19696169 -0.09481991
000230 c0 e9 29 3e a9 52 67 be c8 0c a8 bd 87 ba a3 3e
       0.16593075 -0.22590126 -0.08205563 0.31978247
000240 86 f5 14 be 2f 47 04 3e 1a d3 96 bd a7 0e c9 3c
       -0.14546785 0.1291778 -0.07364483 0.02454312
000250 59 99 93 3d ee 2a e0 3d f4 40 94 3d 11 66 06 be
       0.07206983 0.10945688 0.07238951 -0.13124873
000260 95 b9 8f 3d 9f a9 1f be db b0 d4 bd 33 18 83 bd
       0.07017819 -0.15592049 -0.10385295 -0.064011
000270 8e 74 3e be 13 66 5f be bc bf 80 bd 53 cd 05 3e
       -0.1859915 -0.21816282 -0.062865704 0.13066606
000280 50 42 ba 3e e7 ea 18 3d 2a 7b 88 bd 51 bd 8f 3d
       0.36378717 0.037333395 -0.06664117 0.07018531
000290 bb 2f c4 3d 32 fa 1b be 02 c2 93 bc ed d5 cb 3e
       0.09579416 -0.1523216 -0.018036846 0.3981165
0002a0 31 fa 5c 3e 40 d8 0d 3e 64 71 17 be d4 24 14 3e
       0.21579815 0.13852024 -0.14789349 0.14467174
0002b0 33 ae 86 be 68 fa 8a 3d 76 cb 84 3e f3 84 83 bd
       -0.26304778 0.067860425 0.25936478 -0.064218424
0002c0 69 af ab bd 05 69 74 3e 59 5a 80 be 45 30 c9 bd
       -0.08383066 0.23868187 -0.2506893 -0.0982366
0002d0 56 88 0b be c7 40 9f 3e fb e4 1b bd 01 ed 0b bd
       -0.13626227 0.3110411 -0.03806017 -0.03416157
0002e0 d0 8b b8 3d db eb 63 3d cc e4 0f 3d d7 fc d3 bd
       0.09011042 0.05564485 0.035130307 -0.1035096
0002f0 c2 a3 25 be b2 3c 24 be c6 74 26 3e 22 d3 1e bd
       -0.1617575 -0.16038778 0.16255483 -0.03877557
000300 83 2e 23 be dc 87 28 3e 8a 3f 83 bb 42 6e d7 3d
       -0.15935712 0.16458076 -0.004005377 0.10519077
000310 ea dc 8d be cf 59 70 3e c1 40 8f bd 6f 91 e2 bd
       -0.27707607 0.2347176 -0.06994773 -0.110628955
000320 08 02 43 bd 20 75 ba 3c 6b d6 a9 3e 6c 51 e8 bc
       -0.04760936 0.022760928 0.331714 -0.028359137
000330 8a 64 29 be 6b ac f9 bd 5c d5 8e be 7c 31 4d 3e
       -0.16542259 -0.12191089 -0.27897155 0.20038408
000340 a9 ac 0b 3d 1a 55 6e 3e ed ea 93 3c f6 b7 66 bd
       0.03410021 0.23274651 0.018056357 -0.056327783
000350 3d 0b c3 3d 97 a8 65 3d cb 94 11 3d 4b a9 0c bd
       0.09523628 0.056068983 0.03554229 -0.034341138
000360 69 82 3c 3e 97 b4 d7 be 53 44 30 3d de e2 8a 3c
       0.18409123 -0.42129967 0.04303391 0.016953882
000370 9d a6 78 be 45 5e 3a be 49 a9 fd bd 2f 72 05 be
       -0.24282308 -0.18200023 -0.12385804 -0.13031839
000380 be c8 3c 3d b7 ce 80 3b 74 f2 df bd e9 81 ef 3e
       0.04608988 0.0039308923 -0.10934916 0.467788
000390 3f 1e 30 3e 84 a1 51 bd 2f 26 5d 3c 45 7a cb 3d
       0.17199038 -0.051179424 0.013497873 0.099354304
0003a0 b1 20 52 3d f8 3d 52 3d 40 9a 34 bc fb c0 13 bc
       0.05130071 0.05132863 -0.011023104 -0.009018178
0003b0 39 ba 33 be 10 91 f4 be f9 00 11 3d 8b 27 84 bd
       -0.17551507 -0.47766924 0.03540132 -0.06452855
0003c0 4d 4d 64 3d 74 82 e9 bd e7 f0 59 bd f7 c6 a0 bc
       0.055737782 -0.11401835 -0.053208258 -0.019626124
0003d0 e1 ac 20 3e fb 64 99 3d d2 8b 46 3d c2 fb 26 3b
       0.15690948 0.074899636 0.048473187 0.002547965
0003e0 c7 6e c6 bc f9 f4 0f bd d1 68 8f bc b4 39 ab 3d
       -0.024222745 -0.035145734 -0.017506035 0.083606154
0003f0 ee 6f 03 be 07 5f aa be cd 8d a4 bd 6f d2 3e be
       -0.12835667 -0.33275625 -0.08034859 -0.18634962

fc2.bias f4 [9]
000000 01 4f fd 3c 08 78 22 3e d2 07 fa bc 54 11 f5 bc
       0.030921461 0.15866101 -0.030521307 -0.02991549
000010 3c 3e 3f 3f b9 aa c6 bb 2f fe da bc ae 52 83 bd
       0.7470434 -0.006062832 -0.026732532 -0.06412254
000020 4f 89 63 3e
       0.22220348
