models/tic_tac_toe_net_v2.pth (torch, 11489 bytes, 4 tensors)

fc1.weight f4 [128, 9]
00000000: aa4e ce3b a94b 043e 6c6e 1cbe 1ca5 b6be
00000010: 581c 2a3d 8dbc f8bd 53e1 88be f5ec af3d
00000020: a564 023f 1d21 73bb 48da 53be 74d4 13bc
00000030: 52bd 9c3e bacf ed3e ba08 3abe 8711 023f
00000040: 6131 23be f495 30be 42f3 eb3d 5e58 a93d
00000050: f1d8 32be bfb9 75be 8722 11be c1b0 29be
00000060: 05b4 883e c426 28bd a3cb 873d ffb4 413e
00000070: 43d3 0d3e 63b0 283e b450 34bc 8f35 2fbe
00000080: 5c79 c13e b01b ae3d f8f0 d33b d959 f2bd
00000090: a21b d9bd 9633 45be d6b5 f83d f3ce c03d
000000a0: 4d1c 9e3e 0f19 abbe 54f9 c33e fca4 c6be
000000b0: 4687 f4bd cd00 d1bd 1e43 343c 7166 9dbc
000000c0: d420 1dbe ba44 a93c b8d2 9dbd 641f 793e
000000d0: 4f85 6d3e 5838 dfbd 719d 2f3e 6a05 babe
000000e0: 948d bcbe 1487 31be 816d d33d c3de 1fbb
000000f0: 6d56 b9be a93b c8be aa4e ec3e fba7 c2be
00000100: cbf0 8a3e a342 c43d 9b78 8bbd 08f6 2ebe
00000110: cc40 7ebc 3c0a e7be 99f4 863e 758d c4bd
00000120: 8135 abbe 4887 7bbd 695a cabe 61d2 0cbe
00000130: d526 d4be 9f47 b33e 7486 d83c 1a91 86be
00000140: 42b8 63be 9f0a 8fbe 914c 42be 1fb5 1abe
00000150: a12f 0a3e f814 2d3e e163 2abd 3b2c bcbe
00000160: ec63 083e 85ef 013d 12bd 51be f8f5 ccbd
00000170: 208c 8dbe aad7 943e 002e 753e 0329 f7bd
00000180: 257c 25bf 74c7 13be 6605 7e3d 806e 03bf
00000190: 3dab 273e 65a8 063e 93ab dcbd f31f bbbd
000001a0: 1560 cb3d cba3 08be fad0 1fbd 7f7b b33e
000001b0: 7a6d 27be 03fe 323e 5647 1fbe 18a2 013e
000001c0: 1d17 e53e 31ec 33be f7ac 023e 3c03 d13e
000001d0: dada 45be d14a acbd 9cb3 b93d fa09 3bbe
000001e0: da56 e43e 5d0c a03e ee86 e1bc 5f84 d1bd
000001f0: a888 153f d063 7e3e bb30 553e b6b3 dcbd
00000200: 546d 233e a236 4abe c546 653d 2e58 98bc
00000210: 024b b43d 211c 2f3d 0423 22be 4de1 ab3c
00000220: b00d f53c 3ad9 9a3d ee3d 5d3e 8614 553e
00000230: 7d22 a53e 5018 7cbd 611c dbbd 77bb 693e
00000240: bd4d 9a3e f8fe c63e 732b b1be 2497 b3bd
00000250: 6ff5 44be 4f92 c2be 0567 2abe 75b1 0f3f
00000260: 0b21 a5be 2998 8ebc dbaa 32be a1e5 15be
00000270: 245a a13d ec58 4f3d e5b2 4fbe 21d1 73bd
00000280: 9581 663e c5d9 d4bd 23e5 393e 524c 6e3e
00000290: 8ac5 10be 1e7d 38be 619c f1be d363 8dbc
000002a0: b7b2 1bbe b483 1b3e 1fd6 0bbe 09ee fcbd
000002b0: a097 e4be e7c2 b1bd 35bf af3d 34f2 ac3e
000002c0: 3576 ab3c 276f 603c c387 bcbe 1106 16be
000002d0: 4c23 b8be 2e8a 213e e965 8b3d 2731 1dbd
000002e0: e777 6f3e a4fb ca3e 313f ea3c 418a 143e
000002f0: 4c94 cf3e 18f7 223b c292 65be 3946 92be
00000300: 4fba babe 3f7d a33b 8662 1ebe fed6 ba3e
00000310: 8816 1c3d 02c8 33be ddcc 94be 2e49 783e
00000320: 1dcf a7be 33ca a83e b9cf 293e 7226 24be
00000330: 7728 053d 64ea 203f ec3d 533e 59ee d9be
00000340: 6b6b da3d d89c 70be 2f05 e93d 13cb a3be
00000350: a475 913e 5fcd 32be 371c 33be 0ee4 74be
00000360: 7d2b 993e 3d1b 2dbd ffe1 46be 8bbf c93e
00000370: 3f5c ab3e a470 923e 425c cfbe 8025 4c3e
00000380: a9a8 96bc 5000 8fbc b72b 833e dc59 133e
00000390: 41b1 3bbe cf1c b7bd d0ca 873e 0044 a3bd
000003a0: 87d9 3b3e 9421 953d 0975 d53d 2151 ae3d
000003b0: 8eb5 26be b514 4e3e 4c75 7cbe c978 68be
000003c0: 5369 7abd 1fb4 8a3e 80e8 6b3d b9be 09be
000003d0: e437 5c3e b1df 48be 4e82 b2bd 729d adbe
000003e0: 7a60 2dbe d289 33bd b398 a2be aac3 a43e
000003f0: b592 93be 4a89 cbbd a112 12be 45ce 843e
0.0062959986 0.12919487 -0.15276498 -0.35672843 0.041530937 -0.12145338 -0.2673441 0.08590118
0.5093482 -0.0037098594 -0.20688736 -0.009022821 0.3061319 0.46447545 -0.18167391 0.50807995
-0.15936805 -0.17244703 0.11521007 0.08268808 -0.17465569 -0.23996638 -0.14173327 -0.16571333
0.26699844 -0.041052595 0.066306375 0.18916701 0.13850121 0.16473536 -0.011005569 -0.17110275
0.37787902 0.08501375 0.0064679347 -0.11833543 -0.10600974 -0.1925796 0.121440575 0.094144724
0.30880967 -0.33417556 0.3827616 -0.38797748 -0.11939864 -0.10205231 0.01100233 -0.019213887
-0.15344554 0.020662654 -0.07706207 0.24328381 0.23195384 -0.108994186 0.17149903 -0.36332256
-0.36826766 -0.17336684 0.103236206 -0.002439425 -0.3619875 -0.39108017 0.46153766 -0.38018784
0.27136835 0.095830224 -0.06810113 -0.17086041 -0.0155183785 -0.45124996 0.26358488 -0.09597293
-0.33439258 -0.06140831 -0.39522102 -0.13752128 -0.41435876 0.3501558 0.0264313 -0.2628258
-0.22238258 -0.2793779 -0.1897452 -0.15108155 0.13494731 0.1690253 -0.04159916 -0.36752495
0.13319367 0.031722564 -0.20482281 -0.10007852 -0.2764597 0.2907079 0.23943329 -0.12068369
-0.64642555 -0.14431554 0.062016867 -0.51340485 0.16373916 0.13150175 -0.10774913 -0.09136953
0.099304356 -0.13343732 -0.039017655 0.35055158 -0.16350356 0.1747971 -0.15554556 0.1265949
0.44744197 -0.17570569 0.12761293 0.4082278 -0.19321766 -0.084127076 0.09067461 -0.18265525
0.44597512 0.31259432 -0.02753016 -0.10230326 0.58411646 0.24842763 0.2081937 -0.10776465
0.15959674 -0.19747403 0.055975694 -0.018596735 0.08803369 0.042751435 -0.1583367 0.020981455
0.029913753 0.07560964 0.21605656 0.2080861 0.32252875 -0.061546624 -0.10698772 0.22825418
0.30137435 0.388664 -0.34603462 -0.08769062 -0.1923425 -0.3800225 -0.16640861 0.5613015
-0.32251772 -0.01740654 -0.17447989 -0.14638378 0.07878521 0.050621912 -0.20283087 -0.059525613
0.22510369 -0.10393099 0.18153815 0.23271301 -0.14137855 -0.18016478 -0.4718962 -0.017259514
-0.15204893 0.1518696 -0.136559 -0.12350089 -0.4464693 -0.08679753 0.08581392 0.33778536
0.020930389 0.013698376 -0.36822328 -0.14650752 -0.3596443 0.15775368 0.06806547 -0.038376953
0.23385583 0.39645112 0.028594585 0.14505865 0.4054283 0.0024866518 -0.22419265 -0.285692
-0.36470267 0.0049892957 -0.15467271 0.3649215 0.038107425 -0.17556766 -0.29062548 0.24246666
-0.32775202 0.32966766 0.16583146 -0.1603029 0.032509293 0.6285765 0.2062909 -0.42564657
0.106650196 -0.23497331 0.11377942 -0.3199087 0.28410065 -0.17461155 -0.17491232 -0.23915121
0.2991599 -0.042262305 -0.19422148 0.39403948 0.33468816 0.28601563 -0.40500075 0.1993618
-0.01839097 -0.017456204 0.2561929 0.14389747 -0.18329336 -0.08941042 0.2652192 -0.07971954
0.18344699 0.07281795 0.10422713 0.08511568 -0.16280195 0.20125087 -0.2465412 -0.22702326
-0.0611356 0.27090546 0.057594776 -0.13451661 0.21505696 -0.19616581 -0.0871626 -0.33909184
-0.16931334 -0.043832608 -0.31757125 0.3218053 -0.28822866 -0.09938295 -0.14264919 0.2593862

fc1.bias f4 [128]
00000000: 51d3 e3bd 2260 96be 3f48 89bb 46c2 8abd
00000010: 4782 f7be b277 b9bd a286 d1be db94 2b3e
00000020: a315 10be bbea e43d 4a78 ddbd 3f02 b7be
00000030: 8c6a be3d fdc4 1e3e 89d8 99be 9aa3 193e
00000040: 6d73 c3be 1412 34bd 70d7 fc3d 975f 9ebe
00000050: 4226 c5be 1056 96be 7dcc 70be 3875 84be
00000060: 66d1 42be 37ec 76bc 9bdc a8bd ae4e acbe
00000070: 0a29 2ebe bee3 9a3d ad1f c7be dcf3 a33e
00000080: 50ae 89be d506 15bf cbf0 e1be d7d9 263d
00000090: d666 27bf 4165 cbbe 53c0 15bf fb89 a6be
000000a0: 37c7 6fbe cac3 8fbe 5a28 6c3e 9ee2 77be
000000b0: 39c0 1a3d ea80 0cbe 14be 61bd 102b 50bd
000000c0: 2644 a9bd 6732 17bf 1936 1bbe 767a 4bbe
000000d0: 83f9 2e3e 06d1 0bbd cb85 943d df0c 10be
000000e0: e3e6 4c3e 18fd 26bc 1e10 81be 957c bebe
000000f0: 714a 223e a518 f93c 8b57 c93d 0e66 f1be
00000100: 9602 fbbd 69e5 973d aaf0 22bd 8168 503e
00000110: ed44 24be 79c2 7e3d 9c6b bcbe 6b29 8fbe
00000120: 0cc8 39bf b68a fcbe 28e9 b1bd 1eea 2cbe
00000130: f4dd 57bc d648 a6be 0f56 08be 3106 803e
00000140: c6d8 703c 6904 cfba d69d d4be f9d4 ddbe
00000150: 177a cebd f009 04bf 960d e53d 51b2 dbbe
00000160: cfdb 6dbd 3e75 26bf d42f f3bd aa57 a3be
00000170: f9ba a5be 9481 98be da53 3bbd e6d9 e6bd
00000180: 1788 f7bd 2681 40be f454 acbc 1919 203e
00000190: fd96 19be 91b1 8fbf 258a adbc 47dd b9be
000001a0: f591 963d aade f7be dcf9 433d e18b 0b3e
000001b0: 5a13 29be 5c52 e0bc 3ef7 b3be adc4 4d3d
000001c0: 9f93 f8be ae52 d5be 83a6 bebd af51 5bbd
000001d0: 5d08 acbd 1cfe e0be 17de 21be d92e a53d
000001e0: a4cf 92bd 1047 9439 fb9d 753d 527e f93c
000001f0: 2f04 32bb 3244 b43d ed23 dc3c c304 c93c
-0.1112429 -0.2937022 -0.0041895206 -0.06775336 -0.4834158 -0.09056033 -0.4092303 0.16756003
-0.14070754 0.11177584 -0.10813959 -0.357439 0.09297666 0.15504833 -0.30048016 0.15003815
-0.38174 -0.043962553 0.12345779 -0.30932304 -0.3850575 -0.29362535 -0.23515506 -0.2587068
-0.19025192 -0.015070966 -0.08245202 -0.33653778 -0.17007843 0.075629696 -0.38891354 0.32021987
-0.26890802 -0.5821355 -0.44129023 0.040735092 -0.6539129 -0.39725688 -0.5849659 -0.32527146
-0.23415838 -0.28079063 0.23062268 -0.24207541 0.037780974 -0.13721052 -0.055112913 -0.050822318
-0.082649514 -0.5906128 -0.15157355 -0.19870934 0.17087369 -0.034134887 0.072520815 -0.1406741
0.20009951 -0.010192178 -0.2520761 -0.37204424 0.1584871 0.03040726 0.098311506 -0.47148174
-0.122563526 0.074168034 -0.039780296 0.20352365 -0.16041918 0.062197182 -0.3680085 -0.27961287
-0.7257087 -0.49324578 -0.08687049 -0.16886184 -0.013175476 -0.32477444 -0.13314079 0.25004724
0.01470012 -0.0015794161 -0.4152667 -0.43326548 -0.100818805 -0.51577663 0.11184232 -0.42909482
-0.058070954 -0.6502265 -0.11874357 -0.3190282 -0.3236921 -0.2978636 -0.045734264 -0.112720296
-0.12086504 -0.18799266 -0.021036603 0.15634574 -0.14999004 -1.1226064 -0.021184037 -0.36301634
0.07352058 -0.48412067 0.047845706 0.13627578 -0.16511288 -0.027383022 -0.35149568 0.050236393
-0.48550126 -0.41664642 -0.09309103 -0.053544696 -0.08400033 -0.4394387 -0.15807377 0.08065576
-0.071685106 0.00028281705 0.059965115 0.030455742 -0.0027163138 0.0880207 0.0268726 0.024538403

fc2.weight f4 [9, 128]
00000000: 3003 223e 77ad dbbd 6cbb 033d fcf7 30bd
00000010: a156 66be 544f 4dbe 80f1 8fbe becb acbe
00000020: 017d 013e 8672 22be 0e44 993e 69fe 303e
00000030: 31ce 69be 8912 33be dee8 923c e58b 91be
00000040: 12e0 febe 7c5f 3cbe 30ff 733e 6500 fd3d
00000050: 5c43 12be 4f3b 8fbd a647 dd3e 191e 10be
00000060: 8b0a aebc 05ae 9dbe 1fb4 d3bd 72e0 403d
00000070: d84a 1ebd 5f33 c4bd 34ff 3bbd 6399 e53d
00000080: 4434 92bd aaa3 dcbd 77dd c8bd 29c9 353e
00000090: 9b2d babb 81f8 363e a3c9 39be 0a2d 063d
000000a0: 1be2 f73d 1b3d 9fbe 7d4b a1be 9da1 eabd
000000b0: 8d8f 2abe c770 b1bd 0ff9 8c3d 92fc 3e3e
000000c0: 46c4 f43d 6955 2b3e 6255 583e 3af7 cb3d
000000d0: e84a 0abd 68dc c63e 5f9a 383e 0549 523e
000000e0: 0458 6fbe 487d 39bd 99c5 c7bd 0121 553e
000000f0: 7630 2bbd 4d86 1a3e 0b21 533e 7669 963e
00000100: db68 1e3e 7bde b5bd ad09 c93c 4f7e 94be
00000110: 43e9 0a3d 9ec7 74be fe48 9b3e d5b2 3dbd
00000120: 155e 683e 46ee 233b a7b5 dcbd 821c 6e3d
00000130: cb8f 93be 5fc4 d13d 130d 67bc 6452 2a3e
00000140: 7fe0 073f f601 c1bd 83a3 083e 1b28 673e
00000150: 3ef1 debd dd3f 983d ea6c 863c 5650 7cbe
00000160: a8d5 c23b 65f4 313e 5b53 1ebd d60c 3d3e
00000170: f801 ddbe a133 0c3e 76ef 7d3d 6e5c aabd
00000180: bc3e bc3b 2277 64be 02aa 78be e03c f73d
00000190: ccd2 403e 019d 9dbe 0e77 203e b62d 86be
000001a0: 9986 5a3e 7ad7 13be 4021 9b3d 03ce 00be
000001b0: e5a2 993d 491f fabc a4f8 ef3e af78 b6bd
000001c0: 2f53 983c 6ace a4bd 3a46 b9bc 884c fdbe
000001d0: a763 aebe 560f ae3e 3efb ed3b 4b3b 3ebe
000001e0: 7219 cabe 2b48 433e 4877 cf3d 7d42 333d
000001f0: ae5f d6be fb11 6f3d b7da 833e 0bc4 cd3c
00000200: 3d51 e2bd c471 263c 3801 863d da1e 5b3d
00000210: f390 cdba 3d49 14be eaf6 43bd 718a 67bb
00000220: bae8 10be 0e63 dabd e789 373c 6aec c9bd
00000230: 7130 543d 0ff8 f53c b1cf cf3c 8b97 733e
00000240: d7f5 0bbd 4e7c f03c 5513 b03d b03e 723b
00000250: b54d 6f3d eb2a 8bbc a027 d7bd d000 4bbd
00000260: a090 09bd 1604 8ebc 3ad1 0dbe 7f7d 4d3c
00000270: 9f96 d93d 5084 9f3d fa61 2abd 1cb5 d13c
00000280: 593d d2bd de3a f33d 57c2 15bd accc 82bd
00000290: 1af0 95bc eab3 7c3e e9ac d6bc 0758 ab3d
000002a0: ed6f dbbd 29b4 173e 2f70 303d d3b3 bbba
000002b0: 2688 973d 00ec f33d 758a 86bb b482 ebbc
000002c0: 6e0e 0dbd 2855 a1b9 3032 9b3d e98c 87bd
000002d0: fdfa 3ebc c18a fc3b 6e9b d43c baf1 903d
000002e0: 182e 34bd adb9 b5bc 2767 c83d 2a02 e3bc
000002f0: 4016 80bd 9da8 6dbe 7c6b 533d 402d 5b3d
00000300: 0f7b 533c eeb2 2b3d 5853 01bc 892d 03bd
00000310: 861c a6bc 3390 c5bd 03aa b5bd d196 e5bc
00000320: e338 d03c 25e4 b33d 58fa 0c3d cc2b f9bc
00000330: c0e1 893d aefd bc3c 7bd5 7a3c 9579 3a3c
00000340: 6d5e 3b3d 827b cf3c 74ae 483d 10cb 69bd
00000350: 792d f8bb f75a 713d d81c 32be 390c c0bd
00000360: 3495 1c3d adb1 3dbd 3427 d2bd 6bb2 82bc
00000370: 0fb8 a83d 8352 99bd 95f3 c83c e98e 1f3d
00000380: 1af5 733d 54c1 583d a375 f53d eb94 c1bd
00000390: daff 29bd 8a2f 833f 2bc6 e33d 4e14 3d3c
000003a0: 4ae1 333e 83dc 90bc a2b5 cfbd 1721 263c
000003b0: 8fc3 6e3d c785 3f3c 180b 09be 918d 793d
000003c0: 9adb d83d fe3f 33bd 4b24 363d 4ff5 7c3d
000003d0: 9992 fdbd 22b6 8dbb a89e 49bd 670e 38ba
000003e0: 447a 24bd 7980 b3bd c0bc b0bc 6c6b 3ebd
000003f0: 8399 4a3d 301c ba3c 681f ecbb 694c 2abe
0.15821528 -0.10726445 0.03216116 -0.043205246 -0.22493984 -0.20049793 -0.28113937 -0.33749193
0.12645341 -0.15864 0.29934734 0.1728455 -0.22832562 -0.1748754 0.017933305 -0.28427044
-0.49780327 -0.183958 0.23827815 0.12353591 -0.14283508 -0.06993734 0.43218726 -0.14073981
-0.021245262 -0.3079683 -0.1033709 0.047089048 -0.038645595 -0.09580111 -0.045897678 0.11210897
-0.07138875 -0.10773404 -0.09807866 0.17752518 -0.005681706 0.17868234 -0.18143325 0.032757796
0.12103673 -0.31101307 -0.31502905 -0.114566065 -0.16656323 -0.08664089 0.06883442 0.18651035
0.11951499 0.167318 0.21126321 0.09959264 -0.033762842 0.38840032 0.18027638 0.20535667
-0.23373419 -0.045285493 -0.09754486 0.20813371 -0.041794263 0.15090294 0.20618074 0.29377335
0.15469687 -0.088803254 0.024540747 -0.29002616 0.033913862 -0.23904273 0.30329126 -0.046313126
0.2269214 0.0025013848 -0.10776835 0.058132656 -0.28820643 0.10242533 -0.014102238 0.16632992
0.5307693 -0.09424202 0.13343625 0.22573893 -0.10885857 0.07434056 0.016409356 -0.2464002
0.00594588 0.17378385 -0.038653713 0.18461928 -0.43165565 0.1369157 0.061995946 -0.08318411
0.005744783 -0.2231107 -0.24283603 0.12072158 0.18830413 -0.30783847 0.15670416 -0.2620675
0.21340407 -0.14437667 0.07574701 -0.12578587 0.07501773 -0.030532496 0.46869385 -0.08909737
0.018594353 -0.08047183 -0.022616494 -0.4947245 -0.34060404 0.33996075 0.0072626164 -0.18577306
-0.39472538 0.19070499 0.10130173 0.04376458 -0.41869873 0.058366757 0.25752804 0.025117895
-0.11050651 0.01015896 0.06543201 0.05349622 -0.0015683457 -0.14481063 -0.047842897 -0.003533032
-0.14151278 -0.106634244 0.011202312 -0.098595455 0.05180401 0.03002551 0.02536759 0.23788278
-0.034169998 0.029356148 0.08597437 0.0036963634 0.058423717 -0.016988238 -0.10505605 -0.04956132
-0.03358519 -0.017335933 -0.13849345 0.012542128 0.10624432 0.077889085 -0.041597344 0.025599055
-0.102656074 0.118764624 -0.03656229 -0.06386694 -0.018302966 0.24678007 -0.026205497 0.08366399
-0.107147075 0.1481482 0.043075737 -0.001432056 0.07399015 0.11910248 -0.004105861 -0.028748848
-0.03443759 -0.0003077176 0.07577932 -0.06618673 -0.01165652 0.0077069704 0.02595302 0.07077356
-0.04398927 -0.022183264 0.097853 -0.027710993 -0.06254244 -0.23208852 0.051616177 0.05350995
0.012907757 0.041918688 -0.007893406 -0.032025848 -0.020277273 -0.096466444 -0.08870318 -0.028026016
0.02541775 0.087837495 0.034418434 -0.030416392 0.067325115 0.023070183 0.015309687 0.0113815265
0.04574435 0.025327448 0.048994496 -0.05707842 -0.00757378 0.05892464 -0.17393816 -0.09377331
0.03822823 -0.046312023 -0.10261384 -0.015954217 0.082382314 -0.07486441 0.024530211 0.03895465
0.05955992 0.052918747 0.11985328 -0.09452232 -0.041503765 1.0248883 0.11121782 0.011540486
0.1756641 -0.017683273 -0.101420656 0.010139725 0.058291968 0.01168961 -0.13383138 0.060926024
0.10588761 -0.0437622 0.044468205 0.061757382 -0.12381477 -0.0043246904 -0.049223572 -0.0007021189
-0.040155664 -0.087647386 -0.021574378 -0.046489164 0.049462806 0.022718519 -0.0072058924 -0.1663071

fc2.bias f4 [9]
00000000: d267 c43e e4a8 9abb 2680 133f 89f3 b1bb
00000010: 1734 65bd a171 95bd beab d73d 7b2c 8dbc
00000020: 2f3c a03d
0.3836046 -0.0047198404 0.57617414 -0.005430643 -0.05595788 -0.072970636 0.10530804 -0.017233124
0.07823979
