models/tic_tac_toe_net_v4.pth (torch, 11489 bytes, 4 tensors)

fc1.weight f4 [128, 9]
00000000: 0cac bdbe bfa5 f93d 7dfd 013f d055 513e
00000010: 2305 013e 4151 753e 8a7f 9d3e afd8 f33c
00000020: 6870 13be 4a89 8e3e 1f67 c03e ec46 b1be
00000030: dc52 823c 9d05 7a3d bb9e c4be ead8 f93c
00000040: 25b0 07bc 9119 e1bc 49bb 5abe 13de 633e
00000050: 41a6 523d b236 c1be aa79 173e 7cfb 4abd
00000060: d55d b53e 1220 d03e 4ba2 a4be 7cad 62bd
00000070: 3ee2 233e 1e7c 903e 0de2 773e 79bf 9ebe
00000080: c50a 643c fc28 58be a248 723d c83c 1fbe
00000090: b8c3 82be 6584 97be 0102 ba3e 978d 133e
000000a0: 4e29 3b3e bee9 383e cb84 173e f178 123e
000000b0: 3f9c f439 dccc a73d 0346 cebd ff80 26be
000000c0: bc46 ac3e e7bb 413e 4a23 963d 0b01 c8be
000000d0: a192 1f3e 4a28 8abe 037d 8a3c e3c2 abbe
000000e0: 3f48 a8bc 3fc5 8c3d b786 2dbd c988 c73d
000000f0: cb6e 0b3e af09 053e 21fd 68be 49c4 c13e
00000100: 53e2 7a3e 65ee 1c3e bee8 3b3e 1865 013e
00000110: 8b20 7e3e a2a1 1d3d 61ec 8fbe d43f c7be
00000120: bf4c e3bd 2990 0bbe 31ab 093e e32c b43e
00000130: 6868 113e 5e10 3d3e 8e37 97be e750 25be
00000140: 56f1 e2be a7d9 4e3e 4eb8 24be 71eb eabd
00000150: d24d 2c3e d870 dd3d 67ba 493e c131 653e
00000160: e24e f63d df23 4f3b 9a06 f1bc bebd 3bbc
00000170: a83e 033f a865 8c3d 040a 763e 51dd 12bd
00000180: 3f94 52be be89 ab3e 7d99 e53e ed72 253d
00000190: 828e a8be eebe 75be 5921 06bd c56e 3a3d
000001a0: 119e f23d 74a5 34be 5b46 8e3e 8c42 603e
000001b0: 61b8 0bbf 49f4 e33d ac5e 58be 2a82 433d
000001c0: f423 d43d 817c 8bbd fa6d 843e 1024 dc3d
000001d0: e746 03be eb5e a7be 8648 ce3e 86ec 24be
000001e0: bd96 66bd 4615 c83d 4212 dbbd 5244 56be
000001f0: 84e0 92be 0a86 6f3e 86d8 ccbe d4c7 5b3e
00000200: c72e cebd c9ac 593d fe4e 98bc 757d fa3c
00000210: a5dd c93d 363e 2d3e 167a b3bb 9d76 82bd
00000220: 7cb8 f53e 99f1 b7be 6574 21be 4198 d03e
00000230: 7213 9cbe 4939 d3b8 67d0 39be 5448 063e
00000240: cdb3 80bd 14ff eebd d67c a5bd c42d ce3e
00000250: 77ac 583d e859 5cbe 36c5 56be 0aff 463d
00000260: 27e9 7d3c 0217 a23e 8b70 263e 74d2 e8be
00000270: 6365 f43e 433f b8bd 29c9 26bc 95b7 babc
00000280: 84da 0fbd 1eee 153d 3b98 afbe 0691 84be
00000290: 0224 8e3d c798 86be c663 05bf 695a 1a3e
000002a0: 8133 53be 91cb 4dbd 34c5 993e 8f16 fa3d
000002b0: efaa 05be 317e c33e f333 4d3e c1b5 8c3e
000002c0: 7d82 a8be 3355 2a3d 1349 a1be 0e98 81bd
000002d0: 4496 a2be 4099 debe 14f3 e03e d63a 1abe
000002e0: 9ac8 6d3d 8b97 a8be 4659 ec3b d427 8bbc
000002f0: df6a e43e eb52 573e 9233 773e 75ad 61be
00000300: b74c 3fba 6b4a 143d 1f65 6a3d 8a41 f5bd
00000310: 78f7 86bd eb3a 40bd 7c63 1b3f ae8f 61bd
00000320: b843 1dbe 9606 833e 4d4a 75bd 1190 dcbd
00000330: 0f7a 4e3d a107 d83d 58d6 bdbd ed6c 143f
00000340: 25a4 92be 34be 5dbe ffce 9a3e 0c18 2b3e
00000350: 08e0 03be 7e2f c43d 234c be3e 3826 e5bd
00000360: 2723 08bd cf0b 583e 6c59 93be 9d07 8bbe
00000370: 911e 773e 168d ebbd fd3d 45be dcdb 903e
00000380: bfb8 27bf eb3d 23be 3f9e 05be 2542 42bd
00000390: 6165 353e 3f6e 2e3e b9e2 3c3d dd1e 7a3d
000003a0: c22e 91be 6b8b 8dbe ccc8 943d bf7b fbbd
000003b0: 1b88 e3be 54a8 af3e bc18 00be 0131 c1bd
000003c0: ef76 943e d95a cf3e eb2e 2fbe cc00 7cbd
000003d0: 3796 6bbe 561a a83b 8281 b13e 3281 813e
000003e0: ee55 aabe 74b9 5a3e c681 42be ac36 953d
000003f0: a411 9cbc a85c 08be d248 aa3e c99c b43e
-0.37045324 0.12189817 0.5077742 0.20442891 0.12599616 0.23956777 0.30761367 0.029766409
-0.14398348 0.27839118 0.37578675 -0.34624422 0.015908651 0.06104051 -0.38402352 0.03049894
-0.008281742 -0.027478011 -0.21360506 0.22252683 0.051428083 -0.37737042 0.14792505 -0.04955624
0.3542315 0.40649468 -0.3215507 -0.05534123 0.16004273 0.28219694 0.24207325 -0.31005457
0.013918583 -0.21109384 0.0591513 -0.1555053 -0.25539947 -0.29593197 0.36329654 0.14409481
0.18277475 0.18057916 0.1479675 0.14303948 0.0004665572 0.08193371 -0.100719474 -0.16260146
0.33647716 0.18919335 0.073309496 -0.39063296 0.15583278 -0.26983863 0.016905313 -0.33547124
-0.020542262 0.06873559 -0.042364802 0.097428866 0.13616483 0.12991975 -0.22752811 0.37845066
0.24500398 0.15325315 0.18350503 0.1263622 0.24817102 0.038484223 -0.2811003 -0.38915884
-0.110986225 -0.13629211 0.1344421 0.35190496 0.14199984 0.18463275 -0.29534572 -0.16144143
-0.4432475 0.20200215 -0.16085932 -0.11470688 0.16826561 0.10812539 0.19700013 0.22382261
0.120267645 0.0031607074 -0.029422093 -0.011458812 0.5126748 0.06855327 0.24027258 -0.035855595
-0.20564364 0.33503526 0.44843665 0.040392805 -0.32921225 -0.23998615 -0.032746647 0.045515794
0.11846555 -0.1764124 0.27788052 0.21900386 -0.54578215 0.11130578 -0.21129864 0.047731556
0.1035842 -0.068108566 0.25865155 0.10749066 -0.12820016 -0.32689604 0.40289706 -0.16105852
-0.0562961 0.097696826 -0.10696842 -0.209245 -0.28686917 0.23390976 -0.40008944 0.21462947
-0.10067516 0.053143296 -0.018592354 0.0305774 0.098567285 0.16918263 -0.0054772003 -0.0637028
0.47992313 -0.35926512 -0.15767057 0.4074116 -0.30483586 -0.00010071934 -0.18145905 0.13113528
-0.06284294 -0.11669746 -0.08080451 0.4026929 0.05289885 -0.21518672 -0.20973668 0.048583068
0.015497482 0.3165818 0.16253869 -0.45473063 0.47733602 -0.08996441 -0.010179796 -0.022792617
-0.035120502 0.03660404 -0.3429583 -0.25891894 0.06940462 -0.26288435 -0.5210537 0.15073551
-0.20625116 -0.050242964 0.30033267 0.12211334 -0.13053487 0.38182214 0.20039348 0.27482417
-0.32912055 0.04158516 -0.31501064 -0.0632783 -0.3175527 -0.43476295 0.43935454 -0.15061507
0.058052637 -0.32928118 0.0072127907 -0.016986765 0.44612786 0.21027724 0.24140766 -0.22038825
-0.0007297503 0.036203783 0.057225343 -0.11975391 -0.0659017 -0.04693119 0.60698676 -0.055068664
-0.15357864 0.25590962 -0.059885312 -0.10769666 0.050409373 0.1054833 -0.092693985 0.5797871
-0.28640857 -0.21654588 0.3023605 0.16708392 -0.1287843 0.09579371 0.37167463 -0.1118893
-0.03323665 0.21098255 -0.2877916 -0.27154246 0.24132754 -0.115015194 -0.19261928 0.2829274
-0.65516275 -0.15941589 -0.13048647 -0.04742636 0.17714454 0.17034243 0.046114657 0.06106459
-0.28355986 -0.2764543 0.072648615 -0.12279462 -0.44439778 0.34308112 -0.12509435 -0.09433175
0.2899699 0.40499 -0.17107742 -0.061524197 -0.23006521 0.0051300926 0.3466912 0.2529388
-0.33268684 0.21359807 -0.18994817 0.072858185 -0.01905138 -0.13316596 0.33258682 0.35275868

fc1.bias f4 [128]
00000000: af6f b7be a8d3 c2be 9eef c9be f3ad c0be
00000010: e7c5 44be ddcb dcbd 6d9d a2bd 4dd7 08bf
00000020: 107f 5d3d 06da 56bd fc8e 9abe 8617 edbd
00000030: 3abf 173e b7de 72bd 71c2 3b3d 3a5a 1dbb
00000040: 1af2 01bd 0d34 b0bc a0ea 36bf 72d5 ffbd
00000050: c271 02be a5b2 7bbd 0dc1 6cbe 8ce1 f9be
00000060: f718 e73b 921a 0cb9 d448 9fbe bf01 a73d
00000070: a8b0 483e 0745 cebe f8a0 c5be 47ad ac3d
00000080: c4c4 00be 22aa fdbc 38f7 e3bd 10d1 e53c
00000090: 8faa 82be db5c 86be 5a2d dfbe cda7 913e
000000a0: d6a0 c13d 1242 0ebf 3eaa dcbe fd12 453e
000000b0: 5715 8dbe 9ad7 82be 39fd 82bd b856 233b
000000c0: f6d5 44be 18ed 3d3c c204 9fbe c08c 8dbe
000000d0: 21e4 06be 737f ecbd db6a dfbc b4fa d0be
000000e0: 21cd a5be a6da adbe a7a2 133e 7dd9 b1bc
000000f0: 77b4 bbbe c226 aabe 881d b3be 110b d0bd
00000100: 88bd 09bf b60a 10bf d9a8 c1bd 072b 42be
00000110: a961 17bf c8c5 1ebe e3f7 bdbe b41c d8be
00000120: 29e0 c2be a05f 253d e35e e8be c1cc 66be
00000130: 44dc cf3d 5c1a 35be 45dd 9e3d 7b99 023d
00000140: 119b fc3d 42a9 0a3e 8b11 90be 5e43 c43d
00000150: 3cf6 1cbe 16d3 eb3c 31f2 a2be 7a17 1abe
00000160: 802e e7bd 03fd 86be 47aa 093e 5ff2 b73d
00000170: 56ef 54bc 4e02 b6be e366 323d a694 f0be
00000180: 94c3 e6bd 8b8b 54be 35ee 35bf 4f20 e0be
00000190: 4146 d3be 0821 833d f666 3bbe 0669 98bf
000001a0: 91e8 8bbe df7f 7fbb d403 063d aba9 d53d
000001b0: 5d4c 993d 5839 683d 8a10 68be 7a40 b3be
000001c0: 9c55 0bbf 7268 9c3d 4f10 10be 5f16 ca3d
000001d0: eeae 13bf 5c24 1e3e b81d a9be 29e3 25be
000001e0: 0ac9 78be 3a62 35be 57b4 89be 100d 1b3e
000001f0: 429f 21bf aa56 563e 3a0f 66be 8535 82be
-0.35827395 -0.38052106 -0.39440626 -0.37632713 -0.19216119 -0.10781071 -0.07940183 -0.5345352
0.054076254 -0.052454017 -0.30187213 -0.11576752 0.14819041 -0.05929443 0.04583973 -0.0024010078
-0.031725027 -0.021509195 -0.7145176 -0.12491883 -0.12738708 -0.061449666 -0.23120518 -0.4880489
0.0070525366 -0.00013361339 -0.3111025 0.0815463 0.19598639 -0.4028704 -0.38599372 0.084314875
-0.1257506 -0.030964915 -0.111311376 0.02805379 -0.2552075 -0.26242718 -0.43589288 0.28448334
0.09454505 -0.55569565 -0.43098634 0.19245525 -0.27555344 -0.25555116 -0.06395955 0.0024923515
-0.19222245 0.011592172 -0.31058317 -0.27646446 -0.13172962 -0.115477465 -0.027272632 -0.4081627
-0.32383063 -0.33955878 0.14417516 -0.021710152 -0.3666112 -0.33232695 -0.34983468 -0.10158361
-0.53804827 -0.56266344 -0.09456033 -0.18961726 -0.5913339 -0.15505135 -0.37103185 -0.422094
-0.38061646 0.0403744 -0.45384893 -0.22539045 0.10149434 -0.17685837 0.077570476 0.03188465
0.12334264 0.13541129 -0.28138384 0.09583162 -0.15328306 0.028787177 -0.31825402 -0.15048018
-0.11288166 -0.26364908 0.13443862 0.089817755 -0.012996515 -0.35548633 0.04355515 -0.4698841
-0.11267772 -0.20756356 -0.710666 -0.4377465 -0.41264537 0.064027846 -0.18300995 -1.1907051
-0.27325872 -0.003898613 0.032718495 0.10432752 0.07485268 0.056695312 -0.22662559 -0.3501013
-0.54427505 0.07637109 -0.14068721 0.09867548 -0.57688797 0.15443558 -0.33030486 -0.16199936
-0.2429544 -0.17713252 -0.268954 0.15141702 -0.63133633 0.20931497 -0.22466746 -0.25431457

fc2.weight f4 [9, 128]
00000000: 5db9 2e3d efe4 96be 9d56 943e 4109 28be
00000010: d4d5 383e 9c8d 87bd 47ec 123e a2c7 3dbe
00000020: 66a9 60be 8926 583d bb40 87bd 3775 91be
00000030: 7950 e9bd ed16 403e bd57 3ebd 64ca 93bc
00000040: 89cf 103b 7722 2a3e fa04 e1bc caf7 953d
00000050: 2262 a33e aaac 193d 462e 4b3e e62c f7be
00000060: 7597 90be 83ee 6ebd 8a0c 183d 7e28 23be
00000070: 111f 3bbd a651 42be 950a 4d3e 0245 f43d
00000080: 3a0a 3e3e ae78 323e ab83 6c3e ffe6 853e
00000090: 5ab4 c2bc 318d 79bd 3f94 1d3d a5a2 ebbe
000000a0: 8924 a1bd 08b3 5f3e d39c 533e fc04 f33d
000000b0: 5374 6d3d c0c6 263e 49d2 d5bd b023 9c3e
000000c0: c6fd a73c b3bd 34be 0c30 08bd 68f7 ce3d
000000d0: aa13 7abe ac20 013e 6b3d 2b3e 5df3 1d3e
000000e0: 2c76 01be 7cf8 06be 98ea 07bd bff8 e2bc
000000f0: 53dc e3be c2eb 27be 3894 d03d fd0c 2e3e
00000100: a3d9 a4be 5ca4 483e 9d80 adbe ece2 223e
00000110: e0fc e1be 0caf 9bbd 52e6 333d f9e7 5f3e
00000120: e348 2dbc c46e 9f3d c993 243d 6e5a 463e
00000130: 9387 9a3d 2048 32be 05af 07bc 5c1c 1ebd
00000140: 0ff6 f53d 1f91 20be 3a3e 1dbe 7bf0 1e3e
00000150: 1e91 dcbd dfb6 48ba 128f 433e c0a5 cc3d
00000160: f1cb 203e 83aa 8c3d 76dc 143d 1c6a 2d3e
00000170: 719a efbd 2f53 92bb 42cd 98be 8db9 e2be
00000180: 683a 9ebe 7d52 c93e 6186 c2be a44f c5be
00000190: af3e b8bd 0bce 903e db55 73be 94fc e83d
000001a0: beb2 2b3d caf8 50be afa3 b2bd 7351 12be
000001b0: d854 8b3e bfa6 aa3d 343e 893e 9050 b73e
000001c0: 59fd e23d a400 ad3d 53a6 ed3d 5d8b 463e
000001d0: 0841 88bd ce63 203e 0bb9 cabc f5b5 a13e
000001e0: d626 50be 89e5 003e 064d 34be 1e54 67be
000001f0: 4765 11be 2b94 67bd cc35 533e 56b8 77bd
00000200: ae37 8abc b2d4 71bd 6f82 b03d bc31 3f3e
00000210: 671e 163e 43f6 143d 2f4d 833d b1df 12be
00000220: 1ecc dcbd 2f1f 053d 0a9f 7d3d 6964 5a3e
00000230: 0fdf d13d 3976 a93d 6417 a43d 9016 6c3e
00000240: 11b3 c0bb b425 bebd 343c a7bc b985 8abb
00000250: fae9 e43d 8196 3d3e a013 35be 5ad5 093e
00000260: fc31 5f3d c6b7 dbbc 1d85 363e d952 0c3e
00000270: 57dc a3bd e3f5 f23d e8a8 073e dca7 cb3c
00000280: f0ab aa3e 1538 24bd 8b17 47bc 5996 f93c
00000290: bf67 bcbc 07f0 fabd d8d1 cc3c b9c7 b1bd
000002a0: 4ba7 293d cba0 163d 259b 56be 1e99 563d
000002b0: 9028 c23e 21e6 12bd 633e 61bd 7882 e8bd
000002c0: b6e4 36bb 64a6 60be f765 63be 39fa 9a3d
000002d0: 79db d2bd f23c b8be ece7 083e ab85 d2bc
000002e0: 8aeb 323e 8901 44be 597d c1bd 712b d13c
000002f0: 86e6 d7bd cb79 ad3d 247f 7ebe cb9e 85be
00000300: cbf9 2ebe ab38 0f3d 59cb b3bd 6a90 d4bd
00000310: 36fe 2b3d 28c8 433e b7cb a9bd 5cde 27be
00000320: 510d d8be 3f0d e33b 28ac 93be c2eb 423e
00000330: a646 843d 81f0 5d3d da83 da3c e34f 763e
00000340: b188 b4bb e239 5a3d 3a52 373c ebf1 d5bd
00000350: dc42 a7bd f5b5 91bc d035 de3d 7d40 283e
00000360: 1507 c7bd 1cdd d1bd 3652 e33d fff1 c8bd
00000370: 5763 19be 31b6 643a 9236 793d 3d21 bbbd
00000380: 606f a6bd 9a4c bcbc 107d 70bd 414a 343d
00000390: cf42 02be 9ae9 f63c 6d28 793d 52ec 393d
000003a0: a72d 13be 08a9 2d3e e92d 1b3e c88b 1cbe
000003b0: 88f7 9dbd e42c e8bc 789e 083d 5c92 45be
000003c0: f3b9 513d f635 1f3c c539 7cbd ae3e a9be
000003d0: 989a fb3a 92c4 82be d229 923d 6327 d6bd
000003e0: 4c63 3ebe 5179 123d de9e 28bd a72f 343e
000003f0: 19b0 83bd 8c97 c0bc dac6 463e c357 4c3d
0.042657245 -0.29471537 0.2897233 -0.1640978 0.18050319 -0.06618807 0.14347945 -0.18533185
-0.2193962 0.052771125 -0.06604143 -0.2840974 -0.11392302 0.18758745 -0.046470392 -0.018040843
0.0022096357 0.1661471 -0.027468193 0.07322653 0.31910807 0.03751818 0.1984187 -0.48276442
-0.28240553 -0.05833293 0.037121333 -0.15933415 -0.045683924 -0.18976459 0.20023568 0.11927225
0.18558589 0.17428848 0.23097102 0.261528 -0.023767639 -0.060925666 0.038471457 -0.46022525
-0.07868297 0.21845639 0.20665292 0.11866185 0.057972264 0.16286755 -0.10440499 0.30495977
0.02050675 -0.1765049 -0.033248946 0.10105783 -0.24421564 0.1261012 0.16722648 0.15424867
-0.12642735 -0.13180727 -0.03318271 -0.027706502 -0.44504032 -0.16398528 0.101845205 0.16997142
-0.32197294 0.19593948 -0.33887187 0.15906876 -0.4413824 -0.07601747 0.043920822 0.21865834
-0.01057646 0.07784799 0.04018 0.19370434 0.0754539 -0.17410326 -0.008281474 -0.038601264
0.120098226 -0.1568036 -0.15355769 0.15521424 -0.107698664 -0.00076566444 0.19097546 0.09992552
0.15702797 0.0686846 0.03634306 0.16935009 -0.11699379 -0.0044654827 -0.298441 -0.4428219
-0.30903935 0.39320746 -0.37993148 -0.38537323 -0.08996331 0.28282198 -0.2376322 0.113763005
0.04191851 -0.20407405 -0.087226264 -0.14288883 0.27213168 0.083325855 0.2680527 0.35803652
0.110834785 0.08447388 0.116039895 0.193891 -0.06653029 0.15663072 -0.024746438 0.31584135
-0.20327315 0.1258756 -0.17607507 -0.22590682 -0.1419879 -0.05653779 0.2062599 -0.06047853
-0.016872253 -0.059040733 0.08618628 0.18671316 0.14660035 0.036367666 0.06411206 -0.14343144
-0.1078112 0.032500442 0.06191925 0.21327366 0.10247623 0.08274502 0.08012274 0.23055482
-0.0058807214 -0.09284535 -0.02041445 -0.0042273668 0.1117744 0.18514444 -0.17683268 0.13460293
0.05449103 -0.026821028 0.17824216 0.13703479 -0.08001011 0.118633054 0.13248026 0.024860315
0.33334303 -0.040092546 -0.012151609 0.0304672 -0.022998689 -0.12252813 0.025002405 -0.08680672
0.04141931 0.036774438 -0.2095762 0.052392118 0.37921572 -0.035864 -0.054991137 -0.1135301
-0.0027907318 -0.21938473 -0.22206865 0.075672574 -0.10295767 -0.35983998 0.13369721 -0.025698503
0.17472664 -0.1914121 -0.09447736 0.02553341 -0.10542016 0.08470496 -0.24853188 -0.26097712
-0.17087476 0.034966152 -0.0877902 -0.10379107 0.04199048 0.19119322 -0.08290809 -0.16393417
-0.4219766 0.0069290693 -0.28842282 0.19035247 0.064587876 0.05418444 0.0266742 0.24053912
-0.005509459 0.053277858 0.011189038 -0.10446533 -0.08167049 -0.01778696 0.10850108 0.1643085
-0.09718148 -0.102472514 0.11099665 -0.09811782 -0.14979301 0.00087246584 0.060843058 -0.09137199
-0.08126712 -0.022985745 -0.05871302 0.044016127 -0.12720798 0.030140687 0.06082957 0.04539139
-0.14372884 0.16959012 0.15154232 -0.15287697 -0.077132285 -0.028341718 0.033354253 -0.19294113
0.051202726 0.009717455 -0.06157853 -0.33055633 0.0019195853 -0.25540596 0.07136883 -0.10456731
-0.18592566 0.035760228 -0.041167133 0.17596303 -0.06430072 -0.023509763 0.19411793 0.049888384

fc2.bias f4 [9]
00000000: 9d8f b83d 26cb c93d 57ae 4a3e fa31 2ebd
00000010: 71d0 50bd 4757 0f3f c33e 923e c6ec fdbc
00000020: e64e aabd
0.09011767 0.098532006 0.19793068 -0.04252813 -0.050980035 0.5599255 0.28563508 -0.030996691
-0.0831583
