models/tic_tac_toe_net_v6.pth (torch, 11489 bytes, 4 tensors)

fc1.weight f4 [128, 9]
0	0xbea41c1d	-0.320527
1	0xbd8c05f7	-0.06837075
2	0x3e8f23f3	0.27957115
3	0xbdeca80f	-0.11555492
4	0x3e9cb7fd	0.30609122
5	0x3ccda98f	0.025105266
6	0x3ca34e57	0.019934816
7	0xbdb0c482	-0.08631231
8	0x3e381c86	0.17979631
9	0x3dee631a	0.11639996
10	0xbe2d05cf	-0.16896747
11	0xbdadacbc	-0.08480212
12	0x3e119696	0.142176
13	0xbe841977	-0.25800678
14	0x3e9bd13c	0.3043307
15	0x3efaa641	0.48954967
16	0x3d7bf368	0.061511427
17	0x3cb1e06b	0.021713456
18	0x3e63f7e0	0.22262526
19	0xbd7bda09	-0.06148723
20	0x3e433fc2	0.1906729
21	0xbd41fae9	-0.047358427
22	0x3e6781fe	0.22608182
23	0x3e9858ed	0.29755345
24	0xbc986b0e	-0.018605735
25	0xbe02b7de	-0.12765452
26	0x3e097926	0.1342512
27	0x3d61a19e	0.05508577
28	0xbe74b1f7	-0.23896013
29	0xbe5fb8f5	-0.218479
30	0x3d8ec229	0.06970627
31	0x3d97c1dc	0.074100226
32	0x3ea88a05	0.329178
33	0xbeaf608d	-0.3425335
34	0xbe3a1727	-0.18172894
35	0x3d90b96f	0.07066619
36	0x3e120a73	0.14261799
37	0xbd8d1d95	-0.06890408
38	0xbe31b6b6	-0.17354855
39	0xbe29309d	-0.16522451
40	0x3dd7e3d1	0.105414994
41	0xbeb41fbe	-0.35180467
42	0x3e9c1e36	0.304918
43	0xbe9d7697	-0.3075454
44	0x3e09493f	0.13406847
45	0x3d89406d	0.06701741
46	0xbe4a08cf	-0.19729923
47	0xbe6e5214	-0.23273498
48	0x3d75a496	0.059971415
49	0xbd2d6e12	-0.0423413
50	0x3ebb3b2b	0.3656858
51	0x3e2b65c7	0.16738044
52	0x3e2b8175	0.16748603
53	0xbea7561c	-0.32682884
54	0x3d375db5	0.0447671
55	0xbe38c049	-0.18042101
56	0xbda96912	-0.08271994
57	0x3c28f606	0.010312563
58	0xbe2f2d5d	-0.17107148
59	0x3dc878bc	0.09788653
60	0x3de10612	0.10987486
61	0x3d1fda07	0.039026286
62	0xbe227a1c	-0.15866894
63	0xbe25e172	-0.16199282
64	0xbdbceb96	-0.09224622
65	0x3ee66105	0.44995895
66	0xbd753e32	-0.059873767
67	0x3d34831e	0.044070356
68	0x3debde9f	0.11517071
69	0xbd9604a6	-0.07325105
70	0x3e1ffb63	0.1562324
71	0xbd2ab23d	-0.041673888
72	0x3e21e8e5	0.15811498
73	0x3de0c3c7	0.109748416
74	0xbe50d088	-0.20392048
75	0x3eb4d87f	0.35321423
76	0xbcce79d1	-0.025204571
77	0xbdc99bbe	-0.098441586
78	0xbdcec3ac	-0.10095915
79	0xbebfa9c9	-0.37434223
80	0x3dbeccf6	0.09316437
81	0xbebc8427	-0.36819574
82	0xbdfa7886	-0.12230019
83	0xbe2550b4	-0.16144067
84	0xbe713951	-0.2355702
85	0x3e436bbe	0.19084069
86	0xbe8c20c1	-0.2736874
87	0x3de5d8b8	0.112229764
88	0xbe867191	-0.2625852
89	0xbca2c135	-0.019867519
90	0xbe344f78	-0.1760844
91	0x3e8b60e5	0.27222362
92	0x3d935b38	0.07195133
93	0xbe1f9300	-0.1558342
94	0x3eb75b08	0.3581164
95	0x3cbb24c2	0.022844676
96	0x3e0db10f	0.13837074
97	0xbe9e6122	-0.3093348
98	0xbe5d7885	-0.21628006
99	0x3e4c5843	0.19955544
100	0x3e80ab73	0.25130805
101	0x3de75026	0.11294584
102	0xbbe4b1d1	-0.006979205
103	0xbdfa6c16	-0.12227647
104	0x3ea8565c	0.32878387
105	0xbd769f24	-0.060210362
106	0xbcfc3fc2	-0.03079212
107	0xbe042a27	-0.12906705
108	0xbdcb710b	-0.099336706
109	0xbeb1fbaf	-0.34762332
110	0xbe985eb9	-0.29759768
111	0x3d94f4b4	0.07273236
112	0x3d288113	0.04113872
113	0xbeabf896	-0.33588094
114	0xbe7fbb8d	-0.24973889
115	0xbebe3b56	-0.37154645
116	0x3d677175	0.056504685
117	0xbe9257f1	-0.2858272
118	0x3d8fc678	0.07020277
119	0xbd44a0a7	-0.048004773
120	0x3d4ed16d	0.050492693
121	0xbdf49252	-0.11941971
122	0x3c9d7fb8	0.01922594
123	0xbb0a096a	-0.002106274
124	0xbebb483e	-0.36578554
125	0xbd8d6213	-0.06903472
126	0x3ddf09f4	0.1089057
127	0x3e9c4a74	0.30525553
128	0xbe1b4625	-0.15163477
129	0x3eb3e233	0.35133514
130	0x3e852e07	0.2601168
131	0x3e36a4e5	0.1783634
132	0xbd4d5acc	-0.05013542
133	0x3b97c3f1	0.0046315123
134	0x3e016da9	0.12639488
135	0x3e756e4b	0.23967855
136	0xbe375832	-0.17904738
137	0xbe50b629	-0.20381989
138	0x3e1d7902	0.15378192
139	0x3d625232	0.05525417
140	0x3de9708d	0.113984205
141	0xbecaf9e4	-0.39643776
142	0x3ca535cd	0.020167256
143	0xbe0cf86b	-0.13766639
144	0x3df23789	0.11826999
145	0xbda78002	-0.081787124
146	0xbe932eb7	-0.28746578
147	0x3da2b288	0.079442084
148	0x3e015e7b	0.12633698
149	0x3d987315	0.07443825
150	0x3e866e87	0.262562
151	0xbe337658	-0.17525613
152	0xbe8ab47a	-0.27090818
153	0x3e2e6391	0.17030169
154	0xbdc4e649	-0.09614236
155	0xbe958163	-0.29200277
156	0x3e6f93fa	0.23396292
157	0x3e047a1f	0.1293721
158	0x3e2debc9	0.16984476
159	0xbe4c8123	-0.19971137
160	0xbe3c99e1	-0.18418075
161	0xbe380b0a	-0.17972961
162	0xbe1da386	-0.1539441
163	0xbbcfd156	-0.0063420935
164	0x3da44bc0	0.08022261
165	0xbbae72dc	-0.005323751
166	0x3e7f52b7	0.24933897
167	0xbe08d612	-0.13362911
168	0x3e864836	0.26226968
169	0x3e1cfc76	0.15330681
170	0xbea6d3c5	-0.32583442
171	0xbdeb68a1	-0.11494566
172	0xbc88d847	-0.016704692
173	0xbe94957c	-0.29020298
174	0xbd74d2bd	-0.05977129
175	0xbea302e0	-0.3183813
176	0xbde07832	-0.109604254
177	0xbdb22d9d	-0.08700106
178	0x3e21ad48	0.15788758
179	0xbe57b56b	-0.21065299
180	0x3e3c105a	0.18365613
181	0xbea37094	-0.31921828
182	0xbeaf43fb	-0.34231552
183	0x3e2b32fc	0.16718668
184	0xbdfd657d	-0.12372873
185	0xbda33f04	-0.07971004
186	0x3e027cf3	0.12742977
187	0x3dbef14a	0.09323366
188	0x3d821749	0.063520975
189	0x3e676b7f	0.225996
190	0xbcbe1c84	-0.023206957
191	0x3e156fa5	0.1459337
192	0x3e96f1e6	0.2948143
193	0x3d085dfe	0.033292763
194	0x3e0b3780	0.1359539
195	0x3cc9431c	0.024568133
196	0x3e459b89	0.19297613
197	0x3e2bad1a	0.16765252
198	0x3e06c666	0.1316162
199	0xbeb5402d	-0.35400525
200	0xbd903cd9	-0.07042856
201	0x3c7193a1	0.01474467
202	0xbc9e3a47	-0.019314898
203	0x3e6d9f42	0.23205283
204	0xbdd59abd	-0.104299046
205	0x3d8f3319	0.06992168
206	0xbd8be585	-0.06830887
207	0x3d04bcb6	0.03240653
208	0xbd362b58	-0.04447493
209	0xbe07b2c6	-0.1325179
210	0xbe8b8f5b	-0.2725781
211	0xbe44e6bb	-0.19228642
212	0xbeb2e584	-0.34940732
213	0x3d8757cc	0.06608543
214	0xbe3c9990	-0.18417954
215	0xbd44098d	-0.04786067
216	0xbd239437	-0.03993627
217	0x3e7f7b3d	0.24949355
218	0x3e318f38	0.1733979
219	0x3e7c9d58	0.24669397
220	0x3d227d16	0.039670072
221	0xbe2480bb	-0.16064732
222	0xbea21ecd	-0.31664124
223	0xbe5a60b2	-0.21325949
224	0x3e2d2123	0.16907172
225	0xbd3699b8	-0.04458019
226	0xbe6f0eb3	-0.23345451
227	0xbdddd5e2	-0.108318105
228	0x3ddc943c	0.10770461
229	0xbdda2fcc	-0.10653648
230	0x3d318acd	0.04334526
231	0x3dc6991c	0.09697172
232	0xbe94128c	-0.289204
233	0xbd0f7030	-0.0350191
234	0xbda94993	-0.08265986
235	0x3c531ec5	0.012885754
236	0x3e5d40ad	0.21606703
237	0xbdeee53d	-0.116648175
238	0x3e4c1581	0.19930078
239	0xbe9ecf0f	-0.31017348
240	0x3e5d84a2	0.21632627
241	0xbdf97bc5	-0.1218181
242	0x3d8f5ac9	0.06999738
243	0xbdc7e8dc	-0.09761211
244	0x3eb2a7f7	0.34893772
245	0x3e26f32d	0.16303702
246	0x3d6d4bdc	0.057933673
247	0xbe21495a	-0.15750638
248	0xbc9a27ba	-0.018817771
249	0x3e2eb8f4	0.17062742
250	0x3e4aad30	0.19792628
251	0xbe87fbe0	-0.26559353
252	0x3cc7b3bd	0.024377698
253	0x3dcb8464	0.09937361
254	0xbe9ffec0	-0.31249046
255	0x3d7c29d2	0.06156332

fc1.bias f4 [128]
0	0xbe58a2e6	-0.21155891
1	0xbdf88731	-0.12135161
2	0x3d21fcf6	0.039547883
3	0xbdf0393c	-0.117296666
4	0xbd834af4	-0.064107805
5	0xbe621a0a	-0.22080246
6	0x3e2dab34	0.1695984
7	0xbe8c9ed8	-0.27464938
8	0xbe1d6be1	-0.15373184
9	0xbe4f3300	-0.20234299
10	0xbe68aa33	-0.22721176
11	0x3e0adb54	0.1356023
12	0x3e15ff66	0.14648208
13	0x3db371b0	0.087619185
14	0xbe29f3c2	-0.16596892
15	0xbcabcb65	-0.02097101
16	0xbe8dcdfd	-0.2769622
17	0x3e0f6bc0	0.14005947
18	0xbe2b67f8	-0.1673888
19	0x3d4cc95a	0.04999671
20	0x3e3fa35b	0.18714659
21	0xbe3c94d5	-0.1841615
22	0x3de9cbe5	0.11415843
23	0xbd8d96a3	-0.06913497
24	0x3cd96057	0.026535196
25	0x3e8a3500	0.2699356
26	0x3df3cbb2	0.11904086
27	0xbe686bd0	-0.22697377
28	0xbe2ca02e	-0.16857979
29	0xbe95f70f	-0.29290053
30	0x3e11df41	0.14245321
31	0xbe6c43fe	-0.23072812
32	0x3e160582	0.14650539
33	0xbbe72965	-0.007054495
34	0xbe6f48b3	-0.23367576
35	0xbd8eab03	-0.06966212
36	0x3c12afa9	0.008953013
37	0x3dfc87fc	0.123306245
38	0x3db85550	0.09000647
39	0xbd547d51	-0.051877324
40	0x3cfd9218	0.030953452
41	0x3e57e761	0.21084358
42	0x3db8a020	0.090149164
43	0x3d35a5ec	0.04434769
44	0xbe9b3331	-0.30312493
45	0xbdeb5e89	-0.114926405
46	0xbe299098	-0.16559064
47	0xbe22436b	-0.1584603
48	0x3dd9bb23	0.106313966
49	0xbd8b23b5	-0.0679392
50	0xbe0d6e99	-0.13811721
51	0xbdd36ff2	-0.10324086
52	0xbea60a02	-0.3242951
53	0x3e9b0314	0.30275786
54	0x3cff892a	0.031193335
55	0xbe8fb6b1	-0.2806907
56	0xbe03f484	-0.12886244
57	0x3daf7eee	0.08569132
58	0x3e183795	0.14864953
59	0x3e1860b4	0.1488064
60	0xbb79ef90	-0.0038137175
61	0xbe3f8500	-0.18703079
62	0x3e45c48e	0.19313261
63	0xbe2cb803	-0.1686707
64	0xbde908bc	-0.11378619
65	0xbe6909d7	-0.2275766
66	0xbe23ea0d	-0.16007252
67	0x3cb652c5	0.022256264
68	0xbcdfb9d9	-0.027310299
69	0x3e6e9f9f	0.23303078
70	0x3da1df64	0.079039365
71	0xbe7a4509	-0.24440397
72	0xbe7e6319	-0.2484249
73	0xbd79ce43	-0.060987722
74	0x3e5680b1	0.2094753
75	0xbe95c039	-0.29248217
76	0xbe8d98f1	-0.27655748
77	0x3e2aedc3	0.16692261
78	0x3e84b147	0.25916502
79	0x3e37cedd	0.17950006
80	0x3c299802	0.010351183
81	0xbe887b8e	-0.26656765
82	0x3c5ff1be	0.013668476
83	0xbe3ae1fc	-0.18250269
84	0x3e69286b	0.22769324
85	0xbeb2864d	-0.34868088
86	0x3d69529c	0.056963548
87	0xbe6ccc2a	-0.23124757
88	0x3d44ef8f	0.048080023
89	0xbe7bb3b3	-0.24580269
90	0x3c7239ea	0.014784316
91	0x3ceeb099	0.029136943
92	0xbe9706e7	-0.29497454
93	0xbe6f46ba	-0.23366824
94	0xbd3e4a19	-0.046457384
95	0xbe9d66aa	-0.3074239
96	0x3e608d64	0.21928936
97	0xbe7b2cab	-0.24528758
98	0x3de23cff	0.1104679
99	0xbed3a565	-0.41337124
100	0x3e5929ce	0.21207353
101	0xbe99bf3b	-0.3002871
102	0x3ddd3c9f	0.10802578
103	0xbeaf4ed7	-0.34239838
104	0xbd755e5f	-0.059904452
105	0xbd1235d4	-0.035695866
106	0x3e69e1c3	0.22840028
107	0xbe0eb75e	-0.13937137
108	0xbdb106e9	-0.08643896
109	0xbe68428b	-0.22681634
110	0x3ce68882	0.028141264
111	0x3da9d15d	0.08291886
112	0xbe81ba74	-0.25337565
113	0xbd8ab151	-0.06772102
114	0xbdbc251f	-0.09186768
115	0x3e7d6dc2	0.247489
116	0x3e2d9d65	0.16954572
117	0xbe608381	-0.21925165
118	0x3e5b7f2b	0.2143523
119	0xbe47c9d2	-0.19510582
120	0x3e152e29	0.1456839
121	0x3de4ea01	0.11177445
122	0xbea2a15c	-0.31763732
123	0x3d96f99d	0.07371829
124	0xbce18dca	-0.02753343
125	0xbddfe1f3	-0.10931768
126	0xbe8aec68	-0.2713349
127	0xbee65ab7	-0.44991085

fc2.weight f4 [9, 128]
0	0x3db184f5	0.08667938
1	0x3d779d84	0.060452953
2	0x3d1457c5	0.036216516
3	0xbe5390ca	-0.20660701
4	0x3d4fea2f	0.050760444
5	0x3ddffe7e	0.109372124
6	0x38e0c46f	0.00010717741
7	0x3d081c59	0.03323016
8	0x3da14416	0.078743145
9	0x3dc167c9	0.094436236
10	0xbbfbc4bb	-0.007683364
11	0xbc9495ae	-0.01813778
12	0xbd8241c7	-0.06360202
13	0x3d8fd126	0.07022314
14	0xbe167e28	-0.14696562
15	0x3dcd234e	0.100164995
16	0xbe65720f	-0.22406791
17	0x3e31dbdd	0.17369027
18	0xbd9e06a2	-0.07716109
19	0x3dcce321	0.10004259
20	0x3e01cc45	0.12675579
21	0xbc0993df	-0.008397072
22	0x3d834274	0.06409159
23	0xbdd22b12	-0.10262121
24	0xbd5a5f62	-0.05331362
25	0x3bc00f97	0.0058612335
26	0xbcc8f579	-0.024531113
27	0x3e55627b	0.20838349
28	0x3b80a67e	0.0039260974
29	0x3d7e8dc1	0.062146906
30	0xbd1f6758	-0.038916916
31	0xbb8fb691	-0.0043857773
32	0x3da35942	0.07976009
33	0xbc1316e7	-0.008977628
34	0xbe09c16f	-0.13452695
35	0x3d8182e8	0.063237965
36	0xbd0ec0b2	-0.034851737
37	0xbdc32bb3	-0.09529819
38	0x3da65e85	0.08123497
39	0x3c3dd4fb	0.011586423
40	0xbd541c02	-0.051784523
41	0x3d130e45	0.03590228
42	0xbdc61fe3	-0.09674051
43	0xbddace5f	-0.106838934
44	0xbdcd2979	-0.10017676
45	0x3df522b9	0.119695134
46	0x3e2284c6	0.15870962
47	0xbe0e3467	-0.13887177
48	0x3d9f1384	0.07767394
49	0x3ca00b86	0.019536745
50	0xbe6cf142	-0.23138908
51	0xbcb28d42	-0.021795873
52	0x3dc17968	0.094469845
53	0xbeb940d3	-0.3618227
54	0x3d046324	0.03232111
55	0xbdb9d768	-0.090742886
56	0x3e64c001	0.22338869
57	0x3e0a8e02	0.13530734
58	0x3d0bd020	0.03413403
59	0xbe206302	-0.15662768
60	0x3e38311b	0.17987482
61	0x3c62dabc	0.013846096
62	0x3e319c04	0.17344671
63	0xbd1ddc65	-0.038540263
64	0xbcfa3e02	-0.030547146
65	0x3da7f531	0.082010634
66	0xbe7db220	-0.2477498
67	0xbe1ef353	-0.15522508
68	0xbd95ee8f	-0.07320892
69	0xbbb92001	-0.005649567
70	0xbc190a1d	-0.00934079
71	0x3d13f2f6	0.036120377
72	0xbbda58e9	-0.006663431
73	0x3dc00a33	0.09376945
74	0x3dad698c	0.08467397
75	0x3e384afe	0.17997357
76	0x3d52a4af	0.051426586
77	0xbdf7f1f2	-0.12106694
78	0xbdddb34d	-0.108252145
79	0x3d714e9a	0.05891285
80	0x3adc943d	0.0016828846
81	0x3cdc4e8c	0.026892923
82	0x3e37fac2	0.1796675
83	0x3da633b1	0.08115328
84	0xbd6d4821	-0.057930116
85	0xbe68984b	-0.22714345
86	0xbe2af546	-0.16695127
87	0xbe5e3439	-0.21699609
88	0xbd0f5233	-0.0349905
89	0xbc042bc1	-0.008067072
90	0xbb3a710d	-0.0028448731
91	0xbaa2443a	-0.0012379952
92	0x3e4b5a76	0.19858727
93	0x3d93ebb0	0.07222688
94	0x3da886a8	0.08228809
95	0xbe217f77	-0.1577128
96	0x3e02626e	0.1273286
97	0xbe244614	-0.16042358
98	0xbd58e189	-0.052949462
99	0x3e07a499	0.13246383
100	0x3e397c8b	0.18113916
101	0xbd825bfb	-0.063652
102	0x3d6a2886	0.057167552
103	0x3e0cc6d1	0.13747717
104	0x3da4679f	0.08027577
105	0xbdc194de	-0.09452222
106	0x3df6abd5	0.12044493
107	0xbd9923d0	-0.07477534
108	0xbe0f7f2b	-0.14013354
109	0xbd836d31	-0.06417311
110	0xbbcff011	-0.006345757
111	0x3b484a53	0.0030561879
112	0xbe66c202	-0.22534946
113	0x3e12bec3	0.14330582
114	0x3d8c84f0	0.06861293
115	0xbe4352f2	-0.1907461
116	0xbd8d2538	-0.068918645
117	0xbe45e187	-0.19324313
118	0x3db8e756	0.09028499
119	0xbe73a04f	-0.23791622
120	0xbd9a9546	-0.07548003
121	0x3d84a5cd	0.064769365
122	0xbea554a5	-0.3229114
123	0x3d9301e5	0.07178096
124	0xbcf08365	-0.029359529
125	0xbdd15e11	-0.1022302
126	0x3c71f1a6	0.014767086
127	0xbdaed78f	-0.08537208
128	0xbda3b15b	-0.07992812
129	0xbd2ed495	-0.042683203
130	0xbd27e176	-0.0409865
131	0x3c028cea	0.007968167
132	0x3c812bf6	0.015768033
133	0xbe09695a	-0.13419095
134	0xbd77e25c	-0.060518607
135	0xbc88b8aa	-0.016689617
136	0xbcc3638f	-0.023851184
137	0xbc8cc761	-0.017184915
138	0xbdb70a21	-0.08937479
139	0x3d3fe548	0.04684952
140	0xbd201933	-0.03908653
141	0xbc9ba657	-0.019000215
142	0xbd0889a6	-0.033334397
143	0xbdf0fedc	-0.117673606
144	0xbcb3339f	-0.0218752
145	0xbd893ce7	-0.06701069
146	0xbe20ba0f	-0.15695976
147	0x3e01151c	0.12605709
148	0xba97036c	-0.0011521406
149	0xbc3ebf05	-0.011642222
150	0x3d9a2008	0.07525641
151	0xbd3fcca9	-0.04682604
152	0xbe0d8f0a	-0.13824096
153	0x3e135ac0	0.14390087
154	0xbb1a3cc9	-0.0023534766
155	0xbca46032	-0.0200654
156	0xbd5080ee	-0.050904207
157	0xbd0b4d99	-0.03400955
158	0xbb46733a	-0.0030281083
159	0xbdb710e1	-0.08938766
160	0xbc375542	-0.011189761
161	0x3e092a19	0.13394965
162	0x3d2e6c9d	0.04258405
163	0x3c21168d	0.009832037
164	0x3d40428a	0.046938457
165	0x3d419b67	0.047267344
166	0xbd642807	-0.055702236
167	0x3d1cae33	0.038252067
168	0xbbb69186	-0.005571547
169	0x3c308bd5	0.010775526
170	0x3d95860d	0.07300959
171	0x3bf0edf3	0.0073525845
172	0xbd46eede	-0.048567645
173	0x3d7d5957	0.06185278
174	0x3c87d9bd	0.016583318
175	0x3df50f73	0.11965837
176	0x3cbebf23	0.0232845
177	0xbd059960	-0.032616973
178	0x3d665f27	0.056243088
179	0x3d15fbca	0.036617078
180	0x3e1a266a	0.15053716
181	0x3db2a69b	0.08723184
182	0xbc8baa87	-0.017049087
183	0x3d24314c	0.040086076
184	0x3c571b3d	0.013129053
185	0xbdc920c9	-0.098207064
186	0xbd016e0f	-0.0315991
187	0xbdc3c11f	-0.09558319
188	0xbdb985fc	-0.090587586
189	0xbd1f0ed4	-0.0388325
190	0xbd05a06f	-0.032623705
191	0xbd5b61d6	-0.0535601
192	0x3cdc5b95	0.026899138
193	0x3d919e53	0.07110276
194	0x3d6511c0	0.05592513
195	0x3cb9bb7f	0.022672413
196	0xbb891f4e	-0.00418464
197	0xbb898607	-0.0041968855
198	0x3943be52	0.00018667549
199	0x3dfb733b	0.12277838
200	0x3daa17a0	0.08305287
201	0x3dfee33a	0.12445684
202	0x3d35afd7	0.044357147
203	0xbd4aed02	-0.049542435
204	0x3d0c867b	0.034307938
205	0xbc96e58e	-0.018420007
206	0x3d923ecb	0.07140883
207	0xbcbc7d6e	-0.023009028
208	0x3d55e384	0.05221893
209	0xbd8205fc	-0.06348798
210	0xbc72aef4	-0.01481222
211	0xbdfe0fa1	-0.12405325
212	0xbd52f931	-0.05150718
213	0x3e40c13d	0.18823715
214	0xbc562b83	-0.013071897
215	0x3d84728b	0.0646716
216	0xbd12a76c	-0.035804197
217	0x3e303c99	0.17210616
218	0x3dcbc944	0.09950498
219	0x3dcf6157	0.10125988
220	0xbe0088fb	-0.12552254
221	0xbd9e7c85	-0.07738594
222	0x3d128581	0.03577185
223	0xbd28684a	-0.041115083
224	0xbc7fe27f	-0.015617966
225	0x3cbf0cc1	0.023321511
226	0x3da22700	0.07917595
227	0x3ea3018d	0.3183712
228	0xbd401876	-0.046898328
229	0x3cd13fc3	0.0255431
230	0x3d21025a	0.039308883
231	0xbdc91944	-0.09819272
232	0x3d5f3244	0.054491296
233	0x3d9309f7	0.07179635
234	0xbd406bf6	-0.04697796
235	0xbcb70277	-0.022340043
236	0x3daeff11	0.08544744
237	0xbd1aec5d	-0.03782307
238	0x3e06d96e	0.1316888
239	0xbd9c0668	-0.076184094
240	0x3d3b70c4	0.04576184
241	0xbd0f0d57	-0.03492483
242	0xbc359868	-0.0110837
243	0xbe069617	-0.13143192
244	0x3cb38bd4	0.021917261
245	0x3dabe200	0.083927155
246	0xbd929c77	-0.071587496
247	0x3c6abcf5	0.014327277
248	0xbcbb7c63	-0.02288646
249	0x3d8dd433	0.069252394
250	0xbdb66a9f	-0.08907055
251	0xbcb691e4	-0.022286363
252	0xbdb36977	-0.0876035
253	0xbb23fd89	-0.0025022945
254	0x3b36d9cd	0.0027900815
255	0x3f0d142c	0.55108905

fc2.bias f4 [9]
0	0x3e05636f	0.13026212
1	0xbd19d1b2	-0.037553497
2	0xbcdb00dc	-0.026733808
3	0x3c0322dc	0.008003917
4	0x3cd662ae	0.026170101
5	0x3d5ac79a	0.05341301
6	0x3bd165d5	0.006390313
7	0x3e3cf81c	0.18454021
8	0x3e230878	0.159212
