models/tic_tac_toe_net_v5.pth (torch, 11489 bytes, 4 tensors)

fc1.weight f4 [128, 9]
00000000: d293 b03d 9501 29be 21e7 5fbe 7e0a 61be
00000010: aec3 b9be 4b40 ce3d 115d 9fbd c3f7 093d
00000020: 9638 36be 0c4d dbbd ca5a a0be 3137 fabd
00000030: 1dd1 1b3e bed0 723e a3fc 1a3e 944b 873d
00000040: 628c 9dbd 63b9 ecbd 9186 893e 8e60 b73e
00000050: 98c0 75be 6649 32bd 66dc c9bd b6df 143e
00000060: d2b0 11bc 3b36 76be 0279 2f3e 7cc4 3fbd
00000070: 2f29 ed3d 247d 92be e4ba 053e 6de0 83be
00000080: 4cdd aa3e 21de bf3e cfe2 2b3e 88c8 94be
00000090: 70fd 87bc f239 773d 17d7 8d3d df20 74bd
000000a0: 6c71 e83d 0259 60be 0186 b13e 9160 c03e
000000b0: 1d0d b5bc 8a7e 85bd a1d0 923e 75fd 783a
000000c0: 719b 763e 352e 3abe c2fd a03d 5b0e 233e
000000d0: 9501 cabe b5c8 2abe a70c 9f3e 6db1 28bd
000000e0: 4dc6 9b3e 3214 4dbe 8016 3f3e 0f4b a8be
000000f0: 584a acbe 56f2 36be 99e0 18be f768 aa3e
00000100: 9337 913e 3d3f 573d 5a53 99bd 6503 cfbe
00000110: dcd3 243d bfd8 92bb 0a53 d03d f2b5 a23e
00000120: 7129 82be b80d 993e a97e 7c3e 02c2 a3bd
00000130: 15ab 22be 2baf b43d 9af3 e5be b489 6bbe
00000140: 2c95 c73d df8d 993d c5eb 293d 081b e1bd
00000150: 07a5 353e fbf9 a03b 99e1 8a3e ce53 8e3d
00000160: 4a63 59bd 3d2d 8abe 739b 293e dec0 8b3e
00000170: bd56 84be dd82 21be 4821 04be 86b6 51be
00000180: ef1d 0e3e ae3f 59be 7470 2c3e 772c 49be
00000190: 09bb babe bfcb 6f3e 8f2e 86be b40e 26be
000001a0: d56b debd bf00 513e 7e80 e23e ab69 203e
000001b0: ab24 1dbe 8637 0e3e 1d4b 5bbd d373 85be
000001c0: d8b9 983e 19da 2fbd e4ed f8b9 ec9b 81be
000001d0: cbd3 213e 689c 58bd e151 90be 3205 a93d
000001e0: edb3 1a3e e5e6 89bd 5c1b 4e3d dcb4 30be
000001f0: 41cf 1dbe 1ed1 7dbe 441f 39bd 538a 92be
00000200: 9485 9b3d 5277 293e fdfc debd 5282 31be
00000210: 677c 19be 43f9 c13d 658e 263e 4c5e f4bd
00000220: 289b 13be a348 023d d498 193e 2554 2bbc
00000230: d76a 163e 22c0 893e 7afa 773d 8116 3bbe
00000240: f049 013e 75c6 1c3d 1c23 723e 4a68 aebc
00000250: f2e9 47be 7dea 833d c70e bb3d 17aa c33d
00000260: e77a 60be 33a7 3ebd 6b7d 07be 5f34 b23e
00000270: 4ba8 9d3e 6d65 db3d 4a13 42be 2e9b 85bc
00000280: f942 3a3e 89df 253e fd20 06be 4fce 1a3b
00000290: f825 c73c 233d 89be 6106 883d ae8e 17be
000002a0: 6e7f 96bd b450 813d 4414 1b3e 0bea d33d
000002b0: 1672 623e 1561 6fbd 9d9c 5c3e ac5c 01bd
000002c0: 8889 09be 54cb 5fbe 5678 063e 1969 a1be
000002d0: 4e98 1a3c fc4f 22be f9e5 5c3d ac48 91bc
000002e0: 7b33 ac3e 797a 103d 69e3 7ebe f2ab 70be
000002f0: b43a c93d ae8a 403e c97c 243e a839 123e
00000300: 3641 8f3d 90d1 babe 8082 013f 0b2b fa3c
00000310: c3c0 b2be fdc2 25be 4736 df3e 2c92 c6bd
00000320: e841 27be 5f57 8f3e 1e6b d6be 3efb 3d3e
00000330: bd2c 1bbd d2c8 8d3e df85 0bbe dcdb 02be
00000340: 7228 09be c3ff 453e 5c1a b5be 9fea 033e
00000350: 4252 683e 249e 60be 0894 62be 06df 4b3e
00000360: fff0 abbe 48ec 3d3e 0679 9d3d b27e 0bbe
00000370: a8fe 82be bae8 7f3e da16 643d a26d 2c3e
00000380: 54af b93c cf0e 253f 7c85 a7be ce99 a2bd
00000390: 764f 8ebc 0ff9 0e3e b962 05be 9649 383e
000003a0: 6cd7 ecbe 6049 6cbe 8c55 6fbe bd43 453d
000003b0: 13fd 21be f586 753e 356d 623d 3081 ae3c
000003c0: d26a b53d 1e6d 49be dff4 9ebe 8069 b93d
000003d0: ca45 f93c 5e82 49be a4fc 0abe 1ca7 9a3e
000003e0: 5d5f 2f3e 38e9 553e 492b a7be 9f8b 47bd
000003f0: 018d adbd 25ed 48be 1ab7 703e 8b58 62be
0.086219445 -0.1650451 -0.21865512 -0.21976659 -0.36282104 0.10070857 -0.07781423 0.03368355
-0.17795023 -0.10708055 -0.31319267 -0.12217558 0.15216489 0.23712441 0.15135436 0.06606212
-0.076927915 -0.11558797 0.2686048 0.35815853 -0.2399925 -0.04352703 -0.09856491 0.14538464
-0.008892255 -0.24044125 0.17136005 -0.04681824 0.11580121 -0.286111 0.13059574 -0.2575716
0.3337196 0.37474158 0.1678574 -0.29059243 -0.01660034 0.060357995 0.06925791 -0.05960166
0.113497585 -0.21908954 0.3467255 0.37573674 -0.02210098 -0.06518276 0.28674796 0.0009498217
0.24082734 -0.18181689 0.078609005 0.15923445 -0.39454332 -0.16678126 0.3106434 -0.04118483
0.3042473 -0.20027235 0.18660927 -0.32869765 -0.3365047 -0.17865881 -0.14929427 0.33283207
0.28362712 0.052550543 -0.07486601 -0.40432277 0.040241107 -0.0044814046 0.101720884 0.31779438
-0.25422242 0.2989328 0.24657692 -0.079959884 -0.15885575 0.08822473 -0.44912416 -0.23001748
0.09745249 0.07497763 0.041484613 -0.10991484 0.17738734 0.0049126125 0.27125242 0.06949578
-0.053073205 -0.2698764 0.16563205 0.27295583 -0.25847426 -0.15772577 -0.12903321 -0.20479783
0.13878606 -0.21215698 0.16839772 -0.19645868 -0.36470821 0.23417567 -0.26207396 -0.16216546
-0.10860411 0.20410441 0.44238657 0.15665309 -0.15346019 0.13888368 -0.05353843 -0.2606493
0.29829288 -0.042932604 -0.00047479488 -0.2531427 0.15803449 -0.052883536 -0.2818747 0.08252944
0.15107699 -0.06733493 0.05031906 -0.17256492 -0.15411092 -0.24786803 -0.045195833 -0.28621158
0.075938374 0.16549423 -0.108880974 -0.1733487 -0.14988862 0.09471371 0.16265257 -0.11932048
-0.14414656 0.031807553 0.14999706 -0.010457073 0.14689194 0.26904398 0.060541607 -0.18270303
0.12625861 0.0382752 0.23646206 -0.021289963 -0.19522837 0.064412095 0.09133678 0.095539264
-0.21921884 -0.046546172 -0.13231437 0.3480558 0.3079246 0.10712705 -0.1895267 -0.016309347
0.1818961 0.16198553 -0.13098522 0.0023621505 0.024310097 -0.26804456 0.06641842 -0.14800522
-0.07348524 0.06314221 0.1514445 0.103473745 0.22113833 -0.058442194 0.21544118 -0.03158252
-0.1343137 -0.21854907 0.13131842 -0.31525496 0.009435726 -0.15850824 0.053930257 -0.017734848
0.33633026 0.03527305 -0.24891438 -0.23503092 0.0982565 0.18802902 0.16063227 0.14279807
0.0699486 -0.36488008 0.5058975 0.030538103 -0.3491269 -0.16187663 0.43596098 -0.09695849
-0.16333735 0.27996346 -0.418786 0.18552873 -0.037884463 0.27692276 -0.13625287 -0.12779182
-0.13394335 0.19335847 -0.35371673 0.1288247 0.22687629 -0.21935326 -0.22126782 0.19909295
-0.33582303 0.18547165 0.07689099 -0.13622549 -0.25584912 0.24991122 0.055685855 0.16838697
0.02266661 0.6447572 -0.32719028 -0.07939492 -0.017371874 0.13962196 -0.13025941 0.17996821
-0.46258104 -0.23074865 -0.23372477 0.048160303 -0.15819196 0.23977263 0.05527993 0.021301836
0.08858265 -0.19670531 -0.31046197 0.09053326 0.030428786 -0.19678637 -0.13572937 0.3020562
0.17126222 0.20889747 -0.3265021 -0.048717137 -0.0847416 -0.19621713 0.23507348 -0.22104089

fc1.bias f4 [128]
00000000: fc4a 3dbc 7cae 8b3a 085c 25be 3b5a 0abe
00000010: 8fb5 4bbe 1d45 0bbe 4929 6ebe 66d1 79be
00000020: 31b8 3b3e a851 6abe 30e6 c3be a0c8 043e
00000030: 3431 1c3d aa45 bfbd d5f8 b03d b832 0c3e
00000040: 12d4 32bd 361a 27be 7bb3 b43c 9516 b23c
00000050: f4e5 0d3e 2223 983d c25d 96be 7746 cb3d
00000060: 222f 88bd da4d 9abe 81b1 0f3e 65b1 aabe
00000070: 56c4 473e 64d3 c1bd 7484 8cbe b97e 9e3c
00000080: cf84 46be 0022 163e 03f6 dc3d 4d10 babe
00000090: a3ce 55bb a642 75be e1c4 0b3c e35c 8cbd
000000a0: c4fb 4a3e fb2c 7cbb 30f3 853c 0555 29be
000000b0: 080c 933e 6df9 7bbe 19ce 8fbe f0d2 43be
000000c0: d7e6 073e cabd 82be 214f 9abd 2ef9 17bd
000000d0: f97c a8bd 9f39 19be e89f 8a3e a5fd eabd
000000e0: bdee 893c 224e 87bd 312a 173e b020 66bd
000000f0: 85ee bfbd 19ac 5b3d 2e2b 403e 3728 313e
00000100: ee09 53be d935 8f3d c8de 22be 2b16 b3bc
00000110: 8557 17be 236c c6bd f3a2 efbe 703f 9dbd
00000120: e989 f6bd d795 2b3e c48d ed3d ba76 4a3d
00000130: 7703 963d 7e0e 4e3e 5e87 9a3d 15a2 6f3e
00000140: 5ee2 b5bd b532 54be b563 3abe 182e cb3d
00000150: 05ae 0e3e 0fa0 86bc 4daa 1abe 574a b63d
00000160: 3773 713e b600 fb3d f622 243e 6c14 75be
00000170: 7c9e 4d3e b30a 173e a9b2 bcbd 4e9b 2e3e
00000180: 750f 9f3c ce51 acbd e531 2abe 7f35 97be
00000190: 70d2 683e e9ae 513e ba25 cebd 997a b63c
000001a0: 61aa 473c 9b40 ddbd c5e4 f5bd 70e5 9bbe
000001b0: c48d abbe 2b79 f03d 7a0e 90be 47cc 14bd
000001c0: d0d7 75be be73 273e 6fcf 803d 2dd1 7f3e
000001d0: 94de aabd 420b 93bd acae 81be 3a02 7c3d
000001e0: 6b4d 1cbb 482e 88be 218f 2a3e a641 833e
000001f0: bd34 8dbe f7df d23a 05df 92bc 8383 283e
-0.011553522 0.0010656859 -0.16148388 -0.13510983 -0.19893478 -0.13600583 -0.23257937 -0.24396285
0.18331982 -0.22882712 -0.38261557 0.12967157 0.03813286 -0.09339459 0.08641211 0.13691223
-0.043659277 -0.16318592 0.02205824 0.021739284 0.13857251 0.07428576 -0.29368407 0.099255495
-0.06649615 -0.3013752 0.14032556 -0.33338466 0.1950849 -0.09464148 -0.27444804 0.019347535
-0.193866 0.14661407 0.107891105 -0.36340562 -0.0032624386 -0.23951206 0.008530826 -0.06853654
0.19822603 -0.003847896 0.016351312 -0.16536339 0.28720117 -0.24606867 -0.28086928 -0.19123435
0.13271652 -0.25535423 -0.07534624 -0.03710287 -0.08226962 -0.14963387 0.27075124 -0.1147416
0.016837472 -0.066066995 0.14762188 -0.056183517 -0.09371666 0.053630922 0.18766472 0.17300497
-0.20609257 0.069926925 -0.15905297 -0.021861156 -0.1477948 -0.09688594 -0.46804008 -0.07678115
-0.12038023 0.16756378 0.11599305 0.049429633 0.073248796 0.20122716 0.075453505 0.23401673
-0.08881067 -0.20722468 -0.18202098 0.09920901 0.1393357 -0.016433744 -0.15104027 0.08900898
0.23579107 0.12255995 0.16028962 -0.23933572 0.20079988 0.14750175 -0.09213764 0.17051432
0.01941655 -0.084140405 -0.16620596 -0.29533002 0.22736526 0.20476879 -0.100657895 0.022275256
0.012186618 -0.10803338 -0.12006525 -0.30448484 -0.33506596 0.11741861 -0.28136045 -0.036327627
-0.24008107 0.16352746 0.06289565 0.24982138 -0.08343235 -0.07179882 -0.25328577 0.06152556
-0.0023849856 -0.2659781 0.16656162 0.25636023 -0.275793 0.0016088475 -0.01792861 0.16456418

fc2.weight f4 [9, 128]
00000000: cb45 93bd 9408 adbd c16d 313e 35ab d63d
00000010: 2115 31bc 0406 5b3c a3dc 34be 84d3 c2bd
00000020: 91b7 ae3d ec8f 853d 9d1a 4f3c 9f9b cdbd
00000030: c537 583d d3f6 afbd 2385 58bc 1f5f 963c
00000040: 2cd4 c83d 7420 3bbe 47d1 85bd d89d e2bd
00000050: 1b11 e93c ff7e 1cbe b5e3 a43d 4f18 92bc
00000060: df7e d73d 7e2f d53e 6266 24be 6642 8ebd
00000070: b00d 05be e948 8dbd cdb5 53bc 1584 39be
00000080: eca3 1cbb eae2 19be 15ed 133e 396c 9abd
00000090: 921c 12be af27 3abe 48b1 53be 06af d93d
000000a0: ffda 223d f5ff 2b3e a3c8 9fbd 452f 393d
000000b0: 08db 18bd 3ada bcbd 7dd3 b23d 0d4a 8dbc
000000c0: 7536 9139 c078 aebd e7aa 763b 47a1 133e
000000d0: f2d8 17bd 9fd8 bb3d c156 973d ad5c e8bd
000000e0: 6e59 ba3c 9b9d febd 8662 183d f6ce de3b
000000f0: 9d47 813e 0203 8c3d c867 b2bb df3f 76bb
00000100: 2eb0 aa3d 805c 7dbe 851c 1e3e 7feb e7bd
00000110: 08e1 abbd e158 033e 91e9 7e3c 3ec1 5b3c
00000120: 649f 813d db4d 993a 2530 4a3d c593 113d
00000130: 87a1 68bd c6a2 123e 037d 9abc 745d 8cbd
00000140: 121a 6e3e a323 2dbd 2905 4d3d 20ad 023d
00000150: cdbe a13d cae7 473d 1927 0a3e 56ee 0fbc
00000160: 75ef 38bd 23bb aabd 56a1 9abd ad19 a23d
00000170: 523e ddbd 080e bdb9 bf0d 833e bfaa c03d
00000180: ec0b 893e 353b cabd 290c 82bc da02 1f3d
00000190: c3ab 853d f97b 4d3d 600f 313e 03cb 71bd
000001a0: 40f7 073d b9d6 023d fb8c 9b3d 719d a5bd
000001b0: 819d a03d d9ca 63bd 494e 403c 8f7b e63c
000001c0: e64c 30bc af99 4cbd 605c bc3b 6320 613d
000001d0: 0d8d 1abd b64d dabd 1789 cd3d cbc1 7b3d
000001e0: d361 dfbc a4f3 abbc 4d4f aa3d 6ffa fdbd
000001f0: 9b20 0e3d affa a7bd 2432 a83d 4202 c03b
00000200: 5857 6dbd 4486 ed3d 3647 033e 9be0 0bbe
00000210: f155 cfbd 155b f1bc 95f9 b739 ab3d 213d
00000220: 1607 3c3e 34e2 8a3d 6ad2 c5bd b606 da3c
00000230: 44df a23d 9fbe a73d 463e 93bd 8168 b03c
00000240: 2091 86bd 41b8 49bb 70a4 2c3d 4a38 13bd
00000250: ef1e 58be 3a5e 00be 2308 65bc 4186 1fbe
00000260: 8ba8 2ebd 351b 973d 2000 c0bc f160 9cbd
00000270: 52f4 34bd 02c1 d83c 87c7 c5bb d6b4 523d
00000280: 5564 90bd 2985 a23d 0ef8 94bd 17dc 17be
00000290: cce0 56bb 7c7f 62bc 85b4 1ebd 105d da3d
000002a0: 8cc6 11bd 3760 f2bb 3c19 b1bd 76d4 2e3d
000002b0: 7f58 10bc 1c3d c43b c61d 45be 9e73 0bbe
000002c0: 35a2 3abd f631 733c ddb6 8f3d 007c adbc
000002d0: e784 8bbd b927 973d cb19 87bc 2747 d33d
000002e0: eb33 f3bb 2595 40bd bc4e 443e 143d 0abd
000002f0: 3b7f 8cbc 1751 babd 5e13 a5bc 6819 783d
00000300: 418f b9bb 3e35 053d b2b1 efbd 2180 92bd
00000310: 10c2 85bd d913 c13c f266 58bd dec2 ec3d
00000320: 089e a3bd 007f 133e 2a85 003e e6f0 90bd
00000330: 9715 0c3e fe99 c4bc 63bb f13c a11d c13d
00000340: eb16 4b3d c1f7 a83d 56eb 2dbd 6bc1 6bbd
00000350: ff83 c23c 4121 ba3d 5b38 cfbc 2143 a33c
00000360: 529e 34be 4678 6fbd 72f8 273d da87 88bd
00000370: 0147 4ebd 0f19 37be e1a3 eebd 3dda 353c
00000380: 9b09 c23b 16e8 c93d 9656 003d 7357 13be
00000390: 67e9 96bd 8360 b8bb 4353 b73d 12ac 4b3d
000003a0: 19c9 aabc b1c9 21bd c8d0 723b e5fa a23d
000003b0: ac01 f4bd 99e5 9ebd 6ea0 513d 7aea 12bd
000003c0: 8c91 e93d d3c4 1e3e d328 0fbc 5b56 db3c
000003d0: a2c1 3d3d d710 053d 9382 b73d c70d c43d
000003e0: dfaa f03d 0c44 c33d d17d 0d3d 8455 4e3d
000003f0: 7128 a7bd 99b8 af3b 2314 983c 1c53 acbd
-0.07191046 -0.08448902 0.17327024 0.10481874 -0.01080826 0.013368133 -0.17662291 -0.09513
0.08531106 0.065215915 0.012640622 -0.10039448 0.05278756 -0.08592 -0.013215336 0.018355904
0.098060936 -0.18274099 -0.06534057 -0.110652626 0.02845054 -0.1528282 0.08051244 -0.017833857
0.105222456 0.41637796 -0.16054681 -0.06946258 -0.12993503 -0.06898672 -0.012921763 -0.18116792
-0.0023901416 -0.15027967 0.14445908 -0.07540173 -0.14268711 -0.181792 -0.20673096 0.10629086
0.039759632 0.16796859 -0.0780194 0.045211095 -0.03731826 -0.09221311 0.087317444 -0.017247224
0.0002769713 -0.08519125 0.0037638487 0.14416991 -0.03707213 0.091721766 0.07389594 -0.113458015
0.022747722 -0.124324046 0.037203334 0.006799574 0.2524995 0.06836511 -0.0054445006 -0.0037574691
0.08334385 -0.24742317 0.15440567 -0.11324214 -0.08392531 0.12826873 0.015558616 0.013412772
0.063292295 0.0011696176 0.04936232 0.035541315 -0.05679467 0.14319906 -0.018858438 -0.06853762
0.23252133 -0.042270314 0.05005375 0.031903386 0.078977205 0.048805036 0.13491477 -0.008784851
-0.04515024 -0.08336475 -0.07550304 0.079150535 -0.10802902 -0.00036059343 0.25596425 0.09407567
0.26766908 -0.09874574 -0.015874939 0.03882108 0.065269016 0.050167058 0.17291021 -0.059031498
0.03319478 0.031943057 0.07595249 -0.0808667 0.078425415 -0.055613372 0.011737415 0.02813509
-0.0107605215 -0.04995125 0.0057483166 0.054962527 -0.037732173 -0.106593534 0.100359134 0.061464112
-0.027268326 -0.0209902 0.08315907 -0.12401282 0.034699064 -0.08202111 0.082126886 0.005859644
-0.057944626 0.11597875 0.12820134 -0.13659899 -0.10123814 -0.029462377 0.00035090433 0.03936545
0.18362078 0.06781426 -0.09659274 0.026614528 0.07952741 0.08190655 -0.07189612 0.021534206
-0.06570649 -0.003077999 0.042149007 -0.035942353 -0.2110555 -0.12535945 -0.013978991 -0.15578558
-0.042641204 0.07378236 -0.02343756 -0.076356776 -0.044178315 0.02645922 -0.0060357484 0.05144199
-0.07050387 0.079355545 -0.07273875 -0.14830051 -0.0032787798 -0.01382434 -0.038746376 0.106622815
-0.03558974 -0.0073967236 -0.08647391 0.042683087 -0.008810162 0.00598873 -0.19249639 -0.13618323
-0.04556485 0.014843455 0.070173 -0.021177292 -0.068124585 0.07380623 -0.016491791 0.103163056
-0.0074219606 -0.047017235 0.1917066 -0.033749655 -0.017150512 -0.09097498 -0.020150837 0.060571104
-0.005662829 0.03252148 -0.117038146 -0.07153345 -0.06531155 0.023569034 -0.05283255 0.115606055
-0.079891264 0.14403915 0.12550798 -0.07077198 0.13680111 -0.02399921 0.029508298 0.094294794
0.049582403 0.0825038 -0.042460762 -0.057557505 0.023744581 0.09088374 -0.025295427 0.01992947
-0.1763852 -0.05846431 0.04100842 -0.06666537 -0.050360683 -0.17880653 -0.11652351 0.011099395
0.005921555 0.0985872 0.031332575 -0.14388828 -0.07368737 -0.0056267395 0.08951428 0.049724646
-0.020847844 -0.03949899 0.0037050713 0.079580106 -0.119143814 -0.07758636 0.05117839 -0.035868146
0.11404714 0.1550477 -0.008737761 0.026774576 0.04632724 0.032486763 0.08960452 0.0957294
0.11751341 0.09534463 0.034543816 0.050374523 -0.081620105 0.005362582 0.01856429 -0.08414289

fc2.bias f4 [9]
00000000: 468d 163c 6bbd f43c 06f5 30bd 280f 633e
00000010: a632 303e c5a9 a93c 9626 c73d bd7f 43bd
00000020: 8a76 333e
0.009188956 0.029875478 -0.043202423 0.2217375 0.17206821 0.020710835 0.097241566 -0.047729243
0.17525688
